…
solver_mode: GPU
random_seed: 1710
net_param {
  name: "LeNet"
  layers {
    top: "data"
    top: "label"
    name: "mnist"
    type: DATA
    data_param {
      source: "196c_tr_ldb"
      batch_size: 60
      backend: LEVELDB
    }
    include {
      phase: TRAIN
    }
    transform_param {
      scale: 0.00390625
    }
  }
  layers {
    top: "data"
    top: "label"
    name: "mnist"
    type: DATA
    data_param {
      source: "196c_te_ldb"
      batch_size: 100
      backend: LEVELDB
    }
    include {
      phase: TEST
    }
    transform_param {
      scale: 0.00390625
    }
  }
  layers {
    bottom: "data"
    top: "ip1"
    name: "ip1"
    type: INNER_PRODUCT
    blobs_lr: 1
    blobs_lr: 2
    inner_product_param {
      num_output: 800
      weight_filler {
        type: "xavier"
      }
      bias_filler {
        type: "constant"
      }
    }
  }
  layers {
    bottom: "ip1"
    top: "ip1"
    name: "relu1"
    type: RELU
  }
  layers {
    bottom: "ip1"
    top: "ip2"
    name: "ip2"
    type: INNER_PRODUCT
    blobs_lr: 1
    blobs_lr: 2
    inner_product_param {
      num_output: 500
      weight_filler {
        type: "xavier"
      }
      bias_filler {
        type: "constant"
      }
    }
  }
  layers {
    bottom: "ip2"
    top: "ip2"
    name: "relu2"
    type: RELU
  }
  layers {
    bottom: "ip2"
    top: "ip3"
    name: "ip3"
    type: INNER_PRODUCT
    blobs_lr: 1
    blobs_lr: 2
    inner_product_param {
      num_output: 10
      weight_filler {
        type: "xavier"
      }
      bias_filler {
        type: "constant"
      }
    }
  }
  layers {
    bottom: "ip3"
    bottom: "label"
    top: "accuracy"
    name: "accuracy"
    type: ACCURACY
  }
  layers {
    bottom: "ip3"
    bottom: "label"
    top: "loss"
    name: "loss"
    type: SOFTMAX_LOSS
  }
}
test_state {
  stage: "test-on-test-set"
}
I0110 07:50:07.309423 1994072832 solver.cpp:63] Creating training net specified in net_param.
I0110 07:50:07.309499 1994072832 net.cpp:275] The NetState phase (0) differed from the phase (1) specified by a rule in layer mnist
I0110 07:50:07.309520 1994072832 net.cpp:39] Initializing net from parameters: 
name: "LeNet"
layers {
  top: "data"
  top: "label"
  name: "mnist"
  type: DATA
  data_param {
    source: "196c_tr_ldb"
    batch_size: 60
    backend: LEVELDB
  }
  include {
    phase: TRAIN
  }
  transform_param {
    scale: 0.00390625
  }
}
layers {
  bottom: "data"
  top: "ip1"
  name: "ip1"
  type: INNER_PRODUCT
  blobs_lr: 1
  blobs_lr: 2
  inner_product_param {
    num_output: 800
    weight_filler {
      type: "xavier"
    }
    bias_filler {
      type: "constant"
    }
  }
}
layers {
  bottom: "ip1"
  top: "ip1"
  name: "relu1"
  type: RELU
}
layers {
  bottom: "ip1"
  top: "ip2"
  name: "ip2"
  type: INNER_PRODUCT
  blobs_lr: 1
  blobs_lr: 2
  inner_product_param {
    num_output: 500
    weight_filler {
      type: "xavier"
    }
    bias_filler {
      type: "constant"
    }
  }
}
layers {
  bottom: "ip2"
  top: "ip2"
  name: "relu2"
  type: RELU
}
layers {
  bottom: "ip2"
  top: "ip3"
  name: "ip3"
  type: INNER_PRODUCT
  blobs_lr: 1
  blobs_lr: 2
  inner_product_param {
    num_output: 10
    weight_filler {
      type: "xavier"
    }
    bias_filler {
      type: "constant"
    }
  }
}
layers {
  bottom: "ip3"
  bottom: "label"
  top: "accuracy"
  name: "accuracy"
  type: ACCURACY
}
layers {
  bottom: "ip3"
  bottom: "label"
  top: "loss"
  name: "loss"
  type: SOFTMAX_LOSS
}
state {
  phase: TRAIN
}
I0110 07:50:07.309806 1994072832 net.cpp:67] Creating Layer mnist
I0110 07:50:07.309814 1994072832 net.cpp:356] mnist -> data
I0110 07:50:07.309830 1994072832 net.cpp:356] mnist -> label
I0110 07:50:07.309847 1994072832 net.cpp:96] Setting up mnist
I0110 07:50:07.309914 1994072832 data_layer.cpp:45] Opening leveldb 196c_tr_ldb
I0110 07:50:07.321218 1994072832 data_layer.cpp:128] output data size: 60,1,1,588
I0110 07:50:07.321290 1994072832 net.cpp:103] Top shape: 60 1 1 588 (35280)
I0110 07:50:07.321298 1994072832 net.cpp:103] Top shape: 60 1 1 1 (60)
I0110 07:50:07.321307 1994072832 net.cpp:67] Creating Layer label_mnist_1_split
I0110 07:50:07.321311 1994072832 net.cpp:394] label_mnist_1_split <- label
I0110 07:50:07.321321 1994072832 net.cpp:356] label_mnist_1_split -> label_mnist_1_split_0
I0110 07:50:07.321329 1994072832 net.cpp:356] label_mnist_1_split -> label_mnist_1_split_1
I0110 07:50:07.321334 1994072832 net.cpp:96] Setting up label_mnist_1_split
I0110 07:50:07.321338 1994072832 net.cpp:103] Top shape: 60 1 1 1 (60)
I0110 07:50:07.321341 1994072832 net.cpp:103] Top shape: 60 1 1 1 (60)
I0110 07:50:07.321347 1994072832 net.cpp:67] Creating Layer ip1
I0110 07:50:07.321351 1994072832 net.cpp:394] ip1 <- data
I0110 07:50:07.321357 1994072832 net.cpp:356] ip1 -> ip1
I0110 07:50:07.321363 1994072832 net.cpp:96] Setting up ip1
I0110 07:50:07.324681 1994072832 net.cpp:103] Top shape: 60 800 1 1 (48000)
I0110 07:50:07.324712 1994072832 net.cpp:67] Creating Layer relu1
I0110 07:50:07.324714 1994072832 net.cpp:394] relu1 <- ip1
I0110 07:50:07.324719 1994072832 net.cpp:345] relu1 -> ip1 (in-place)
I0110 07:50:07.324724 1994072832 net.cpp:96] Setting up relu1
I0110 07:50:07.324738 1994072832 net.cpp:103] Top shape: 60 800 1 1 (48000)
I0110 07:50:07.324743 1994072832 net.cpp:67] Creating Layer ip2
I0110 07:50:07.324753 1994072832 net.cpp:394] ip2 <- ip1
I0110 07:50:07.324759 1994072832 net.cpp:356] ip2 -> ip2
I0110 07:50:07.324765 1994072832 net.cpp:96] Setting up ip2
I0110 07:50:07.327478 1994072832 net.cpp:103] Top shape: 60 500 1 1 (30000)
I0110 07:50:07.327503 1994072832 net.cpp:67] Creating Layer relu2
I0110 07:50:07.327507 1994072832 net.cpp:394] relu2 <- ip2
I0110 07:50:07.327512 1994072832 net.cpp:345] relu2 -> ip2 (in-place)
I0110 07:50:07.327515 1994072832 net.cpp:96] Setting up relu2
I0110 07:50:07.327527 1994072832 net.cpp:103] Top shape: 60 500 1 1 (30000)
I0110 07:50:07.327533 1994072832 net.cpp:67] Creating Layer ip3
I0110 07:50:07.327536 1994072832 net.cpp:394] ip3 <- ip2
I0110 07:50:07.327546 1994072832 net.cpp:356] ip3 -> ip3
I0110 07:50:07.327551 1994072832 net.cpp:96] Setting up ip3
I0110 07:50:07.327602 1994072832 net.cpp:103] Top shape: 60 10 1 1 (600)
I0110 07:50:07.327620 1994072832 net.cpp:67] Creating Layer ip3_ip3_0_split
I0110 07:50:07.327622 1994072832 net.cpp:394] ip3_ip3_0_split <- ip3
I0110 07:50:07.327628 1994072832 net.cpp:356] ip3_ip3_0_split -> ip3_ip3_0_split_0
I0110 07:50:07.327633 1994072832 net.cpp:356] ip3_ip3_0_split -> ip3_ip3_0_split_1
I0110 07:50:07.327639 1994072832 net.cpp:96] Setting up ip3_ip3_0_split
I0110 07:50:07.327643 1994072832 net.cpp:103] Top shape: 60 10 1 1 (600)
I0110 07:50:07.327647 1994072832 net.cpp:103] Top shape: 60 10 1 1 (600)
I0110 07:50:07.327651 1994072832 net.cpp:67] Creating Layer accuracy
I0110 07:50:07.327654 1994072832 net.cpp:394] accuracy <- ip3_ip3_0_split_0
I0110 07:50:07.327682 1994072832 net.cpp:394] accuracy <- label_mnist_1_split_0
I0110 07:50:07.327702 1994072832 net.cpp:356] accuracy -> accuracy
I0110 07:50:07.327718 1994072832 net.cpp:96] Setting up accuracy
I0110 07:50:07.327723 1994072832 net.cpp:103] Top shape: 1 1 1 1 (1)
I0110 07:50:07.327733 1994072832 net.cpp:67] Creating Layer loss
I0110 07:50:07.327736 1994072832 net.cpp:394] loss <- ip3_ip3_0_split_1
I0110 07:50:07.327740 1994072832 net.cpp:394] loss <- label_mnist_1_split_1
I0110 07:50:07.327744 1994072832 net.cpp:356] loss -> loss
I0110 07:50:07.327750 1994072832 net.cpp:96] Setting up loss
I0110 07:50:07.327761 1994072832 net.cpp:103] Top shape: 1 1 1 1 (1)
I0110 07:50:07.327765 1994072832 net.cpp:109]     with loss weight 1
I0110 07:50:07.327776 1994072832 net.cpp:170] loss needs backward computation.
I0110 07:50:07.327780 1994072832 net.cpp:172] accuracy does not need backward computation.
I0110 07:50:07.327795 1994072832 net.cpp:170] ip3_ip3_0_split needs backward computation.
I0110 07:50:07.327821 1994072832 net.cpp:170] ip3 needs backward computation.
…
I0110 07:50:07.327864 1994072832 net.cpp:220] Memory required for data: 773048
I0110 07:50:07.327936 1994072832 solver.cpp:151] Creating test net (#0) specified by net_param
I0110 07:50:07.327955 1994072832 net.cpp:275] The NetState phase (1) differed from the phase (0) specified by a rule in layer mnist
I0110 07:50:07.327965 1994072832 net.cpp:39] Initializing net from parameters: 
name: "LeNet"
layers {
  top: "data"
  top: "label"
  name: "mnist"
  type: DATA
  data_param {
    source: "196c_te_ldb"
    batch_size: 100
    backend: LEVELDB
  }
  include {
    phase: TEST
  }
  transform_param {
    scale: 0.00390625
  }
}
layers {
  bottom: "data"
  top: "ip1"
  name: "ip1"
  type: INNER_PRODUCT
  blobs_lr: 1
  blobs_lr: 2
  inner_product_param {
    num_output: 800
    weight_filler {
      type: "xavier"
    }
    bias_filler {
      type: "constant"
    }
  }
}
layers {
  bottom: "ip1"
  top: "ip1"
  name: "relu1"
  type: RELU
}
layers {
  bottom: "ip1"
  top: "ip2"
  name: "ip2"
  type: INNER_PRODUCT
  blobs_lr: 1
  blobs_lr: 2
  inner_product_param {
    num_output: 500
    weight_filler {
      type: "xavier"
    }
    bias_filler {
      type: "constant"
    }
  }
}
layers {
  bottom: "ip2"
  top: "ip2"
  name: "relu2"
  type: RELU
}
layers {
  bottom: "ip2"
  top: "ip3"
  name: "ip3"
  type: INNER_PRODUCT
  blobs_lr: 1
  blobs_lr: 2
  inner_product_param {
    num_output: 10
    weight_filler {
      type: "xavier"
    }
    bias_filler {
      type: "constant"
    }
  }
}
layers {
  bottom: "ip3"
  bottom: "label"
  top: "accuracy"
  name: "accuracy"
  type: ACCURACY
}
layers {
  bottom: "ip3"
  bottom: "label"
  top: "loss"
  name: "loss"
  type: SOFTMAX_LOSS
}
state {
  phase: TEST
  stage: "test-on-test-set"
}
I0110 07:50:07.328282 1994072832 net.cpp:67] Creating Layer mnist
I0110 07:50:07.328289 1994072832 net.cpp:356] mnist -> data
I0110 07:50:07.328295 1994072832 net.cpp:356] mnist -> label
I0110 07:50:07.328301 1994072832 net.cpp:96] Setting up mnist
I0110 07:50:07.328306 1994072832 data_layer.cpp:45] Opening leveldb 196c_te_ldb
I0110 07:50:07.332129 1994072832 data_layer.cpp:128] output data size: 100,1,1,588
I0110 07:50:07.332342 1994072832 net.cpp:103] Top shape: 100 1 1 588 (58800)
I0110 07:50:07.332350 1994072832 net.cpp:103] Top shape: 100 1 1 1 (100)
I0110 07:50:07.332360 1994072832 net.cpp:67] Creating Layer label_mnist_1_split
I0110 07:50:07.332362 1994072832 net.cpp:394] label_mnist_1_split <- label
I0110 07:50:07.332367 1994072832 net.cpp:356] label_mnist_1_split -> label_mnist_1_split_0
I0110 07:50:07.332376 1994072832 net.cpp:356] label_mnist_1_split -> label_mnist_1_split_1
I0110 07:50:07.332381 1994072832 net.cpp:96] Setting up label_mnist_1_split
I0110 07:50:07.332384 1994072832 net.cpp:103] Top shape: 100 1 1 1 (100)
I0110 07:50:07.332387 1994072832 net.cpp:103] Top shape: 100 1 1 1 (100)
I0110 07:50:07.332393 1994072832 net.cpp:67] Creating Layer ip1
I0110 07:50:07.332396 1994072832 net.cpp:394] ip1 <- data
I0110 07:50:07.332401 1994072832 net.cpp:356] ip1 -> ip1
I0110 07:50:07.332406 1994072832 net.cpp:96] Setting up ip1
I0110 07:50:07.335746 1994072832 net.cpp:103] Top shape: 100 800 1 1 (80000)
I0110 07:50:07.335783 1994072832 net.cpp:67] Creating Layer relu1
I0110 07:50:07.335788 1994072832 net.cpp:394] relu1 <- ip1
I0110 07:50:07.335793 1994072832 net.cpp:345] relu1 -> ip1 (in-place)
I0110 07:50:07.335799 1994072832 net.cpp:96] Setting up relu1
I0110 07:50:07.335813 1994072832 net.cpp:103] Top shape: 100 800 1 1 (80000)
I0110 07:50:07.335819 1994072832 net.cpp:67] Creating Layer ip2
I0110 07:50:07.335822 1994072832 net.cpp:394] ip2 <- ip1
I0110 07:50:07.335827 1994072832 net.cpp:356] ip2 -> ip2
I0110 07:50:07.335855 1994072832 net.cpp:96] Setting up ip2
I0110 07:50:07.338536 1994072832 net.cpp:103] Top shape: 100 500 1 1 (50000)
I0110 07:50:07.338564 1994072832 net.cpp:67] Creating Layer relu2
I0110 07:50:07.338568 1994072832 net.cpp:394] relu2 <- ip2
I0110 07:50:07.338573 1994072832 net.cpp:345] relu2 -> ip2 (in-place)
I0110 07:50:07.338588 1994072832 net.cpp:96] Setting up relu2
I0110 07:50:07.338592 1994072832 net.cpp:103] Top shape: 100 500 1 1 (50000)
I0110 07:50:07.338596 1994072832 net.cpp:67] Creating Layer ip3
I0110 07:50:07.338599 1994072832 net.cpp:394] ip3 <- ip2
I0110 07:50:07.338604 1994072832 net.cpp:356] ip3 -> ip3
I0110 07:50:07.338609 1994072832 net.cpp:96] Setting up ip3
I0110 07:50:07.338662 1994072832 net.cpp:103] Top shape: 100 10 1 1 (1000)
I0110 07:50:07.338680 1994072832 net.cpp:67] Creating Layer ip3_ip3_0_split
I0110 07:50:07.338682 1994072832 net.cpp:394] ip3_ip3_0_split <- ip3
I0110 07:50:07.338688 1994072832 net.cpp:356] ip3_ip3_0_split -> ip3_ip3_0_split_0
I0110 07:50:07.338695 1994072832 net.cpp:356] ip3_ip3_0_split -> ip3_ip3_0_split_1
I0110 07:50:07.338701 1994072832 net.cpp:96] Setting up ip3_ip3_0_split
I0110 07:50:07.338704 1994072832 net.cpp:103] Top shape: 100 10 1 1 (1000)
I0110 07:50:07.338708 1994072832 net.cpp:103] Top shape: 100 10 1 1 (1000)
I0110 07:50:07.338713 1994072832 net.cpp:67] Creating Layer accuracy
I0110 07:50:07.338716 1994072832 net.cpp:394] accuracy <- ip3_ip3_0_split_0
I0110 07:50:07.338721 1994072832 net.cpp:394] accuracy <- label_mnist_1_split_0
I0110 07:50:07.338724 1994072832 net.cpp:356] accuracy -> accuracy
I0110 07:50:07.338728 1994072832 net.cpp:96] Setting up accuracy
I0110 07:50:07.338732 1994072832 net.cpp:103] Top shape: 1 1 1 1 (1)
I0110 07:50:07.338737 1994072832 net.cpp:67] Creating Layer loss
I0110 07:50:07.338740 1994072832 net.cpp:394] loss <- ip3_ip3_0_split_1
I0110 07:50:07.338744 1994072832 net.cpp:394] loss <- label_mnist_1_split_1
I0110 07:50:07.338750 1994072832 net.cpp:356] loss -> loss
I0110 07:50:07.338755 1994072832 net.cpp:96] Setting up loss
I0110 07:50:07.338762 1994072832 net.cpp:103] Top shape: 1 1 1 1 (1)
I0110 07:50:07.338764 1994072832 net.cpp:109]     with loss weight 1
I0110 07:50:07.338773 1994072832 net.cpp:170] loss needs backward computation.
I0110 07:50:07.338776 1994072832 net.cpp:172] accuracy does not need backward computation.
I0110 07:50:07.338778 1994072832 net.cpp:170] ip3_ip3_0_split needs backward computation.
I0110 07:50:07.338783 1994072832 net.cpp:170] ip3 needs backward computation.
…
