…
solver_mode: GPU
random_seed: 1710
net_param {
  name: "Coord"
  layers {
    top: "data"
    top: "label"
    name: "mnist"
    type: DATA
    data_param {
      source: "196s5c_tr_ldb"
      batch_size: 60
      backend: LEVELDB
    }
    include {
      phase: TRAIN
    }
    transform_param {
      scale: 0.00390625
    }
  }
  layers {
    top: "data"
    top: "label"
    name: "mnist"
    type: DATA
    data_param {
      source: "196s5c_te_ldb"
      batch_size: 100
      backend: LEVELDB
    }
    include {
      phase: TEST
    }
    transform_param {
      scale: 0.00390625
    }
  }
  layers {
    bottom: "data"
    top: "ip1"
    name: "ip1"
    type: INNER_PRODUCT
    blobs_lr: 1
    blobs_lr: 2
    inner_product_param {
      num_output: 800
      weight_filler {
        type: "xavier"
      }
      bias_filler {
        type: "constant"
      }
    }
  }
  layers {
    bottom: "ip1"
    top: "ip1"
    name: "relu1"
    type: RELU
  }
  layers {
    bottom: "ip1"
    top: "ip2"
    name: "ip2"
    type: INNER_PRODUCT
    blobs_lr: 1
    blobs_lr: 2
    inner_product_param {
      num_output: 500
      weight_filler {
        type: "xavier"
      }
      bias_filler {
        type: "constant"
      }
    }
  }
  layers {
    bottom: "ip2"
    top: "ip2"
    name: "relu2"
    type: RELU
  }
  layers {
    bottom: "ip2"
    top: "ip3"
    name: "ip3"
    type: INNER_PRODUCT
    blobs_lr: 1
    blobs_lr: 2
    inner_product_param {
      num_output: 10
      weight_filler {
        type: "xavier"
      }
      bias_filler {
        type: "constant"
      }
    }
  }
  layers {
    bottom: "ip3"
    bottom: "label"
    top: "accuracy"
    name: "accuracy"
    type: ACCURACY
  }
  layers {
    bottom: "ip3"
    bottom: "label"
    top: "loss"
    name: "loss"
    type: SOFTMAX_LOSS
  }
}
test_state {
  stage: "test-on-test-set"
}
I0110 22:33:47.683784 1994072832 solver.cpp:63] Creating training net specified in net_param.
I0110 22:33:47.684044 1994072832 net.cpp:275] The NetState phase (0) differed from the phase (1) specified by a rule in layer mnist
I0110 22:33:47.684061 1994072832 net.cpp:39] Initializing net from parameters: 
name: "Coord"
layers {
  top: "data"
  top: "label"
  name: "mnist"
  type: DATA
  data_param {
    source: "196s5c_tr_ldb"
    batch_size: 60
    backend: LEVELDB
  }
  include {
    phase: TRAIN
  }
  transform_param {
    scale: 0.00390625
  }
}
layers {
  bottom: "data"
  top: "ip1"
  name: "ip1"
  type: INNER_PRODUCT
  blobs_lr: 1
  blobs_lr: 2
  inner_product_param {
    num_output: 800
    weight_filler {
      type: "xavier"
    }
    bias_filler {
      type: "constant"
    }
  }
}
layers {
  bottom: "ip1"
  top: "ip1"
  name: "relu1"
  type: RELU
}
layers {
  bottom: "ip1"
  top: "ip2"
  name: "ip2"
  type: INNER_PRODUCT
  blobs_lr: 1
  blobs_lr: 2
  inner_product_param {
    num_output: 500
    weight_filler {
      type: "xavier"
    }
    bias_filler {
      type: "constant"
    }
  }
}
layers {
  bottom: "ip2"
  top: "ip2"
  name: "relu2"
  type: RELU
}
layers {
  bottom: "ip2"
  top: "ip3"
  name: "ip3"
  type: INNER_PRODUCT
  blobs_lr: 1
  blobs_lr: 2
  inner_product_param {
    num_output: 10
    weight_filler {
      type: "xavier"
    }
    bias_filler {
      type: "constant"
    }
  }
}
layers {
  bottom: "ip3"
  bottom: "label"
  top: "accuracy"
  name: "accuracy"
  type: ACCURACY
}
layers {
  bottom: "ip3"
  bottom: "label"
  top: "loss"
  name: "loss"
  type: SOFTMAX_LOSS
}
state {
  phase: TRAIN
}
I0110 22:33:47.684447 1994072832 net.cpp:67] Creating Layer mnist
I0110 22:33:47.684468 1994072832 net.cpp:356] mnist -> data
I0110 22:33:47.684494 1994072832 net.cpp:356] mnist -> label
I0110 22:33:47.684624 1994072832 net.cpp:96] Setting up mnist
I0110 22:33:47.684701 1994072832 data_layer.cpp:45] Opening leveldb 196s5c_tr_ldb
I0110 22:33:47.765144 1994072832 data_layer.cpp:128] output data size: 60,1,1,980
I0110 22:33:47.765244 1994072832 net.cpp:103] Top shape: 60 1 1 980 (58800)
I0110 22:33:47.765271 1994072832 net.cpp:103] Top shape: 60 1 1 1 (60)
I0110 22:33:47.765290 1994072832 net.cpp:67] Creating Layer label_mnist_1_split
I0110 22:33:47.765301 1994072832 net.cpp:394] label_mnist_1_split <- label
I0110 22:33:47.765346 1994072832 net.cpp:356] label_mnist_1_split -> label_mnist_1_split_0
I0110 22:33:47.765378 1994072832 net.cpp:356] label_mnist_1_split -> label_mnist_1_split_1
I0110 22:33:47.765388 1994072832 net.cpp:96] Setting up label_mnist_1_split
I0110 22:33:47.765393 1994072832 net.cpp:103] Top shape: 60 1 1 1 (60)
I0110 22:33:47.765395 1994072832 net.cpp:103] Top shape: 60 1 1 1 (60)
I0110 22:33:47.765416 1994072832 net.cpp:67] Creating Layer ip1
I0110 22:33:47.765425 1994072832 net.cpp:394] ip1 <- data
I0110 22:33:47.765431 1994072832 net.cpp:356] ip1 -> ip1
I0110 22:33:47.765478 1994072832 net.cpp:96] Setting up ip1
I0110 22:33:47.771394 1994072832 net.cpp:103] Top shape: 60 800 1 1 (48000)
I0110 22:33:47.771425 1994072832 net.cpp:67] Creating Layer relu1
I0110 22:33:47.771432 1994072832 net.cpp:394] relu1 <- ip1
I0110 22:33:47.771440 1994072832 net.cpp:345] relu1 -> ip1 (in-place)
I0110 22:33:47.771446 1994072832 net.cpp:96] Setting up relu1
I0110 22:33:47.771452 1994072832 net.cpp:103] Top shape: 60 800 1 1 (48000)
I0110 22:33:47.771459 1994072832 net.cpp:67] Creating Layer ip2
I0110 22:33:47.771464 1994072832 net.cpp:394] ip2 <- ip1
I0110 22:33:47.771469 1994072832 net.cpp:356] ip2 -> ip2
I0110 22:33:47.771477 1994072832 net.cpp:96] Setting up ip2
I0110 22:33:47.774330 1994072832 net.cpp:103] Top shape: 60 500 1 1 (30000)
I0110 22:33:47.774350 1994072832 net.cpp:67] Creating Layer relu2
I0110 22:33:47.774355 1994072832 net.cpp:394] relu2 <- ip2
I0110 22:33:47.774365 1994072832 net.cpp:345] relu2 -> ip2 (in-place)
I0110 22:33:47.774371 1994072832 net.cpp:96] Setting up relu2
I0110 22:33:47.774375 1994072832 net.cpp:103] Top shape: 60 500 1 1 (30000)
I0110 22:33:47.774381 1994072832 net.cpp:67] Creating Layer ip3
I0110 22:33:47.774385 1994072832 net.cpp:394] ip3 <- ip2
I0110 22:33:47.774390 1994072832 net.cpp:356] ip3 -> ip3
I0110 22:33:47.774396 1994072832 net.cpp:96] Setting up ip3
I0110 22:33:47.774435 1994072832 net.cpp:103] Top shape: 60 10 1 1 (600)
I0110 22:33:47.774442 1994072832 net.cpp:67] Creating Layer ip3_ip3_0_split
I0110 22:33:47.774446 1994072832 net.cpp:394] ip3_ip3_0_split <- ip3
I0110 22:33:47.774449 1994072832 net.cpp:356] ip3_ip3_0_split -> ip3_ip3_0_split_0
I0110 22:33:47.774456 1994072832 net.cpp:356] ip3_ip3_0_split -> ip3_ip3_0_split_1
I0110 22:33:47.774464 1994072832 net.cpp:96] Setting up ip3_ip3_0_split
I0110 22:33:47.774485 1994072832 net.cpp:103] Top shape: 60 10 1 1 (600)
I0110 22:33:47.774490 1994072832 net.cpp:103] Top shape: 60 10 1 1 (600)
I0110 22:33:47.774497 1994072832 net.cpp:67] Creating Layer accuracy
I0110 22:33:47.774500 1994072832 net.cpp:394] accuracy <- ip3_ip3_0_split_0
I0110 22:33:47.774504 1994072832 net.cpp:394] accuracy <- label_mnist_1_split_0
I0110 22:33:47.774509 1994072832 net.cpp:356] accuracy -> accuracy
I0110 22:33:47.774514 1994072832 net.cpp:96] Setting up accuracy
I0110 22:33:47.774518 1994072832 net.cpp:103] Top shape: 1 1 1 1 (1)
I0110 22:33:47.774528 1994072832 net.cpp:67] Creating Layer loss
I0110 22:33:47.774555 1994072832 net.cpp:394] loss <- ip3_ip3_0_split_1
I0110 22:33:47.774567 1994072832 net.cpp:394] loss <- label_mnist_1_split_1
I0110 22:33:47.774576 1994072832 net.cpp:356] loss -> loss
I0110 22:33:47.774583 1994072832 net.cpp:96] Setting up loss
I0110 22:33:47.774596 1994072832 net.cpp:103] Top shape: 1 1 1 1 (1)
I0110 22:33:47.774600 1994072832 net.cpp:109]     with loss weight 1
I0110 22:33:47.774613 1994072832 net.cpp:170] loss needs backward computation.
I0110 22:33:47.774616 1994072832 net.cpp:172] accuracy does not need backward computation.
I0110 22:33:47.774647 1994072832 net.cpp:170] ip3_ip3_0_split needs backward computation.
I0110 22:33:47.774677 1994072832 net.cpp:170] ip3 needs backward computation.
…
I0110 22:33:47.774759 1994072832 net.cpp:220] Memory required for data: 867128
I0110 22:33:47.774823 1994072832 solver.cpp:151] Creating test net (#0) specified by net_param
I0110 22:33:47.774843 1994072832 net.cpp:275] The NetState phase (1) differed from the phase (0) specified by a rule in layer mnist
I0110 22:33:47.774860 1994072832 net.cpp:39] Initializing net from parameters: 
name: "Coord"
layers {
  top: "data"
  top: "label"
  name: "mnist"
  type: DATA
  data_param {
    source: "196s5c_te_ldb"
    batch_size: 100
    backend: LEVELDB
  }
  include {
    phase: TEST
  }
  transform_param {
    scale: 0.00390625
  }
}
layers {
  bottom: "data"
  top: "ip1"
  name: "ip1"
  type: INNER_PRODUCT
  blobs_lr: 1
  blobs_lr: 2
  inner_product_param {
    num_output: 800
    weight_filler {
      type: "xavier"
    }
    bias_filler {
      type: "constant"
    }
  }
}
layers {
  bottom: "ip1"
  top: "ip1"
  name: "relu1"
  type: RELU
}
layers {
  bottom: "ip1"
  top: "ip2"
  name: "ip2"
  type: INNER_PRODUCT
  blobs_lr: 1
  blobs_lr: 2
  inner_product_param {
    num_output: 500
    weight_filler {
      type: "xavier"
    }
    bias_filler {
      type: "constant"
    }
  }
}
layers {
  bottom: "ip2"
  top: "ip2"
  name: "relu2"
  type: RELU
}
layers {
  bottom: "ip2"
  top: "ip3"
  name: "ip3"
  type: INNER_PRODUCT
  blobs_lr: 1
  blobs_lr: 2
  inner_product_param {
    num_output: 10
    weight_filler {
      type: "xavier"
    }
    bias_filler {
      type: "constant"
    }
  }
}
layers {
  bottom: "ip3"
  bottom: "label"
  top: "accuracy"
  name: "accuracy"
  type: ACCURACY
}
layers {
  bottom: "ip3"
  bottom: "label"
  top: "loss"
  name: "loss"
  type: SOFTMAX_LOSS
}
state {
  phase: TEST
  stage: "test-on-test-set"
}
I0110 22:33:47.775130 1994072832 net.cpp:67] Creating Layer mnist
I0110 22:33:47.775137 1994072832 net.cpp:356] mnist -> data
I0110 22:33:47.775146 1994072832 net.cpp:356] mnist -> label
I0110 22:33:47.775151 1994072832 net.cpp:96] Setting up mnist
I0110 22:33:47.775156 1994072832 data_layer.cpp:45] Opening leveldb 196s5c_te_ldb
I0110 22:33:47.817855 1994072832 data_layer.cpp:128] output data size: 100,1,1,980
I0110 22:33:47.817986 1994072832 net.cpp:103] Top shape: 100 1 1 980 (98000)
I0110 22:33:47.817996 1994072832 net.cpp:103] Top shape: 100 1 1 1 (100)
I0110 22:33:47.818035 1994072832 net.cpp:67] Creating Layer label_mnist_1_split
I0110 22:33:47.818047 1994072832 net.cpp:394] label_mnist_1_split <- label
I0110 22:33:47.818053 1994072832 net.cpp:356] label_mnist_1_split -> label_mnist_1_split_0
I0110 22:33:47.818061 1994072832 net.cpp:356] label_mnist_1_split -> label_mnist_1_split_1
I0110 22:33:47.818068 1994072832 net.cpp:96] Setting up label_mnist_1_split
I0110 22:33:47.818073 1994072832 net.cpp:103] Top shape: 100 1 1 1 (100)
I0110 22:33:47.818076 1994072832 net.cpp:103] Top shape: 100 1 1 1 (100)
I0110 22:33:47.818091 1994072832 net.cpp:67] Creating Layer ip1
I0110 22:33:47.818095 1994072832 net.cpp:394] ip1 <- data
I0110 22:33:47.818104 1994072832 net.cpp:356] ip1 -> ip1
I0110 22:33:47.818110 1994072832 net.cpp:96] Setting up ip1
I0110 22:33:47.823863 1994072832 net.cpp:103] Top shape: 100 800 1 1 (80000)
I0110 22:33:47.823904 1994072832 net.cpp:67] Creating Layer relu1
I0110 22:33:47.823909 1994072832 net.cpp:394] relu1 <- ip1
I0110 22:33:47.823915 1994072832 net.cpp:345] relu1 -> ip1 (in-place)
I0110 22:33:47.823921 1994072832 net.cpp:96] Setting up relu1
I0110 22:33:47.823925 1994072832 net.cpp:103] Top shape: 100 800 1 1 (80000)
I0110 22:33:47.823932 1994072832 net.cpp:67] Creating Layer ip2
I0110 22:33:47.823936 1994072832 net.cpp:394] ip2 <- ip1
I0110 22:33:47.823945 1994072832 net.cpp:356] ip2 -> ip2
I0110 22:33:47.823952 1994072832 net.cpp:96] Setting up ip2
I0110 22:33:47.826853 1994072832 net.cpp:103] Top shape: 100 500 1 1 (50000)
I0110 22:33:47.826886 1994072832 net.cpp:67] Creating Layer relu2
I0110 22:33:47.826891 1994072832 net.cpp:394] relu2 <- ip2
I0110 22:33:47.826897 1994072832 net.cpp:345] relu2 -> ip2 (in-place)
I0110 22:33:47.826903 1994072832 net.cpp:96] Setting up relu2
I0110 22:33:47.826907 1994072832 net.cpp:103] Top shape: 100 500 1 1 (50000)
I0110 22:33:47.826913 1994072832 net.cpp:67] Creating Layer ip3
I0110 22:33:47.826917 1994072832 net.cpp:394] ip3 <- ip2
I0110 22:33:47.826922 1994072832 net.cpp:356] ip3 -> ip3
I0110 22:33:47.826930 1994072832 net.cpp:96] Setting up ip3
I0110 22:33:47.826967 1994072832 net.cpp:103] Top shape: 100 10 1 1 (1000)
I0110 22:33:47.826975 1994072832 net.cpp:67] Creating Layer ip3_ip3_0_split
I0110 22:33:47.826979 1994072832 net.cpp:394] ip3_ip3_0_split <- ip3
I0110 22:33:47.826983 1994072832 net.cpp:356] ip3_ip3_0_split -> ip3_ip3_0_split_0
I0110 22:33:47.826989 1994072832 net.cpp:356] ip3_ip3_0_split -> ip3_ip3_0_split_1
I0110 22:33:47.826995 1994072832 net.cpp:96] Setting up ip3_ip3_0_split
I0110 22:33:47.827000 1994072832 net.cpp:103] Top shape: 100 10 1 1 (1000)
I0110 22:33:47.827004 1994072832 net.cpp:103] Top shape: 100 10 1 1 (1000)
I0110 22:33:47.827009 1994072832 net.cpp:67] Creating Layer accuracy
I0110 22:33:47.827013 1994072832 net.cpp:394] accuracy <- ip3_ip3_0_split_0
I0110 22:33:47.827016 1994072832 net.cpp:394] accuracy <- label_mnist_1_split_0
I0110 22:33:47.827021 1994072832 net.cpp:356] accuracy -> accuracy
I0110 22:33:47.827026 1994072832 net.cpp:96] Setting up accuracy
I0110 22:33:47.827030 1994072832 net.cpp:103] Top shape: 1 1 1 1 (1)
I0110 22:33:47.827041 1994072832 net.cpp:67] Creating Layer loss
I0110 22:33:47.827045 1994072832 net.cpp:394] loss <- ip3_ip3_0_split_1
I0110 22:33:47.827049 1994072832 net.cpp:394] loss <- label_mnist_1_split_1
I0110 22:33:47.827054 1994072832 net.cpp:356] loss -> loss
I0110 22:33:47.827059 1994072832 net.cpp:96] Setting up loss
I0110 22:33:47.827065 1994072832 net.cpp:103] Top shape: 1 1 1 1 (1)
I0110 22:33:47.827069 1994072832 net.cpp:109]     with loss weight 1
I0110 22:33:47.827076 1994072832 net.cpp:170] loss needs backward computation.
I0110 22:33:47.827080 1994072832 net.cpp:172] accuracy does not need backward computation.
I0110 22:33:47.827082 1994072832 net.cpp:170] ip3_ip3_0_split needs backward computation.
I0110 22:33:47.827086 1994072832 net.cpp:170] ip3 needs backward computation.
…
