…
solver_mode: GPU
random_seed: 1710
net_param {
  name: "LeNet"
  layers {
    top: "data"
    top: "label"
    name: "mnist"
    type: DATA
    data_param {
      source: "1S_tr_ldb"
      batch_size: 60
      backend: LEVELDB
    }
    include {
      phase: TRAIN
    }
    transform_param {
      scale: 0.00390625
    }
  }
  layers {
    top: "data"
    top: "label"
    name: "mnist"
    type: DATA
    data_param {
      source: "1S_te_ldb"
      batch_size: 100
      backend: LEVELDB
    }
    include {
      phase: TEST
    }
    transform_param {
      scale: 0.00390625
    }
  }
  layers {
    bottom: "data"
    top: "ip1"
    name: "ip1"
    type: INNER_PRODUCT
    blobs_lr: 1
    blobs_lr: 2
    inner_product_param {
      num_output: 300
      weight_filler {
        type: "xavier"
      }
      bias_filler {
        type: "constant"
      }
    }
  }
  layers {
    bottom: "ip1"
    top: "ip1"
    name: "relu1"
    type: RELU
  }
  layers {
    bottom: "ip1"
    top: "ip2"
    name: "ip2"
    type: INNER_PRODUCT
    blobs_lr: 1
    blobs_lr: 2
    inner_product_param {
      num_output: 300
      weight_filler {
        type: "xavier"
      }
      bias_filler {
        type: "constant"
      }
    }
  }
  layers {
    bottom: "ip2"
    top: "ip2"
    name: "relu2"
    type: RELU
  }
  layers {
    bottom: "ip2"
    top: "ip3"
    name: "ip3"
    type: INNER_PRODUCT
    blobs_lr: 1
    blobs_lr: 2
    inner_product_param {
      num_output: 10
      weight_filler {
        type: "xavier"
      }
      bias_filler {
        type: "constant"
      }
    }
  }
  layers {
    bottom: "ip3"
    bottom: "label"
    top: "accuracy"
    name: "accuracy"
    type: ACCURACY
  }
  layers {
    bottom: "ip3"
    bottom: "label"
    top: "loss"
    name: "loss"
    type: SOFTMAX_LOSS
  }
}
test_state {
  stage: "test-on-test-set"
}
I0101 10:11:49.398789 1994072832 solver.cpp:63] Creating training net specified in net_param.
I0101 10:11:49.398835 1994072832 net.cpp:275] The NetState phase (0) differed from the phase (1) specified by a rule in layer mnist
I0101 10:11:49.398857 1994072832 net.cpp:39] Initializing net from parameters:
name: "LeNet"
layers {
  top: "data"
  top: "label"
  name: "mnist"
  type: DATA
  data_param {
    source: "1S_tr_ldb"
    batch_size: 60
    backend: LEVELDB
  }
  include {
    phase: TRAIN
  }
  transform_param {
    scale: 0.00390625
  }
}
layers {
  bottom: "data"
  top: "ip1"
  name: "ip1"
  type: INNER_PRODUCT
  blobs_lr: 1
  blobs_lr: 2
  inner_product_param {
    num_output: 300
    weight_filler {
      type: "xavier"
    }
    bias_filler {
      type: "constant"
    }
  }
}
layers {
  bottom: "ip1"
  top: "ip1"
  name: "relu1"
  type: RELU
}
layers {
  bottom: "ip1"
  top: "ip2"
  name: "ip2"
  type: INNER_PRODUCT
  blobs_lr: 1
  blobs_lr: 2
  inner_product_param {
    num_output: 300
    weight_filler {
      type: "xavier"
    }
    bias_filler {
      type: "constant"
    }
  }
}
layers {
  bottom: "ip2"
  top: "ip2"
  name: "relu2"
  type: RELU
}
layers {
  bottom: "ip2"
  top: "ip3"
  name: "ip3"
  type: INNER_PRODUCT
  blobs_lr: 1
  blobs_lr: 2
  inner_product_param {
    num_output: 10
    weight_filler {
      type: "xavier"
    }
    bias_filler {
      type: "constant"
    }
  }
}
layers {
  bottom: "ip3"
  bottom: "label"
  top: "accuracy"
  name: "accuracy"
  type: ACCURACY
}
layers {
  bottom: "ip3"
  bottom: "label"
  top: "loss"
  name: "loss"
  type: SOFTMAX_LOSS
}
state {
  phase: TRAIN
}
I0101 10:11:49.399186 1994072832 net.cpp:67] Creating Layer mnist
I0101 10:11:49.399199 1994072832 net.cpp:356] mnist -> data
I0101 10:11:49.399224 1994072832 net.cpp:356] mnist -> label
I0101 10:11:49.399232 1994072832 net.cpp:96] Setting up mnist
I0101 10:11:49.399314 1994072832 data_layer.cpp:45] Opening leveldb 1S_tr_ldb
I0101 10:11:49.453660 1994072832 data_layer.cpp:128] output data size: 60,1,1,196
I0101 10:11:49.453806 1994072832 net.cpp:103] Top shape: 60 1 1 196 (11760)
I0101 10:11:49.453814 1994072832 net.cpp:103] Top shape: 60 1 1 1 (60)
I0101 10:11:49.453824 1994072832 net.cpp:67] Creating Layer label_mnist_1_split
I0101 10:11:49.453827 1994072832 net.cpp:394] label_mnist_1_split <- label
I0101 10:11:49.453835 1994072832 net.cpp:356] label_mnist_1_split -> label_mnist_1_split_0
I0101 10:11:49.453843 1994072832 net.cpp:356] label_mnist_1_split -> label_mnist_1_split_1
I0101 10:11:49.453858 1994072832 net.cpp:96] Setting up label_mnist_1_split
I0101 10:11:49.453863 1994072832 net.cpp:103] Top shape: 60 1 1 1 (60)
I0101 10:11:49.453866 1994072832 net.cpp:103] Top shape: 60 1 1 1 (60)
I0101 10:11:49.453874 1994072832 net.cpp:67] Creating Layer ip1
I0101 10:11:49.453877 1994072832 net.cpp:394] ip1 <- data
I0101 10:11:49.453882 1994072832 net.cpp:356] ip1 -> ip1
I0101 10:11:49.453897 1994072832 net.cpp:96] Setting up ip1
I0101 10:11:49.454372 1994072832 net.cpp:103] Top shape: 60 300 1 1 (18000)
I0101 10:11:49.454385 1994072832 net.cpp:67] Creating Layer relu1
I0101 10:11:49.454388 1994072832 net.cpp:394] relu1 <- ip1
I0101 10:11:49.454392 1994072832 net.cpp:345] relu1 -> ip1 (in-place)
I0101 10:11:49.454396 1994072832 net.cpp:96] Setting up relu1
I0101 10:11:49.454401 1994072832 net.cpp:103] Top shape: 60 300 1 1 (18000)
I0101 10:11:49.454406 1994072832 net.cpp:67] Creating Layer ip2
I0101 10:11:49.454408 1994072832 net.cpp:394] ip2 <- ip1
I0101 10:11:49.454424 1994072832 net.cpp:356] ip2 -> ip2
I0101 10:11:49.454429 1994072832 net.cpp:96] Setting up ip2
I0101 10:11:49.454957 1994072832 net.cpp:103] Top shape: 60 300 1 1 (18000)
I0101 10:11:49.454964 1994072832 net.cpp:67] Creating Layer relu2
I0101 10:11:49.454967 1994072832 net.cpp:394] relu2 <- ip2
I0101 10:11:49.454972 1994072832 net.cpp:345] relu2 -> ip2 (in-place)
I0101 10:11:49.454975 1994072832 net.cpp:96] Setting up relu2
I0101 10:11:49.454978 1994072832 net.cpp:103] Top shape: 60 300 1 1 (18000)
I0101 10:11:49.454983 1994072832 net.cpp:67] Creating Layer ip3
I0101 10:11:49.454987 1994072832 net.cpp:394] ip3 <- ip2
I0101 10:11:49.454990 1994072832 net.cpp:356] ip3 -> ip3
I0101 10:11:49.455004 1994072832 net.cpp:96] Setting up ip3
I0101 10:11:49.455039 1994072832 net.cpp:103] Top shape: 60 10 1 1 (600)
I0101 10:11:49.455056 1994072832 net.cpp:67] Creating Layer ip3_ip3_0_split
I0101 10:11:49.455060 1994072832 net.cpp:394] ip3_ip3_0_split <- ip3
I0101 10:11:49.455063 1994072832 net.cpp:356] ip3_ip3_0_split -> ip3_ip3_0_split_0
I0101 10:11:49.455070 1994072832 net.cpp:356] ip3_ip3_0_split -> ip3_ip3_0_split_1
I0101 10:11:49.455075 1994072832 net.cpp:96] Setting up ip3_ip3_0_split
I0101 10:11:49.455086 1994072832 net.cpp:103] Top shape: 60 10 1 1 (600)
I0101 10:11:49.455090 1994072832 net.cpp:103] Top shape: 60 10 1 1 (600)
I0101 10:11:49.455095 1994072832 net.cpp:67] Creating Layer accuracy
I0101 10:11:49.455096 1994072832 net.cpp:394] accuracy <- ip3_ip3_0_split_0
I0101 10:11:49.455101 1994072832 net.cpp:394] accuracy <- label_mnist_1_split_0
I0101 10:11:49.455114 1994072832 net.cpp:356] accuracy -> accuracy
I0101 10:11:49.455118 1994072832 net.cpp:96] Setting up accuracy
I0101 10:11:49.455122 1994072832 net.cpp:103] Top shape: 1 1 1 1 (1)
I0101 10:11:49.455139 1994072832 net.cpp:67] Creating Layer loss
I0101 10:11:49.455142 1994072832 net.cpp:394] loss <- ip3_ip3_0_split_1
I0101 10:11:49.455147 1994072832 net.cpp:394] loss <- label_mnist_1_split_1
I0101 10:11:49.455150 1994072832 net.cpp:356] loss -> loss
I0101 10:11:49.455154 1994072832 net.cpp:96] Setting up loss
I0101 10:11:49.455173 1994072832 net.cpp:103] Top shape: 1 1 1 1 (1)
I0101 10:11:49.455176 1994072832 net.cpp:109]     with loss weight 1
I0101 10:11:49.455184 1994072832 net.cpp:170] loss needs backward computation.
I0101 10:11:49.455242 1994072832 net.cpp:172] accuracy does not need backward computation.
I0101 10:11:49.455260 1994072832 net.cpp:170] ip3_ip3_0_split needs backward computation.
I0101 10:11:49.455287 1994072832 net.cpp:170] ip3 needs backward computation.
…
I0101 10:11:49.455349 1994072832 net.cpp:220] Memory required for data: 342968
I0101 10:11:49.455435 1994072832 solver.cpp:151] Creating test net (#0) specified by net_param
I0101 10:11:49.455461 1994072832 net.cpp:275] The NetState phase (1) differed from the phase (0) specified by a rule in layer mnist
I0101 10:11:49.455471 1994072832 net.cpp:39] Initializing net from parameters:
name: "LeNet"
layers {
  top: "data"
  top: "label"
  name: "mnist"
  type: DATA
  data_param {
    source: "1S_te_ldb"
    batch_size: 100
    backend: LEVELDB
  }
  include {
    phase: TEST
  }
  transform_param {
    scale: 0.00390625
  }
}
layers {
  bottom: "data"
  top: "ip1"
  name: "ip1"
  type: INNER_PRODUCT
  blobs_lr: 1
  blobs_lr: 2
  inner_product_param {
    num_output: 300
    weight_filler {
      type: "xavier"
    }
    bias_filler {
      type: "constant"
    }
  }
}
layers {
  bottom: "ip1"
  top: "ip1"
  name: "relu1"
  type: RELU
}
layers {
  bottom: "ip1"
  top: "ip2"
  name: "ip2"
  type: INNER_PRODUCT
  blobs_lr: 1
  blobs_lr: 2
  inner_product_param {
    num_output: 300
    weight_filler {
      type: "xavier"
    }
    bias_filler {
      type: "constant"
    }
  }
}
layers {
  bottom: "ip2"
  top: "ip2"
  name: "relu2"
  type: RELU
}
layers {
  bottom: "ip2"
  top: "ip3"
  name: "ip3"
  type: INNER_PRODUCT
  blobs_lr: 1
  blobs_lr: 2
  inner_product_param {
    num_output: 10
    weight_filler {
      type: "xavier"
    }
    bias_filler {
      type: "constant"
    }
  }
}
layers {
  bottom: "ip3"
  bottom: "label"
  top: "accuracy"
  name: "accuracy"
  type: ACCURACY
}
layers {
  bottom: "ip3"
  bottom: "label"
  top: "loss"
  name: "loss"
  type: SOFTMAX_LOSS
}
state {
  phase: TEST
  stage: "test-on-test-set"
}
I0101 10:11:49.455832 1994072832 net.cpp:67] Creating Layer mnist
I0101 10:11:49.455842 1994072832 net.cpp:356] mnist -> data
I0101 10:11:49.455852 1994072832 net.cpp:356] mnist -> label
I0101 10:11:49.455857 1994072832 net.cpp:96] Setting up mnist
I0101 10:11:49.455860 1994072832 data_layer.cpp:45] Opening leveldb 1S_te_ldb
I0101 10:11:49.508422 1994072832 data_layer.cpp:128] output data size: 100,1,1,196
I0101 10:11:49.508496 1994072832 net.cpp:103] Top shape: 100 1 1 196 (19600)
I0101 10:11:49.508512 1994072832 net.cpp:103] Top shape: 100 1 1 1 (100)
I0101 10:11:49.508533 1994072832 net.cpp:67] Creating Layer label_mnist_1_split
I0101 10:11:49.508537 1994072832 net.cpp:394] label_mnist_1_split <- label
I0101 10:11:49.508551 1994072832 net.cpp:356] label_mnist_1_split -> label_mnist_1_split_0
I0101 10:11:49.508559 1994072832 net.cpp:356] label_mnist_1_split -> label_mnist_1_split_1
I0101 10:11:49.508564 1994072832 net.cpp:96] Setting up label_mnist_1_split
I0101 10:11:49.508569 1994072832 net.cpp:103] Top shape: 100 1 1 1 (100)
I0101 10:11:49.508572 1994072832 net.cpp:103] Top shape: 100 1 1 1 (100)
I0101 10:11:49.508579 1994072832 net.cpp:67] Creating Layer ip1
I0101 10:11:49.508581 1994072832 net.cpp:394] ip1 <- data
I0101 10:11:49.508586 1994072832 net.cpp:356] ip1 -> ip1
I0101 10:11:49.508592 1994072832 net.cpp:96] Setting up ip1
I0101 10:11:49.509009 1994072832 net.cpp:103] Top shape: 100 300 1 1 (30000)
I0101 10:11:49.509021 1994072832 net.cpp:67] Creating Layer relu1
I0101 10:11:49.509026 1994072832 net.cpp:394] relu1 <- ip1
I0101 10:11:49.509029 1994072832 net.cpp:345] relu1 -> ip1 (in-place)
I0101 10:11:49.509034 1994072832 net.cpp:96] Setting up relu1
I0101 10:11:49.509037 1994072832 net.cpp:103] Top shape: 100 300 1 1 (30000)
I0101 10:11:49.509042 1994072832 net.cpp:67] Creating Layer ip2
I0101 10:11:49.509045 1994072832 net.cpp:394] ip2 <- ip1
I0101 10:11:49.509050 1994072832 net.cpp:356] ip2 -> ip2
I0101 10:11:49.509064 1994072832 net.cpp:96] Setting up ip2
I0101 10:11:49.509744 1994072832 net.cpp:103] Top shape: 100 300 1 1 (30000)
I0101 10:11:49.509753 1994072832 net.cpp:67] Creating Layer relu2
I0101 10:11:49.509757 1994072832 net.cpp:394] relu2 <- ip2
I0101 10:11:49.509760 1994072832 net.cpp:345] relu2 -> ip2 (in-place)
I0101 10:11:49.509764 1994072832 net.cpp:96] Setting up relu2
I0101 10:11:49.509768 1994072832 net.cpp:103] Top shape: 100 300 1 1 (30000)
I0101 10:11:49.509771 1994072832 net.cpp:67] Creating Layer ip3
I0101 10:11:49.509774 1994072832 net.cpp:394] ip3 <- ip2
I0101 10:11:49.509778 1994072832 net.cpp:356] ip3 -> ip3
I0101 10:11:49.509783 1994072832 net.cpp:96] Setting up ip3
I0101 10:11:49.509824 1994072832 net.cpp:103] Top shape: 100 10 1 1 (1000)
I0101 10:11:49.509830 1994072832 net.cpp:67] Creating Layer ip3_ip3_0_split
I0101 10:11:49.509843 1994072832 net.cpp:394] ip3_ip3_0_split <- ip3
I0101 10:11:49.509847 1994072832 net.cpp:356] ip3_ip3_0_split -> ip3_ip3_0_split_0
I0101 10:11:49.509852 1994072832 net.cpp:356] ip3_ip3_0_split -> ip3_ip3_0_split_1
I0101 10:11:49.509857 1994072832 net.cpp:96] Setting up ip3_ip3_0_split
I0101 10:11:49.509861 1994072832 net.cpp:103] Top shape: 100 10 1 1 (1000)
I0101 10:11:49.509873 1994072832 net.cpp:103] Top shape: 100 10 1 1 (1000)
I0101 10:11:49.509877 1994072832 net.cpp:67] Creating Layer accuracy
I0101 10:11:49.509881 1994072832 net.cpp:394] accuracy <- ip3_ip3_0_split_0
I0101 10:11:49.509884 1994072832 net.cpp:394] accuracy <- label_mnist_1_split_0
I0101 10:11:49.509901 1994072832 net.cpp:356] accuracy -> accuracy
I0101 10:11:49.509906 1994072832 net.cpp:96] Setting up accuracy
I0101 10:11:49.509908 1994072832 net.cpp:103] Top shape: 1 1 1 1 (1)
I0101 10:11:49.509922 1994072832 net.cpp:67] Creating Layer loss
I0101 10:11:49.509925 1994072832 net.cpp:394] loss <- ip3_ip3_0_split_1
I0101 10:11:49.509928 1994072832 net.cpp:394] loss <- label_mnist_1_split_1
I0101 10:11:49.509933 1994072832 net.cpp:356] loss -> loss
I0101 10:11:49.509938 1994072832 net.cpp:96] Setting up loss
I0101 10:11:49.509943 1994072832 net.cpp:103] Top shape: 1 1 1 1 (1)
I0101 10:11:49.509956 1994072832 net.cpp:109]     with loss weight 1
I0101 10:11:49.509963 1994072832 net.cpp:170] loss needs backward computation.
I0101 10:11:49.509966 1994072832 net.cpp:172] accuracy does not need backward computation.
I0101 10:11:49.510023 1994072832 net.cpp:170] ip3_ip3_0_split needs backward computation.
I0101 10:11:49.510031 1994072832 net.cpp:170] ip3 needs backward computation.
…
