…
solver_mode: GPU
random_seed: 1710
net_param {
  name: "LeNet"
  layers {
    top: "data"
    top: "label"
    name: "mnist"
    type: DATA
    data_param {
      source: "28s14r_tr_ldb"
      batch_size: 840
      backend: LEVELDB
    }
    include {
      phase: TRAIN
    }
    transform_param {
      scale: 0.00390625
    }
  }
  layers {
    top: "data"
    top: "label"
    name: "mnist"
    type: DATA
    data_param {
      source: "28s14r_te_ldb"
      batch_size: 100
      backend: LEVELDB
    }
    include {
      phase: TEST
    }
    transform_param {
      scale: 0.00390625
    }
  }
  layers {
    bottom: "data"
    top: "ip1"
    name: "ip1"
    type: INNER_PRODUCT
    blobs_lr: 1
    blobs_lr: 2
    inner_product_param {
      num_output: 300
      weight_filler {
        type: "xavier"
      }
      bias_filler {
        type: "constant"
      }
    }
  }
  layers {
    bottom: "ip1"
    top: "ip1"
    name: "relu1"
    type: RELU
  }
  layers {
    bottom: "ip1"
    top: "ip2"
    name: "ip2"
    type: INNER_PRODUCT
    blobs_lr: 1
    blobs_lr: 2
    inner_product_param {
      num_output: 300
      weight_filler {
        type: "xavier"
      }
      bias_filler {
        type: "constant"
      }
    }
  }
  layers {
    bottom: "ip2"
    top: "ip2"
    name: "relu2"
    type: RELU
  }
  layers {
    bottom: "ip2"
    top: "ip3"
    name: "ip3"
    type: INNER_PRODUCT
    blobs_lr: 1
    blobs_lr: 2
    inner_product_param {
      num_output: 10
      weight_filler {
        type: "xavier"
      }
      bias_filler {
        type: "constant"
      }
    }
  }
  layers {
    bottom: "ip3"
    bottom: "label"
    top: "accuracy"
    name: "accuracy"
    type: ACCURACY
  }
  layers {
    bottom: "ip3"
    bottom: "label"
    top: "loss"
    name: "loss"
    type: SOFTMAX_LOSS
  }
}
test_state {
  stage: "test-on-test-set"
}
I0104 20:47:17.055615 1994072832 solver.cpp:63] Creating training net specified in net_param.
I0104 20:47:17.055675 1994072832 net.cpp:275] The NetState phase (0) differed from the phase (1) specified by a rule in layer mnist
I0104 20:47:17.055686 1994072832 net.cpp:39] Initializing net from parameters: 
name: "LeNet"
layers {
  top: "data"
  top: "label"
  name: "mnist"
  type: DATA
  data_param {
    source: "28s14r_tr_ldb"
    batch_size: 840
    backend: LEVELDB
  }
  include {
    phase: TRAIN
  }
  transform_param {
    scale: 0.00390625
  }
}
layers {
  bottom: "data"
  top: "ip1"
  name: "ip1"
  type: INNER_PRODUCT
  blobs_lr: 1
  blobs_lr: 2
  inner_product_param {
    num_output: 300
    weight_filler {
      type: "xavier"
    }
    bias_filler {
      type: "constant"
    }
  }
}
layers {
  bottom: "ip1"
  top: "ip1"
  name: "relu1"
  type: RELU
}
layers {
  bottom: "ip1"
  top: "ip2"
  name: "ip2"
  type: INNER_PRODUCT
  blobs_lr: 1
  blobs_lr: 2
  inner_product_param {
    num_output: 300
    weight_filler {
      type: "xavier"
    }
    bias_filler {
      type: "constant"
    }
  }
}
layers {
  bottom: "ip2"
  top: "ip2"
  name: "relu2"
  type: RELU
}
layers {
  bottom: "ip2"
  top: "ip3"
  name: "ip3"
  type: INNER_PRODUCT
  blobs_lr: 1
  blobs_lr: 2
  inner_product_param {
    num_output: 10
    weight_filler {
      type: "xavier"
    }
    bias_filler {
      type: "constant"
    }
  }
}
layers {
  bottom: "ip3"
  bottom: "label"
  top: "accuracy"
  name: "accuracy"
  type: ACCURACY
}
layers {
  bottom: "ip3"
  bottom: "label"
  top: "loss"
  name: "loss"
  type: SOFTMAX_LOSS
}
state {
  phase: TRAIN
}
I0104 20:47:17.055953 1994072832 net.cpp:67] Creating Layer mnist
I0104 20:47:17.055963 1994072832 net.cpp:356] mnist -> data
I0104 20:47:17.055991 1994072832 net.cpp:356] mnist -> label
I0104 20:47:17.055999 1994072832 net.cpp:96] Setting up mnist
I0104 20:47:17.056066 1994072832 data_layer.cpp:45] Opening leveldb 28s14r_tr_ldb
I0104 20:47:17.090726 1994072832 data_layer.cpp:128] output data size: 840,1,1,112
I0104 20:47:17.090859 1994072832 net.cpp:103] Top shape: 840 1 1 112 (94080)
I0104 20:47:17.090865 1994072832 net.cpp:103] Top shape: 840 1 1 1 (840)
I0104 20:47:17.090875 1994072832 net.cpp:67] Creating Layer label_mnist_1_split
I0104 20:47:17.090879 1994072832 net.cpp:394] label_mnist_1_split <- label
I0104 20:47:17.090888 1994072832 net.cpp:356] label_mnist_1_split -> label_mnist_1_split_0
I0104 20:47:17.090896 1994072832 net.cpp:356] label_mnist_1_split -> label_mnist_1_split_1
I0104 20:47:17.090901 1994072832 net.cpp:96] Setting up label_mnist_1_split
I0104 20:47:17.090906 1994072832 net.cpp:103] Top shape: 840 1 1 1 (840)
I0104 20:47:17.090910 1994072832 net.cpp:103] Top shape: 840 1 1 1 (840)
I0104 20:47:17.090916 1994072832 net.cpp:67] Creating Layer ip1
I0104 20:47:17.090919 1994072832 net.cpp:394] ip1 <- data
I0104 20:47:17.090924 1994072832 net.cpp:356] ip1 -> ip1
I0104 20:47:17.090931 1994072832 net.cpp:96] Setting up ip1
I0104 20:47:17.091200 1994072832 net.cpp:103] Top shape: 840 300 1 1 (252000)
I0104 20:47:17.091223 1994072832 net.cpp:67] Creating Layer relu1
I0104 20:47:17.091238 1994072832 net.cpp:394] relu1 <- ip1
I0104 20:47:17.091259 1994072832 net.cpp:345] relu1 -> ip1 (in-place)
I0104 20:47:17.091265 1994072832 net.cpp:96] Setting up relu1
I0104 20:47:17.091269 1994072832 net.cpp:103] Top shape: 840 300 1 1 (252000)
I0104 20:47:17.091275 1994072832 net.cpp:67] Creating Layer ip2
I0104 20:47:17.091277 1994072832 net.cpp:394] ip2 <- ip1
I0104 20:47:17.091282 1994072832 net.cpp:356] ip2 -> ip2
I0104 20:47:17.091287 1994072832 net.cpp:96] Setting up ip2
I0104 20:47:17.092016 1994072832 net.cpp:103] Top shape: 840 300 1 1 (252000)
I0104 20:47:17.092026 1994072832 net.cpp:67] Creating Layer relu2
I0104 20:47:17.092030 1994072832 net.cpp:394] relu2 <- ip2
I0104 20:47:17.092033 1994072832 net.cpp:345] relu2 -> ip2 (in-place)
I0104 20:47:17.092037 1994072832 net.cpp:96] Setting up relu2
I0104 20:47:17.092039 1994072832 net.cpp:103] Top shape: 840 300 1 1 (252000)
I0104 20:47:17.092044 1994072832 net.cpp:67] Creating Layer ip3
I0104 20:47:17.092047 1994072832 net.cpp:394] ip3 <- ip2
I0104 20:47:17.092053 1994072832 net.cpp:356] ip3 -> ip3
I0104 20:47:17.092058 1994072832 net.cpp:96] Setting up ip3
I0104 20:47:17.092080 1994072832 net.cpp:103] Top shape: 840 10 1 1 (8400)
I0104 20:47:17.092087 1994072832 net.cpp:67] Creating Layer ip3_ip3_0_split
I0104 20:47:17.092089 1994072832 net.cpp:394] ip3_ip3_0_split <- ip3
I0104 20:47:17.092093 1994072832 net.cpp:356] ip3_ip3_0_split -> ip3_ip3_0_split_0
I0104 20:47:17.092098 1994072832 net.cpp:356] ip3_ip3_0_split -> ip3_ip3_0_split_1
I0104 20:47:17.092103 1994072832 net.cpp:96] Setting up ip3_ip3_0_split
I0104 20:47:17.092108 1994072832 net.cpp:103] Top shape: 840 10 1 1 (8400)
I0104 20:47:17.092109 1994072832 net.cpp:103] Top shape: 840 10 1 1 (8400)
I0104 20:47:17.092114 1994072832 net.cpp:67] Creating Layer accuracy
I0104 20:47:17.092116 1994072832 net.cpp:394] accuracy <- ip3_ip3_0_split_0
I0104 20:47:17.092120 1994072832 net.cpp:394] accuracy <- label_mnist_1_split_0
I0104 20:47:17.092125 1994072832 net.cpp:356] accuracy -> accuracy
I0104 20:47:17.092129 1994072832 net.cpp:96] Setting up accuracy
I0104 20:47:17.092133 1994072832 net.cpp:103] Top shape: 1 1 1 1 (1)
I0104 20:47:17.092140 1994072832 net.cpp:67] Creating Layer loss
I0104 20:47:17.092142 1994072832 net.cpp:394] loss <- ip3_ip3_0_split_1
I0104 20:47:17.092146 1994072832 net.cpp:394] loss <- label_mnist_1_split_1
I0104 20:47:17.092149 1994072832 net.cpp:356] loss -> loss
I0104 20:47:17.092154 1994072832 net.cpp:96] Setting up loss
I0104 20:47:17.092164 1994072832 net.cpp:103] Top shape: 1 1 1 1 (1)
I0104 20:47:17.092166 1994072832 net.cpp:109]     with loss weight 1
I0104 20:47:17.092175 1994072832 net.cpp:170] loss needs backward computation.
I0104 20:47:17.092177 1994072832 net.cpp:172] accuracy does not need backward computation.
I0104 20:47:17.092200 1994072832 net.cpp:170] ip3_ip3_0_split needs backward computation.
I0104 20:47:17.092202 1994072832 net.cpp:170] ip3 needs backward computation.
…
I0104 20:47:17.092242 1994072832 net.cpp:220] Memory required for data: 4519208
I0104 20:47:17.092291 1994072832 solver.cpp:151] Creating test net (#0) specified by net_param
I0104 20:47:17.092304 1994072832 net.cpp:275] The NetState phase (1) differed from the phase (0) specified by a rule in layer mnist
I0104 20:47:17.092314 1994072832 net.cpp:39] Initializing net from parameters: 
name: "LeNet"
layers {
  top: "data"
  top: "label"
  name: "mnist"
  type: DATA
  data_param {
    source: "28s14r_te_ldb"
    batch_size: 100
    backend: LEVELDB
  }
  include {
    phase: TEST
  }
  transform_param {
    scale: 0.00390625
  }
}
layers {
  bottom: "data"
  top: "ip1"
  name: "ip1"
  type: INNER_PRODUCT
  blobs_lr: 1
  blobs_lr: 2
  inner_product_param {
    num_output: 300
    weight_filler {
      type: "xavier"
    }
    bias_filler {
      type: "constant"
    }
  }
}
layers {
  bottom: "ip1"
  top: "ip1"
  name: "relu1"
  type: RELU
}
layers {
  bottom: "ip1"
  top: "ip2"
  name: "ip2"
  type: INNER_PRODUCT
  blobs_lr: 1
  blobs_lr: 2
  inner_product_param {
    num_output: 300
    weight_filler {
      type: "xavier"
    }
    bias_filler {
      type: "constant"
    }
  }
}
layers {
  bottom: "ip2"
  top: "ip2"
  name: "relu2"
  type: RELU
}
layers {
  bottom: "ip2"
  top: "ip3"
  name: "ip3"
  type: INNER_PRODUCT
  blobs_lr: 1
  blobs_lr: 2
  inner_product_param {
    num_output: 10
    weight_filler {
      type: "xavier"
    }
    bias_filler {
      type: "constant"
    }
  }
}
layers {
  bottom: "ip3"
  bottom: "label"
  top: "accuracy"
  name: "accuracy"
  type: ACCURACY
}
layers {
  bottom: "ip3"
  bottom: "label"
  top: "loss"
  name: "loss"
  type: SOFTMAX_LOSS
}
state {
  phase: TEST
  stage: "test-on-test-set"
}
I0104 20:47:17.092557 1994072832 net.cpp:67] Creating Layer mnist
I0104 20:47:17.092563 1994072832 net.cpp:356] mnist -> data
I0104 20:47:17.092571 1994072832 net.cpp:356] mnist -> label
I0104 20:47:17.092576 1994072832 net.cpp:96] Setting up mnist
I0104 20:47:17.092579 1994072832 data_layer.cpp:45] Opening leveldb 28s14r_te_ldb
I0104 20:47:17.134088 1994072832 data_layer.cpp:128] output data size: 100,1,1,112
I0104 20:47:17.134212 1994072832 net.cpp:103] Top shape: 100 1 1 112 (11200)
I0104 20:47:17.134227 1994072832 net.cpp:103] Top shape: 100 1 1 1 (100)
I0104 20:47:17.134248 1994072832 net.cpp:67] Creating Layer label_mnist_1_split
I0104 20:47:17.134261 1994072832 net.cpp:394] label_mnist_1_split <- label
I0104 20:47:17.134268 1994072832 net.cpp:356] label_mnist_1_split -> label_mnist_1_split_0
I0104 20:47:17.134284 1994072832 net.cpp:356] label_mnist_1_split -> label_mnist_1_split_1
I0104 20:47:17.134289 1994072832 net.cpp:96] Setting up label_mnist_1_split
I0104 20:47:17.134302 1994072832 net.cpp:103] Top shape: 100 1 1 1 (100)
I0104 20:47:17.134305 1994072832 net.cpp:103] Top shape: 100 1 1 1 (100)
I0104 20:47:17.134321 1994072832 net.cpp:67] Creating Layer ip1
I0104 20:47:17.134325 1994072832 net.cpp:394] ip1 <- data
I0104 20:47:17.134330 1994072832 net.cpp:356] ip1 -> ip1
I0104 20:47:17.134378 1994072832 net.cpp:96] Setting up ip1
I0104 20:47:17.134630 1994072832 net.cpp:103] Top shape: 100 300 1 1 (30000)
I0104 20:47:17.134654 1994072832 net.cpp:67] Creating Layer relu1
I0104 20:47:17.134657 1994072832 net.cpp:394] relu1 <- ip1
I0104 20:47:17.134661 1994072832 net.cpp:345] relu1 -> ip1 (in-place)
I0104 20:47:17.134665 1994072832 net.cpp:96] Setting up relu1
I0104 20:47:17.134680 1994072832 net.cpp:103] Top shape: 100 300 1 1 (30000)
I0104 20:47:17.134685 1994072832 net.cpp:67] Creating Layer ip2
I0104 20:47:17.134687 1994072832 net.cpp:394] ip2 <- ip1
I0104 20:47:17.134701 1994072832 net.cpp:356] ip2 -> ip2
I0104 20:47:17.134706 1994072832 net.cpp:96] Setting up ip2
I0104 20:47:17.135424 1994072832 net.cpp:103] Top shape: 100 300 1 1 (30000)
I0104 20:47:17.135434 1994072832 net.cpp:67] Creating Layer relu2
I0104 20:47:17.135437 1994072832 net.cpp:394] relu2 <- ip2
I0104 20:47:17.135442 1994072832 net.cpp:345] relu2 -> ip2 (in-place)
I0104 20:47:17.135447 1994072832 net.cpp:96] Setting up relu2
I0104 20:47:17.135449 1994072832 net.cpp:103] Top shape: 100 300 1 1 (30000)
I0104 20:47:17.135454 1994072832 net.cpp:67] Creating Layer ip3
I0104 20:47:17.135457 1994072832 net.cpp:394] ip3 <- ip2
I0104 20:47:17.135460 1994072832 net.cpp:356] ip3 -> ip3
I0104 20:47:17.135465 1994072832 net.cpp:96] Setting up ip3
I0104 20:47:17.135488 1994072832 net.cpp:103] Top shape: 100 10 1 1 (1000)
I0104 20:47:17.135493 1994072832 net.cpp:67] Creating Layer ip3_ip3_0_split
I0104 20:47:17.135496 1994072832 net.cpp:394] ip3_ip3_0_split <- ip3
I0104 20:47:17.135499 1994072832 net.cpp:356] ip3_ip3_0_split -> ip3_ip3_0_split_0
I0104 20:47:17.135504 1994072832 net.cpp:356] ip3_ip3_0_split -> ip3_ip3_0_split_1
I0104 20:47:17.135509 1994072832 net.cpp:96] Setting up ip3_ip3_0_split
I0104 20:47:17.135512 1994072832 net.cpp:103] Top shape: 100 10 1 1 (1000)
I0104 20:47:17.135515 1994072832 net.cpp:103] Top shape: 100 10 1 1 (1000)
I0104 20:47:17.135521 1994072832 net.cpp:67] Creating Layer accuracy
I0104 20:47:17.135524 1994072832 net.cpp:394] accuracy <- ip3_ip3_0_split_0
I0104 20:47:17.135527 1994072832 net.cpp:394] accuracy <- label_mnist_1_split_0
I0104 20:47:17.135530 1994072832 net.cpp:356] accuracy -> accuracy
I0104 20:47:17.135535 1994072832 net.cpp:96] Setting up accuracy
I0104 20:47:17.135539 1994072832 net.cpp:103] Top shape: 1 1 1 1 (1)
I0104 20:47:17.135543 1994072832 net.cpp:67] Creating Layer loss
I0104 20:47:17.135545 1994072832 net.cpp:394] loss <- ip3_ip3_0_split_1
I0104 20:47:17.135548 1994072832 net.cpp:394] loss <- label_mnist_1_split_1
I0104 20:47:17.135552 1994072832 net.cpp:356] loss -> loss
I0104 20:47:17.135556 1994072832 net.cpp:96] Setting up loss
I0104 20:47:17.135562 1994072832 net.cpp:103] Top shape: 1 1 1 1 (1)
I0104 20:47:17.135565 1994072832 net.cpp:109]     with loss weight 1
I0104 20:47:17.135571 1994072832 net.cpp:170] loss needs backward computation.
I0104 20:47:17.135574 1994072832 net.cpp:172] accuracy does not need backward computation.
I0104 20:47:17.135577 1994072832 net.cpp:170] ip3_ip3_0_split needs backward computation.
I0104 20:47:17.135579 1994072832 net.cpp:170] ip3 needs backward computation.
…
