…
solver_mode: GPU
random_seed: 1710
net_param {
  name: "LeNet"
  layers {
    top: "data"
    top: "label"
    name: "mnist"
    type: DATA
    data_param {
      source: "28s14r_tr_ldb"
      batch_size: 420
      backend: LEVELDB
    }
    include {
      phase: TRAIN
    }
    transform_param {
      scale: 0.00390625
    }
  }
  layers {
    top: "data"
    top: "label"
    name: "mnist"
    type: DATA
    data_param {
      source: "28s14r_te_ldb"
      batch_size: 100
      backend: LEVELDB
    }
    include {
      phase: TEST
    }
    transform_param {
      scale: 0.00390625
    }
  }
  layers {
    bottom: "data"
    top: "ip1"
    name: "ip1"
    type: INNER_PRODUCT
    blobs_lr: 1
    blobs_lr: 2
    inner_product_param {
      num_output: 300
      weight_filler {
        type: "xavier"
      }
      bias_filler {
        type: "constant"
      }
    }
  }
  layers {
    bottom: "ip1"
    top: "ip1"
    name: "relu1"
    type: RELU
  }
  layers {
    bottom: "ip1"
    top: "ip2"
    name: "ip2"
    type: INNER_PRODUCT
    blobs_lr: 1
    blobs_lr: 2
    inner_product_param {
      num_output: 300
      weight_filler {
        type: "xavier"
      }
      bias_filler {
        type: "constant"
      }
    }
  }
  layers {
    bottom: "ip2"
    top: "ip2"
    name: "relu2"
    type: RELU
  }
  layers {
    bottom: "ip2"
    top: "ip3"
    name: "ip3"
    type: INNER_PRODUCT
    blobs_lr: 1
    blobs_lr: 2
    inner_product_param {
      num_output: 10
      weight_filler {
        type: "xavier"
      }
      bias_filler {
        type: "constant"
      }
    }
  }
  layers {
    bottom: "ip3"
    bottom: "label"
    top: "accuracy"
    name: "accuracy"
    type: ACCURACY
  }
  layers {
    bottom: "ip3"
    bottom: "label"
    top: "loss"
    name: "loss"
    type: SOFTMAX_LOSS
  }
}
test_state {
  stage: "test-on-test-set"
}
I0105 21:59:51.330678 1994072832 solver.cpp:63] Creating training net specified in net_param.
I0105 21:59:51.331115 1994072832 net.cpp:275] The NetState phase (0) differed from the phase (1) specified by a rule in layer mnist
I0105 21:59:51.331496 1994072832 net.cpp:39] Initializing net from parameters: 
name: "LeNet"
layers {
  top: "data"
  top: "label"
  name: "mnist"
  type: DATA
  data_param {
    source: "28s14r_tr_ldb"
    batch_size: 420
    backend: LEVELDB
  }
  include {
    phase: TRAIN
  }
  transform_param {
    scale: 0.00390625
  }
}
layers {
  bottom: "data"
  top: "ip1"
  name: "ip1"
  type: INNER_PRODUCT
  blobs_lr: 1
  blobs_lr: 2
  inner_product_param {
    num_output: 300
    weight_filler {
      type: "xavier"
    }
    bias_filler {
      type: "constant"
    }
  }
}
layers {
  bottom: "ip1"
  top: "ip1"
  name: "relu1"
  type: RELU
}
layers {
  bottom: "ip1"
  top: "ip2"
  name: "ip2"
  type: INNER_PRODUCT
  blobs_lr: 1
  blobs_lr: 2
  inner_product_param {
    num_output: 300
    weight_filler {
      type: "xavier"
    }
    bias_filler {
      type: "constant"
    }
  }
}
layers {
  bottom: "ip2"
  top: "ip2"
  name: "relu2"
  type: RELU
}
layers {
  bottom: "ip2"
  top: "ip3"
  name: "ip3"
  type: INNER_PRODUCT
  blobs_lr: 1
  blobs_lr: 2
  inner_product_param {
    num_output: 10
    weight_filler {
      type: "xavier"
    }
    bias_filler {
      type: "constant"
    }
  }
}
layers {
  bottom: "ip3"
  bottom: "label"
  top: "accuracy"
  name: "accuracy"
  type: ACCURACY
}
layers {
  bottom: "ip3"
  bottom: "label"
  top: "loss"
  name: "loss"
  type: SOFTMAX_LOSS
}
state {
  phase: TRAIN
}
I0105 21:59:51.331861 1994072832 net.cpp:67] Creating Layer mnist
I0105 21:59:51.331881 1994072832 net.cpp:356] mnist -> data
I0105 21:59:51.331908 1994072832 net.cpp:356] mnist -> label
I0105 21:59:51.331917 1994072832 net.cpp:96] Setting up mnist
I0105 21:59:51.331990 1994072832 data_layer.cpp:45] Opening leveldb 28s14r_tr_ldb
I0105 21:59:51.335947 1994072832 data_layer.cpp:128] output data size: 420,1,1,112
I0105 21:59:51.336236 1994072832 net.cpp:103] Top shape: 420 1 1 112 (47040)
I0105 21:59:51.336248 1994072832 net.cpp:103] Top shape: 420 1 1 1 (420)
I0105 21:59:51.336259 1994072832 net.cpp:67] Creating Layer label_mnist_1_split
I0105 21:59:51.336264 1994072832 net.cpp:394] label_mnist_1_split <- label
I0105 21:59:51.336274 1994072832 net.cpp:356] label_mnist_1_split -> label_mnist_1_split_0
I0105 21:59:51.336283 1994072832 net.cpp:356] label_mnist_1_split -> label_mnist_1_split_1
I0105 21:59:51.336288 1994072832 net.cpp:96] Setting up label_mnist_1_split
I0105 21:59:51.336293 1994072832 net.cpp:103] Top shape: 420 1 1 1 (420)
I0105 21:59:51.336297 1994072832 net.cpp:103] Top shape: 420 1 1 1 (420)
I0105 21:59:51.336308 1994072832 net.cpp:67] Creating Layer ip1
I0105 21:59:51.336313 1994072832 net.cpp:394] ip1 <- data
I0105 21:59:51.336318 1994072832 net.cpp:356] ip1 -> ip1
I0105 21:59:51.336323 1994072832 net.cpp:96] Setting up ip1
I0105 21:59:51.336804 1994072832 net.cpp:103] Top shape: 420 300 1 1 (126000)
I0105 21:59:51.336822 1994072832 net.cpp:67] Creating Layer relu1
I0105 21:59:51.336827 1994072832 net.cpp:394] relu1 <- ip1
I0105 21:59:51.336833 1994072832 net.cpp:345] relu1 -> ip1 (in-place)
I0105 21:59:51.336838 1994072832 net.cpp:96] Setting up relu1
I0105 21:59:51.336841 1994072832 net.cpp:103] Top shape: 420 300 1 1 (126000)
I0105 21:59:51.336848 1994072832 net.cpp:67] Creating Layer ip2
I0105 21:59:51.336851 1994072832 net.cpp:394] ip2 <- ip1
I0105 21:59:51.336855 1994072832 net.cpp:356] ip2 -> ip2
I0105 21:59:51.336861 1994072832 net.cpp:96] Setting up ip2
I0105 21:59:51.337389 1994072832 net.cpp:103] Top shape: 420 300 1 1 (126000)
I0105 21:59:51.337401 1994072832 net.cpp:67] Creating Layer relu2
I0105 21:59:51.337404 1994072832 net.cpp:394] relu2 <- ip2
I0105 21:59:51.337409 1994072832 net.cpp:345] relu2 -> ip2 (in-place)
I0105 21:59:51.337412 1994072832 net.cpp:96] Setting up relu2
I0105 21:59:51.337415 1994072832 net.cpp:103] Top shape: 420 300 1 1 (126000)
I0105 21:59:51.337420 1994072832 net.cpp:67] Creating Layer ip3
I0105 21:59:51.337432 1994072832 net.cpp:394] ip3 <- ip2
I0105 21:59:51.337436 1994072832 net.cpp:356] ip3 -> ip3
I0105 21:59:51.337441 1994072832 net.cpp:96] Setting up ip3
I0105 21:59:51.337478 1994072832 net.cpp:103] Top shape: 420 10 1 1 (4200)
I0105 21:59:51.337494 1994072832 net.cpp:67] Creating Layer ip3_ip3_0_split
I0105 21:59:51.337497 1994072832 net.cpp:394] ip3_ip3_0_split <- ip3
I0105 21:59:51.337502 1994072832 net.cpp:356] ip3_ip3_0_split -> ip3_ip3_0_split_0
I0105 21:59:51.337507 1994072832 net.cpp:356] ip3_ip3_0_split -> ip3_ip3_0_split_1
I0105 21:59:51.337515 1994072832 net.cpp:96] Setting up ip3_ip3_0_split
I0105 21:59:51.337519 1994072832 net.cpp:103] Top shape: 420 10 1 1 (4200)
I0105 21:59:51.337532 1994072832 net.cpp:103] Top shape: 420 10 1 1 (4200)
I0105 21:59:51.337537 1994072832 net.cpp:67] Creating Layer accuracy
I0105 21:59:51.337540 1994072832 net.cpp:394] accuracy <- ip3_ip3_0_split_0
I0105 21:59:51.337544 1994072832 net.cpp:394] accuracy <- label_mnist_1_split_0
I0105 21:59:51.337548 1994072832 net.cpp:356] accuracy -> accuracy
I0105 21:59:51.337553 1994072832 net.cpp:96] Setting up accuracy
I0105 21:59:51.337556 1994072832 net.cpp:103] Top shape: 1 1 1 1 (1)
I0105 21:59:51.337574 1994072832 net.cpp:67] Creating Layer loss
I0105 21:59:51.337577 1994072832 net.cpp:394] loss <- ip3_ip3_0_split_1
I0105 21:59:51.337581 1994072832 net.cpp:394] loss <- label_mnist_1_split_1
I0105 21:59:51.337585 1994072832 net.cpp:356] loss -> loss
I0105 21:59:51.337590 1994072832 net.cpp:96] Setting up loss
I0105 21:59:51.337601 1994072832 net.cpp:103] Top shape: 1 1 1 1 (1)
I0105 21:59:51.337605 1994072832 net.cpp:109]     with loss weight 1
I0105 21:59:51.337625 1994072832 net.cpp:170] loss needs backward computation.
I0105 21:59:51.337636 1994072832 net.cpp:172] accuracy does not need backward computation.
I0105 21:59:51.337702 1994072832 net.cpp:170] ip3_ip3_0_split needs backward computation.
I0105 21:59:51.337709 1994072832 net.cpp:170] ip3 needs backward computation.
…
I0105 21:59:51.337785 1994072832 net.cpp:220] Memory required for data: 2259608
I0105 21:59:51.337911 1994072832 solver.cpp:151] Creating test net (#0) specified by net_param
I0105 21:59:51.337937 1994072832 net.cpp:275] The NetState phase (1) differed from the phase (0) specified by a rule in layer mnist
I0105 21:59:51.337947 1994072832 net.cpp:39] Initializing net from parameters: 
name: "LeNet"
layers {
  top: "data"
  top: "label"
  name: "mnist"
  type: DATA
  data_param {
    source: "28s14r_te_ldb"
    batch_size: 100
    backend: LEVELDB
  }
  include {
    phase: TEST
  }
  transform_param {
    scale: 0.00390625
  }
}
layers {
  bottom: "data"
  top: "ip1"
  name: "ip1"
  type: INNER_PRODUCT
  blobs_lr: 1
  blobs_lr: 2
  inner_product_param {
    num_output: 300
    weight_filler {
      type: "xavier"
    }
    bias_filler {
      type: "constant"
    }
  }
}
layers {
  bottom: "ip1"
  top: "ip1"
  name: "relu1"
  type: RELU
}
layers {
  bottom: "ip1"
  top: "ip2"
  name: "ip2"
  type: INNER_PRODUCT
  blobs_lr: 1
  blobs_lr: 2
  inner_product_param {
    num_output: 300
    weight_filler {
      type: "xavier"
    }
    bias_filler {
      type: "constant"
    }
  }
}
layers {
  bottom: "ip2"
  top: "ip2"
  name: "relu2"
  type: RELU
}
layers {
  bottom: "ip2"
  top: "ip3"
  name: "ip3"
  type: INNER_PRODUCT
  blobs_lr: 1
  blobs_lr: 2
  inner_product_param {
    num_output: 10
    weight_filler {
      type: "xavier"
    }
    bias_filler {
      type: "constant"
    }
  }
}
layers {
  bottom: "ip3"
  bottom: "label"
  top: "accuracy"
  name: "accuracy"
  type: ACCURACY
}
layers {
  bottom: "ip3"
  bottom: "label"
  top: "loss"
  name: "loss"
  type: SOFTMAX_LOSS
}
state {
  phase: TEST
  stage: "test-on-test-set"
}
I0105 21:59:51.338250 1994072832 net.cpp:67] Creating Layer mnist
I0105 21:59:51.338266 1994072832 net.cpp:356] mnist -> data
I0105 21:59:51.338284 1994072832 net.cpp:356] mnist -> label
I0105 21:59:51.338289 1994072832 net.cpp:96] Setting up mnist
I0105 21:59:51.338292 1994072832 data_layer.cpp:45] Opening leveldb 28s14r_te_ldb
I0105 21:59:51.341630 1994072832 data_layer.cpp:128] output data size: 100,1,1,112
I0105 21:59:51.341708 1994072832 net.cpp:103] Top shape: 100 1 1 112 (11200)
I0105 21:59:51.341724 1994072832 net.cpp:103] Top shape: 100 1 1 1 (100)
I0105 21:59:51.341742 1994072832 net.cpp:67] Creating Layer label_mnist_1_split
I0105 21:59:51.341745 1994072832 net.cpp:394] label_mnist_1_split <- label
I0105 21:59:51.341752 1994072832 net.cpp:356] label_mnist_1_split -> label_mnist_1_split_0
I0105 21:59:51.341758 1994072832 net.cpp:356] label_mnist_1_split -> label_mnist_1_split_1
I0105 21:59:51.341764 1994072832 net.cpp:96] Setting up label_mnist_1_split
I0105 21:59:51.341768 1994072832 net.cpp:103] Top shape: 100 1 1 1 (100)
I0105 21:59:51.341771 1994072832 net.cpp:103] Top shape: 100 1 1 1 (100)
I0105 21:59:51.341778 1994072832 net.cpp:67] Creating Layer ip1
I0105 21:59:51.341781 1994072832 net.cpp:394] ip1 <- data
I0105 21:59:51.341786 1994072832 net.cpp:356] ip1 -> ip1
I0105 21:59:51.341792 1994072832 net.cpp:96] Setting up ip1
I0105 21:59:51.342069 1994072832 net.cpp:103] Top shape: 100 300 1 1 (30000)
I0105 21:59:51.342090 1994072832 net.cpp:67] Creating Layer relu1
I0105 21:59:51.342093 1994072832 net.cpp:394] relu1 <- ip1
I0105 21:59:51.342098 1994072832 net.cpp:345] relu1 -> ip1 (in-place)
I0105 21:59:51.342103 1994072832 net.cpp:96] Setting up relu1
I0105 21:59:51.342106 1994072832 net.cpp:103] Top shape: 100 300 1 1 (30000)
I0105 21:59:51.342113 1994072832 net.cpp:67] Creating Layer ip2
I0105 21:59:51.342115 1994072832 net.cpp:394] ip2 <- ip1
I0105 21:59:51.342133 1994072832 net.cpp:356] ip2 -> ip2
I0105 21:59:51.342147 1994072832 net.cpp:96] Setting up ip2
I0105 21:59:51.342839 1994072832 net.cpp:103] Top shape: 100 300 1 1 (30000)
I0105 21:59:51.342849 1994072832 net.cpp:67] Creating Layer relu2
I0105 21:59:51.342851 1994072832 net.cpp:394] relu2 <- ip2
I0105 21:59:51.342865 1994072832 net.cpp:345] relu2 -> ip2 (in-place)
I0105 21:59:51.342869 1994072832 net.cpp:96] Setting up relu2
I0105 21:59:51.342882 1994072832 net.cpp:103] Top shape: 100 300 1 1 (30000)
I0105 21:59:51.342895 1994072832 net.cpp:67] Creating Layer ip3
I0105 21:59:51.342898 1994072832 net.cpp:394] ip3 <- ip2
I0105 21:59:51.342902 1994072832 net.cpp:356] ip3 -> ip3
I0105 21:59:51.342907 1994072832 net.cpp:96] Setting up ip3
I0105 21:59:51.342947 1994072832 net.cpp:103] Top shape: 100 10 1 1 (1000)
I0105 21:59:51.342963 1994072832 net.cpp:67] Creating Layer ip3_ip3_0_split
I0105 21:59:51.342967 1994072832 net.cpp:394] ip3_ip3_0_split <- ip3
I0105 21:59:51.342970 1994072832 net.cpp:356] ip3_ip3_0_split -> ip3_ip3_0_split_0
I0105 21:59:51.342985 1994072832 net.cpp:356] ip3_ip3_0_split -> ip3_ip3_0_split_1
I0105 21:59:51.342990 1994072832 net.cpp:96] Setting up ip3_ip3_0_split
I0105 21:59:51.342994 1994072832 net.cpp:103] Top shape: 100 10 1 1 (1000)
I0105 21:59:51.342998 1994072832 net.cpp:103] Top shape: 100 10 1 1 (1000)
I0105 21:59:51.343001 1994072832 net.cpp:67] Creating Layer accuracy
I0105 21:59:51.343014 1994072832 net.cpp:394] accuracy <- ip3_ip3_0_split_0
I0105 21:59:51.343017 1994072832 net.cpp:394] accuracy <- label_mnist_1_split_0
I0105 21:59:51.343022 1994072832 net.cpp:356] accuracy -> accuracy
I0105 21:59:51.343026 1994072832 net.cpp:96] Setting up accuracy
I0105 21:59:51.343030 1994072832 net.cpp:103] Top shape: 1 1 1 1 (1)
I0105 21:59:51.343037 1994072832 net.cpp:67] Creating Layer loss
I0105 21:59:51.343040 1994072832 net.cpp:394] loss <- ip3_ip3_0_split_1
I0105 21:59:51.343044 1994072832 net.cpp:394] loss <- label_mnist_1_split_1
I0105 21:59:51.343049 1994072832 net.cpp:356] loss -> loss
I0105 21:59:51.343053 1994072832 net.cpp:96] Setting up loss
I0105 21:59:51.343068 1994072832 net.cpp:103] Top shape: 1 1 1 1 (1)
I0105 21:59:51.343071 1994072832 net.cpp:109]     with loss weight 1
I0105 21:59:51.343078 1994072832 net.cpp:170] loss needs backward computation.
I0105 21:59:51.343081 1994072832 net.cpp:172] accuracy does not need backward computation.
I0105 21:59:51.343086 1994072832 net.cpp:170] ip3_ip3_0_split needs backward computation.
I0105 21:59:51.343087 1994072832 net.cpp:170] ip3 needs backward computation.
…
