…
solver_mode: GPU
random_seed: 1710
net_param {
  name: "LeNet"
  layers {
    top: "data"
    top: "label"
    name: "mnist"
    type: DATA
    data_param {
      source: "49s1rzmj_tr_ldb"
      batch_size: 60
      backend: LEVELDB
    }
    include {
      phase: TRAIN
    }
    transform_param {
      scale: 0.00390625
    }
  }
  layers {
    top: "data"
    top: "label"
    name: "mnist"
    type: DATA
    data_param {
      source: "49s1rzmj_te_ldb"
      batch_size: 100
      backend: LEVELDB
    }
    include {
      phase: TEST
    }
    transform_param {
      scale: 0.00390625
    }
  }
  layers {
    bottom: "data"
    top: "ip1"
    name: "ip1"
    type: INNER_PRODUCT
    blobs_lr: 1
    blobs_lr: 2
    inner_product_param {
      num_output: 800
      weight_filler {
        type: "xavier"
      }
      bias_filler {
        type: "constant"
      }
    }
  }
  layers {
    bottom: "ip1"
    top: "ip1"
    name: "relu1"
    type: RELU
  }
  layers {
    bottom: "ip1"
    top: "ip2"
    name: "ip2"
    type: INNER_PRODUCT
    blobs_lr: 1
    blobs_lr: 2
    inner_product_param {
      num_output: 500
      weight_filler {
        type: "xavier"
      }
      bias_filler {
        type: "constant"
      }
    }
  }
  layers {
    bottom: "ip2"
    top: "ip2"
    name: "relu2"
    type: RELU
  }
  layers {
    bottom: "ip2"
    top: "ip3"
    name: "ip3"
    type: INNER_PRODUCT
    blobs_lr: 1
    blobs_lr: 2
    inner_product_param {
      num_output: 10
      weight_filler {
        type: "xavier"
      }
      bias_filler {
        type: "constant"
      }
    }
  }
  layers {
    bottom: "ip3"
    bottom: "label"
    top: "accuracy"
    name: "accuracy"
    type: ACCURACY
  }
  layers {
    bottom: "ip3"
    bottom: "label"
    top: "loss"
    name: "loss"
    type: SOFTMAX_LOSS
  }
}
test_state {
  stage: "test-on-test-set"
}
I0112 15:16:53.401865 1994072832 solver.cpp:63] Creating training net specified in net_param.
I0112 15:16:53.401962 1994072832 net.cpp:275] The NetState phase (0) differed from the phase (1) specified by a rule in layer mnist
I0112 15:16:53.401979 1994072832 net.cpp:39] Initializing net from parameters: 
name: "LeNet"
layers {
  top: "data"
  top: "label"
  name: "mnist"
  type: DATA
  data_param {
    source: "49s1rzmj_tr_ldb"
    batch_size: 60
    backend: LEVELDB
  }
  include {
    phase: TRAIN
  }
  transform_param {
    scale: 0.00390625
  }
}
layers {
  bottom: "data"
  top: "ip1"
  name: "ip1"
  type: INNER_PRODUCT
  blobs_lr: 1
  blobs_lr: 2
  inner_product_param {
    num_output: 800
    weight_filler {
      type: "xavier"
    }
    bias_filler {
      type: "constant"
    }
  }
}
layers {
  bottom: "ip1"
  top: "ip1"
  name: "relu1"
  type: RELU
}
layers {
  bottom: "ip1"
  top: "ip2"
  name: "ip2"
  type: INNER_PRODUCT
  blobs_lr: 1
  blobs_lr: 2
  inner_product_param {
    num_output: 500
    weight_filler {
      type: "xavier"
    }
    bias_filler {
      type: "constant"
    }
  }
}
layers {
  bottom: "ip2"
  top: "ip2"
  name: "relu2"
  type: RELU
}
layers {
  bottom: "ip2"
  top: "ip3"
  name: "ip3"
  type: INNER_PRODUCT
  blobs_lr: 1
  blobs_lr: 2
  inner_product_param {
    num_output: 10
    weight_filler {
      type: "xavier"
    }
    bias_filler {
      type: "constant"
    }
  }
}
layers {
  bottom: "ip3"
  bottom: "label"
  top: "accuracy"
  name: "accuracy"
  type: ACCURACY
}
layers {
  bottom: "ip3"
  bottom: "label"
  top: "loss"
  name: "loss"
  type: SOFTMAX_LOSS
}
state {
  phase: TRAIN
}
I0112 15:16:53.402264 1994072832 net.cpp:67] Creating Layer mnist
I0112 15:16:53.402272 1994072832 net.cpp:356] mnist -> data
I0112 15:16:53.402288 1994072832 net.cpp:356] mnist -> label
I0112 15:16:53.402295 1994072832 net.cpp:96] Setting up mnist
I0112 15:16:53.402349 1994072832 data_layer.cpp:45] Opening leveldb 49s1rzmj_tr_ldb
I0112 15:16:53.443153 1994072832 data_layer.cpp:128] output data size: 60,1,1,245
I0112 15:16:53.443318 1994072832 net.cpp:103] Top shape: 60 1 1 245 (14700)
I0112 15:16:53.443325 1994072832 net.cpp:103] Top shape: 60 1 1 1 (60)
I0112 15:16:53.443339 1994072832 net.cpp:67] Creating Layer label_mnist_1_split
I0112 15:16:53.443344 1994072832 net.cpp:394] label_mnist_1_split <- label
I0112 15:16:53.443352 1994072832 net.cpp:356] label_mnist_1_split -> label_mnist_1_split_0
I0112 15:16:53.443363 1994072832 net.cpp:356] label_mnist_1_split -> label_mnist_1_split_1
I0112 15:16:53.443369 1994072832 net.cpp:96] Setting up label_mnist_1_split
I0112 15:16:53.443374 1994072832 net.cpp:103] Top shape: 60 1 1 1 (60)
I0112 15:16:53.443377 1994072832 net.cpp:103] Top shape: 60 1 1 1 (60)
I0112 15:16:53.443382 1994072832 net.cpp:67] Creating Layer ip1
I0112 15:16:53.443387 1994072832 net.cpp:394] ip1 <- data
I0112 15:16:53.443390 1994072832 net.cpp:356] ip1 -> ip1
I0112 15:16:53.443397 1994072832 net.cpp:96] Setting up ip1
I0112 15:16:53.444736 1994072832 net.cpp:103] Top shape: 60 800 1 1 (48000)
I0112 15:16:53.444752 1994072832 net.cpp:67] Creating Layer relu1
I0112 15:16:53.444756 1994072832 net.cpp:394] relu1 <- ip1
I0112 15:16:53.444759 1994072832 net.cpp:345] relu1 -> ip1 (in-place)
I0112 15:16:53.444763 1994072832 net.cpp:96] Setting up relu1
I0112 15:16:53.444767 1994072832 net.cpp:103] Top shape: 60 800 1 1 (48000)
I0112 15:16:53.444772 1994072832 net.cpp:67] Creating Layer ip2
I0112 15:16:53.444774 1994072832 net.cpp:394] ip2 <- ip1
I0112 15:16:53.444778 1994072832 net.cpp:356] ip2 -> ip2
I0112 15:16:53.444783 1994072832 net.cpp:96] Setting up ip2
I0112 15:16:53.447542 1994072832 net.cpp:103] Top shape: 60 500 1 1 (30000)
I0112 15:16:53.447556 1994072832 net.cpp:67] Creating Layer relu2
I0112 15:16:53.447558 1994072832 net.cpp:394] relu2 <- ip2
I0112 15:16:53.447562 1994072832 net.cpp:345] relu2 -> ip2 (in-place)
I0112 15:16:53.447567 1994072832 net.cpp:96] Setting up relu2
I0112 15:16:53.447571 1994072832 net.cpp:103] Top shape: 60 500 1 1 (30000)
I0112 15:16:53.447578 1994072832 net.cpp:67] Creating Layer ip3
I0112 15:16:53.447582 1994072832 net.cpp:394] ip3 <- ip2
I0112 15:16:53.447585 1994072832 net.cpp:356] ip3 -> ip3
I0112 15:16:53.447590 1994072832 net.cpp:96] Setting up ip3
I0112 15:16:53.447628 1994072832 net.cpp:103] Top shape: 60 10 1 1 (600)
I0112 15:16:53.447633 1994072832 net.cpp:67] Creating Layer ip3_ip3_0_split
I0112 15:16:53.447636 1994072832 net.cpp:394] ip3_ip3_0_split <- ip3
I0112 15:16:53.447641 1994072832 net.cpp:356] ip3_ip3_0_split -> ip3_ip3_0_split_0
I0112 15:16:53.447646 1994072832 net.cpp:356] ip3_ip3_0_split -> ip3_ip3_0_split_1
I0112 15:16:53.447651 1994072832 net.cpp:96] Setting up ip3_ip3_0_split
I0112 15:16:53.447655 1994072832 net.cpp:103] Top shape: 60 10 1 1 (600)
I0112 15:16:53.447659 1994072832 net.cpp:103] Top shape: 60 10 1 1 (600)
I0112 15:16:53.447664 1994072832 net.cpp:67] Creating Layer accuracy
I0112 15:16:53.447666 1994072832 net.cpp:394] accuracy <- ip3_ip3_0_split_0
I0112 15:16:53.447669 1994072832 net.cpp:394] accuracy <- label_mnist_1_split_0
I0112 15:16:53.447675 1994072832 net.cpp:356] accuracy -> accuracy
I0112 15:16:53.447680 1994072832 net.cpp:96] Setting up accuracy
I0112 15:16:53.447685 1994072832 net.cpp:103] Top shape: 1 1 1 1 (1)
I0112 15:16:53.447691 1994072832 net.cpp:67] Creating Layer loss
I0112 15:16:53.447695 1994072832 net.cpp:394] loss <- ip3_ip3_0_split_1
I0112 15:16:53.447698 1994072832 net.cpp:394] loss <- label_mnist_1_split_1
I0112 15:16:53.447702 1994072832 net.cpp:356] loss -> loss
I0112 15:16:53.447707 1994072832 net.cpp:96] Setting up loss
I0112 15:16:53.447717 1994072832 net.cpp:103] Top shape: 1 1 1 1 (1)
I0112 15:16:53.447721 1994072832 net.cpp:109]     with loss weight 1
I0112 15:16:53.447731 1994072832 net.cpp:170] loss needs backward computation.
I0112 15:16:53.447733 1994072832 net.cpp:172] accuracy does not need backward computation.
I0112 15:16:53.447762 1994072832 net.cpp:170] ip3_ip3_0_split needs backward computation.
I0112 15:16:53.447765 1994072832 net.cpp:170] ip3 needs backward computation.
…
I0112 15:16:53.447808 1994072832 net.cpp:220] Memory required for data: 690728
I0112 15:16:53.447865 1994072832 solver.cpp:151] Creating test net (#0) specified by net_param
I0112 15:16:53.447880 1994072832 net.cpp:275] The NetState phase (1) differed from the phase (0) specified by a rule in layer mnist
I0112 15:16:53.447890 1994072832 net.cpp:39] Initializing net from parameters: 
name: "LeNet"
layers {
  top: "data"
  top: "label"
  name: "mnist"
  type: DATA
  data_param {
    source: "49s1rzmj_te_ldb"
    batch_size: 100
    backend: LEVELDB
  }
  include {
    phase: TEST
  }
  transform_param {
    scale: 0.00390625
  }
}
layers {
  bottom: "data"
  top: "ip1"
  name: "ip1"
  type: INNER_PRODUCT
  blobs_lr: 1
  blobs_lr: 2
  inner_product_param {
    num_output: 800
    weight_filler {
      type: "xavier"
    }
    bias_filler {
      type: "constant"
    }
  }
}
layers {
  bottom: "ip1"
  top: "ip1"
  name: "relu1"
  type: RELU
}
layers {
  bottom: "ip1"
  top: "ip2"
  name: "ip2"
  type: INNER_PRODUCT
  blobs_lr: 1
  blobs_lr: 2
  inner_product_param {
    num_output: 500
    weight_filler {
      type: "xavier"
    }
    bias_filler {
      type: "constant"
    }
  }
}
layers {
  bottom: "ip2"
  top: "ip2"
  name: "relu2"
  type: RELU
}
layers {
  bottom: "ip2"
  top: "ip3"
  name: "ip3"
  type: INNER_PRODUCT
  blobs_lr: 1
  blobs_lr: 2
  inner_product_param {
    num_output: 10
    weight_filler {
      type: "xavier"
    }
    bias_filler {
      type: "constant"
    }
  }
}
layers {
  bottom: "ip3"
  bottom: "label"
  top: "accuracy"
  name: "accuracy"
  type: ACCURACY
}
layers {
  bottom: "ip3"
  bottom: "label"
  top: "loss"
  name: "loss"
  type: SOFTMAX_LOSS
}
state {
  phase: TEST
  stage: "test-on-test-set"
}
I0112 15:16:53.448127 1994072832 net.cpp:67] Creating Layer mnist
I0112 15:16:53.448133 1994072832 net.cpp:356] mnist -> data
I0112 15:16:53.448140 1994072832 net.cpp:356] mnist -> label
I0112 15:16:53.448146 1994072832 net.cpp:96] Setting up mnist
I0112 15:16:53.448150 1994072832 data_layer.cpp:45] Opening leveldb 49s1rzmj_te_ldb
I0112 15:16:53.517822 1994072832 data_layer.cpp:128] output data size: 100,1,1,245
I0112 15:16:53.517882 1994072832 net.cpp:103] Top shape: 100 1 1 245 (24500)
I0112 15:16:53.517889 1994072832 net.cpp:103] Top shape: 100 1 1 1 (100)
I0112 15:16:53.517900 1994072832 net.cpp:67] Creating Layer label_mnist_1_split
I0112 15:16:53.517904 1994072832 net.cpp:394] label_mnist_1_split <- label
I0112 15:16:53.517910 1994072832 net.cpp:356] label_mnist_1_split -> label_mnist_1_split_0
I0112 15:16:53.517918 1994072832 net.cpp:356] label_mnist_1_split -> label_mnist_1_split_1
I0112 15:16:53.517948 1994072832 net.cpp:96] Setting up label_mnist_1_split
I0112 15:16:53.517956 1994072832 net.cpp:103] Top shape: 100 1 1 1 (100)
I0112 15:16:53.517959 1994072832 net.cpp:103] Top shape: 100 1 1 1 (100)
I0112 15:16:53.517966 1994072832 net.cpp:67] Creating Layer ip1
I0112 15:16:53.517969 1994072832 net.cpp:394] ip1 <- data
I0112 15:16:53.517976 1994072832 net.cpp:356] ip1 -> ip1
I0112 15:16:53.517983 1994072832 net.cpp:96] Setting up ip1
I0112 15:16:53.519086 1994072832 net.cpp:103] Top shape: 100 800 1 1 (80000)
I0112 15:16:53.519098 1994072832 net.cpp:67] Creating Layer relu1
I0112 15:16:53.519103 1994072832 net.cpp:394] relu1 <- ip1
I0112 15:16:53.519106 1994072832 net.cpp:345] relu1 -> ip1 (in-place)
I0112 15:16:53.519111 1994072832 net.cpp:96] Setting up relu1
I0112 15:16:53.519114 1994072832 net.cpp:103] Top shape: 100 800 1 1 (80000)
I0112 15:16:53.519129 1994072832 net.cpp:67] Creating Layer ip2
I0112 15:16:53.519134 1994072832 net.cpp:394] ip2 <- ip1
I0112 15:16:53.519139 1994072832 net.cpp:356] ip2 -> ip2
I0112 15:16:53.519143 1994072832 net.cpp:96] Setting up ip2
I0112 15:16:53.522048 1994072832 net.cpp:103] Top shape: 100 500 1 1 (50000)
I0112 15:16:53.522073 1994072832 net.cpp:67] Creating Layer relu2
I0112 15:16:53.522078 1994072832 net.cpp:394] relu2 <- ip2
I0112 15:16:53.522083 1994072832 net.cpp:345] relu2 -> ip2 (in-place)
I0112 15:16:53.522089 1994072832 net.cpp:96] Setting up relu2
I0112 15:16:53.522092 1994072832 net.cpp:103] Top shape: 100 500 1 1 (50000)
I0112 15:16:53.522099 1994072832 net.cpp:67] Creating Layer ip3
I0112 15:16:53.522101 1994072832 net.cpp:394] ip3 <- ip2
I0112 15:16:53.522110 1994072832 net.cpp:356] ip3 -> ip3
I0112 15:16:53.522119 1994072832 net.cpp:96] Setting up ip3
I0112 15:16:53.522176 1994072832 net.cpp:103] Top shape: 100 10 1 1 (1000)
I0112 15:16:53.522193 1994072832 net.cpp:67] Creating Layer ip3_ip3_0_split
I0112 15:16:53.522197 1994072832 net.cpp:394] ip3_ip3_0_split <- ip3
I0112 15:16:53.522203 1994072832 net.cpp:356] ip3_ip3_0_split -> ip3_ip3_0_split_0
I0112 15:16:53.522209 1994072832 net.cpp:356] ip3_ip3_0_split -> ip3_ip3_0_split_1
I0112 15:16:53.522215 1994072832 net.cpp:96] Setting up ip3_ip3_0_split
I0112 15:16:53.522220 1994072832 net.cpp:103] Top shape: 100 10 1 1 (1000)
I0112 15:16:53.522224 1994072832 net.cpp:103] Top shape: 100 10 1 1 (1000)
I0112 15:16:53.522233 1994072832 net.cpp:67] Creating Layer accuracy
I0112 15:16:53.522238 1994072832 net.cpp:394] accuracy <- ip3_ip3_0_split_0
I0112 15:16:53.522263 1994072832 net.cpp:394] accuracy <- label_mnist_1_split_0
I0112 15:16:53.522269 1994072832 net.cpp:356] accuracy -> accuracy
I0112 15:16:53.522274 1994072832 net.cpp:96] Setting up accuracy
I0112 15:16:53.522277 1994072832 net.cpp:103] Top shape: 1 1 1 1 (1)
I0112 15:16:53.522284 1994072832 net.cpp:67] Creating Layer loss
I0112 15:16:53.522286 1994072832 net.cpp:394] loss <- ip3_ip3_0_split_1
I0112 15:16:53.522289 1994072832 net.cpp:394] loss <- label_mnist_1_split_1
I0112 15:16:53.522294 1994072832 net.cpp:356] loss -> loss
I0112 15:16:53.522299 1994072832 net.cpp:96] Setting up loss
I0112 15:16:53.522305 1994072832 net.cpp:103] Top shape: 1 1 1 1 (1)
I0112 15:16:53.522320 1994072832 net.cpp:109]     with loss weight 1
I0112 15:16:53.522330 1994072832 net.cpp:170] loss needs backward computation.
I0112 15:16:53.522333 1994072832 net.cpp:172] accuracy does not need backward computation.
I0112 15:16:53.522336 1994072832 net.cpp:170] ip3_ip3_0_split needs backward computation.
I0112 15:16:53.522339 1994072832 net.cpp:170] ip3 needs backward computation.
…
