…
solver_mode: GPU
random_seed: 1710
net_param {
  name: "LeNet"
  layers {
    top: "data"
    top: "label"
    name: "mnist"
    type: DATA
    data_param {
      source: "49s8rz_tr_ldb"
      batch_size: 480
      backend: LEVELDB
    }
    include {
      phase: TRAIN
    }
    transform_param {
      scale: 0.00390625
    }
  }
  layers {
    top: "data"
    top: "label"
    name: "mnist"
    type: DATA
    data_param {
      source: "49s8rz_te_ldb"
      batch_size: 100
      backend: LEVELDB
    }
    include {
      phase: TEST
    }
    transform_param {
      scale: 0.00390625
    }
  }
  layers {
    bottom: "data"
    top: "ip1"
    name: "ip1"
    type: INNER_PRODUCT
    blobs_lr: 1
    blobs_lr: 2
    inner_product_param {
      num_output: 300
      weight_filler {
        type: "xavier"
      }
      bias_filler {
        type: "constant"
      }
    }
  }
  layers {
    bottom: "ip1"
    top: "ip1"
    name: "relu1"
    type: RELU
  }
  layers {
    bottom: "ip1"
    top: "ip2"
    name: "ip2"
    type: INNER_PRODUCT
    blobs_lr: 1
    blobs_lr: 2
    inner_product_param {
      num_output: 300
      weight_filler {
        type: "xavier"
      }
      bias_filler {
        type: "constant"
      }
    }
  }
  layers {
    bottom: "ip2"
    top: "ip2"
    name: "relu2"
    type: RELU
  }
  layers {
    bottom: "ip2"
    top: "ip3"
    name: "ip3"
    type: INNER_PRODUCT
    blobs_lr: 1
    blobs_lr: 2
    inner_product_param {
      num_output: 10
      weight_filler {
        type: "xavier"
      }
      bias_filler {
        type: "constant"
      }
    }
  }
  layers {
    bottom: "ip3"
    bottom: "label"
    top: "accuracy"
    name: "accuracy"
    type: ACCURACY
  }
  layers {
    bottom: "ip3"
    bottom: "label"
    top: "loss"
    name: "loss"
    type: SOFTMAX_LOSS
  }
}
test_state {
  stage: "test-on-test-set"
}
I0108 11:29:30.187885 1994072832 solver.cpp:63] Creating training net specified in net_param.
I0108 11:29:30.188350 1994072832 net.cpp:275] The NetState phase (0) differed from the phase (1) specified by a rule in layer mnist
I0108 11:29:30.188638 1994072832 net.cpp:39] Initializing net from parameters: 
name: "LeNet"
layers {
  top: "data"
  top: "label"
  name: "mnist"
  type: DATA
  data_param {
    source: "49s8rz_tr_ldb"
    batch_size: 480
    backend: LEVELDB
  }
  include {
    phase: TRAIN
  }
  transform_param {
    scale: 0.00390625
  }
}
layers {
  bottom: "data"
  top: "ip1"
  name: "ip1"
  type: INNER_PRODUCT
  blobs_lr: 1
  blobs_lr: 2
  inner_product_param {
    num_output: 300
    weight_filler {
      type: "xavier"
    }
    bias_filler {
      type: "constant"
    }
  }
}
layers {
  bottom: "ip1"
  top: "ip1"
  name: "relu1"
  type: RELU
}
layers {
  bottom: "ip1"
  top: "ip2"
  name: "ip2"
  type: INNER_PRODUCT
  blobs_lr: 1
  blobs_lr: 2
  inner_product_param {
    num_output: 300
    weight_filler {
      type: "xavier"
    }
    bias_filler {
      type: "constant"
    }
  }
}
layers {
  bottom: "ip2"
  top: "ip2"
  name: "relu2"
  type: RELU
}
layers {
  bottom: "ip2"
  top: "ip3"
  name: "ip3"
  type: INNER_PRODUCT
  blobs_lr: 1
  blobs_lr: 2
  inner_product_param {
    num_output: 10
    weight_filler {
      type: "xavier"
    }
    bias_filler {
      type: "constant"
    }
  }
}
layers {
  bottom: "ip3"
  bottom: "label"
  top: "accuracy"
  name: "accuracy"
  type: ACCURACY
}
layers {
  bottom: "ip3"
  bottom: "label"
  top: "loss"
  name: "loss"
  type: SOFTMAX_LOSS
}
state {
  phase: TRAIN
}
I0108 11:29:30.188953 1994072832 net.cpp:67] Creating Layer mnist
I0108 11:29:30.188972 1994072832 net.cpp:356] mnist -> data
I0108 11:29:30.188989 1994072832 net.cpp:356] mnist -> label
I0108 11:29:30.188997 1994072832 net.cpp:96] Setting up mnist
I0108 11:29:30.189069 1994072832 data_layer.cpp:45] Opening leveldb 49s8rz_tr_ldb
I0108 11:29:30.217435 1994072832 data_layer.cpp:128] output data size: 480,1,1,245
I0108 11:29:30.217551 1994072832 net.cpp:103] Top shape: 480 1 1 245 (117600)
I0108 11:29:30.217560 1994072832 net.cpp:103] Top shape: 480 1 1 1 (480)
I0108 11:29:30.217571 1994072832 net.cpp:67] Creating Layer label_mnist_1_split
I0108 11:29:30.217574 1994072832 net.cpp:394] label_mnist_1_split <- label
I0108 11:29:30.217582 1994072832 net.cpp:356] label_mnist_1_split -> label_mnist_1_split_0
I0108 11:29:30.217591 1994072832 net.cpp:356] label_mnist_1_split -> label_mnist_1_split_1
I0108 11:29:30.217596 1994072832 net.cpp:96] Setting up label_mnist_1_split
I0108 11:29:30.217600 1994072832 net.cpp:103] Top shape: 480 1 1 1 (480)
I0108 11:29:30.217603 1994072832 net.cpp:103] Top shape: 480 1 1 1 (480)
I0108 11:29:30.217613 1994072832 net.cpp:67] Creating Layer ip1
I0108 11:29:30.217617 1994072832 net.cpp:394] ip1 <- data
I0108 11:29:30.217620 1994072832 net.cpp:356] ip1 -> ip1
I0108 11:29:30.217627 1994072832 net.cpp:96] Setting up ip1
I0108 11:29:30.219372 1994072832 net.cpp:103] Top shape: 480 300 1 1 (144000)
I0108 11:29:30.219409 1994072832 net.cpp:67] Creating Layer relu1
I0108 11:29:30.219414 1994072832 net.cpp:394] relu1 <- ip1
I0108 11:29:30.219419 1994072832 net.cpp:345] relu1 -> ip1 (in-place)
I0108 11:29:30.219434 1994072832 net.cpp:96] Setting up relu1
I0108 11:29:30.219439 1994072832 net.cpp:103] Top shape: 480 300 1 1 (144000)
I0108 11:29:30.219444 1994072832 net.cpp:67] Creating Layer ip2
I0108 11:29:30.219447 1994072832 net.cpp:394] ip2 <- ip1
I0108 11:29:30.219455 1994072832 net.cpp:356] ip2 -> ip2
I0108 11:29:30.219462 1994072832 net.cpp:96] Setting up ip2
I0108 11:29:30.220194 1994072832 net.cpp:103] Top shape: 480 300 1 1 (144000)
I0108 11:29:30.220217 1994072832 net.cpp:67] Creating Layer relu2
I0108 11:29:30.220224 1994072832 net.cpp:394] relu2 <- ip2
I0108 11:29:30.220230 1994072832 net.cpp:345] relu2 -> ip2 (in-place)
I0108 11:29:30.220234 1994072832 net.cpp:96] Setting up relu2
I0108 11:29:30.220238 1994072832 net.cpp:103] Top shape: 480 300 1 1 (144000)
I0108 11:29:30.220244 1994072832 net.cpp:67] Creating Layer ip3
I0108 11:29:30.220247 1994072832 net.cpp:394] ip3 <- ip2
I0108 11:29:30.220299 1994072832 net.cpp:356] ip3 -> ip3
I0108 11:29:30.220314 1994072832 net.cpp:96] Setting up ip3
I0108 11:29:30.220350 1994072832 net.cpp:103] Top shape: 480 10 1 1 (4800)
I0108 11:29:30.220360 1994072832 net.cpp:67] Creating Layer ip3_ip3_0_split
I0108 11:29:30.220363 1994072832 net.cpp:394] ip3_ip3_0_split <- ip3
I0108 11:29:30.220371 1994072832 net.cpp:356] ip3_ip3_0_split -> ip3_ip3_0_split_0
I0108 11:29:30.220378 1994072832 net.cpp:356] ip3_ip3_0_split -> ip3_ip3_0_split_1
I0108 11:29:30.220384 1994072832 net.cpp:96] Setting up ip3_ip3_0_split
I0108 11:29:30.220388 1994072832 net.cpp:103] Top shape: 480 10 1 1 (4800)
I0108 11:29:30.220391 1994072832 net.cpp:103] Top shape: 480 10 1 1 (4800)
I0108 11:29:30.220396 1994072832 net.cpp:67] Creating Layer accuracy
I0108 11:29:30.220399 1994072832 net.cpp:394] accuracy <- ip3_ip3_0_split_0
I0108 11:29:30.220402 1994072832 net.cpp:394] accuracy <- label_mnist_1_split_0
I0108 11:29:30.220407 1994072832 net.cpp:356] accuracy -> accuracy
I0108 11:29:30.220412 1994072832 net.cpp:96] Setting up accuracy
I0108 11:29:30.220417 1994072832 net.cpp:103] Top shape: 1 1 1 1 (1)
I0108 11:29:30.220424 1994072832 net.cpp:67] Creating Layer loss
I0108 11:29:30.220428 1994072832 net.cpp:394] loss <- ip3_ip3_0_split_1
I0108 11:29:30.220432 1994072832 net.cpp:394] loss <- label_mnist_1_split_1
I0108 11:29:30.220439 1994072832 net.cpp:356] loss -> loss
I0108 11:29:30.220444 1994072832 net.cpp:96] Setting up loss
I0108 11:29:30.220455 1994072832 net.cpp:103] Top shape: 1 1 1 1 (1)
I0108 11:29:30.220458 1994072832 net.cpp:109]     with loss weight 1
I0108 11:29:30.220468 1994072832 net.cpp:170] loss needs backward computation.
I0108 11:29:30.220470 1994072832 net.cpp:172] accuracy does not need backward computation.
I0108 11:29:30.220494 1994072832 net.cpp:170] ip3_ip3_0_split needs backward computation.
I0108 11:29:30.220497 1994072832 net.cpp:170] ip3 needs backward computation.
…
I0108 11:29:30.220552 1994072832 net.cpp:220] Memory required for data: 2837768
I0108 11:29:30.220643 1994072832 solver.cpp:151] Creating test net (#0) specified by net_param
I0108 11:29:30.220661 1994072832 net.cpp:275] The NetState phase (1) differed from the phase (0) specified by a rule in layer mnist
I0108 11:29:30.220671 1994072832 net.cpp:39] Initializing net from parameters: 
name: "LeNet"
layers {
  top: "data"
  top: "label"
  name: "mnist"
  type: DATA
  data_param {
    source: "49s8rz_te_ldb"
    batch_size: 100
    backend: LEVELDB
  }
  include {
    phase: TEST
  }
  transform_param {
    scale: 0.00390625
  }
}
layers {
  bottom: "data"
  top: "ip1"
  name: "ip1"
  type: INNER_PRODUCT
  blobs_lr: 1
  blobs_lr: 2
  inner_product_param {
    num_output: 300
    weight_filler {
      type: "xavier"
    }
    bias_filler {
      type: "constant"
    }
  }
}
layers {
  bottom: "ip1"
  top: "ip1"
  name: "relu1"
  type: RELU
}
layers {
  bottom: "ip1"
  top: "ip2"
  name: "ip2"
  type: INNER_PRODUCT
  blobs_lr: 1
  blobs_lr: 2
  inner_product_param {
    num_output: 300
    weight_filler {
      type: "xavier"
    }
    bias_filler {
      type: "constant"
    }
  }
}
layers {
  bottom: "ip2"
  top: "ip2"
  name: "relu2"
  type: RELU
}
layers {
  bottom: "ip2"
  top: "ip3"
  name: "ip3"
  type: INNER_PRODUCT
  blobs_lr: 1
  blobs_lr: 2
  inner_product_param {
    num_output: 10
    weight_filler {
      type: "xavier"
    }
    bias_filler {
      type: "constant"
    }
  }
}
layers {
  bottom: "ip3"
  bottom: "label"
  top: "accuracy"
  name: "accuracy"
  type: ACCURACY
}
layers {
  bottom: "ip3"
  bottom: "label"
  top: "loss"
  name: "loss"
  type: SOFTMAX_LOSS
}
state {
  phase: TEST
  stage: "test-on-test-set"
}
I0108 11:29:30.220988 1994072832 net.cpp:67] Creating Layer mnist
I0108 11:29:30.220996 1994072832 net.cpp:356] mnist -> data
I0108 11:29:30.221004 1994072832 net.cpp:356] mnist -> label
I0108 11:29:30.221010 1994072832 net.cpp:96] Setting up mnist
I0108 11:29:30.221014 1994072832 data_layer.cpp:45] Opening leveldb 49s8rz_te_ldb
I0108 11:29:30.284438 1994072832 data_layer.cpp:128] output data size: 100,1,1,245
I0108 11:29:30.284502 1994072832 net.cpp:103] Top shape: 100 1 1 245 (24500)
I0108 11:29:30.284507 1994072832 net.cpp:103] Top shape: 100 1 1 1 (100)
I0108 11:29:30.284518 1994072832 net.cpp:67] Creating Layer label_mnist_1_split
I0108 11:29:30.284521 1994072832 net.cpp:394] label_mnist_1_split <- label
I0108 11:29:30.284528 1994072832 net.cpp:356] label_mnist_1_split -> label_mnist_1_split_0
I0108 11:29:30.284534 1994072832 net.cpp:356] label_mnist_1_split -> label_mnist_1_split_1
I0108 11:29:30.284540 1994072832 net.cpp:96] Setting up label_mnist_1_split
I0108 11:29:30.284564 1994072832 net.cpp:103] Top shape: 100 1 1 1 (100)
I0108 11:29:30.284572 1994072832 net.cpp:103] Top shape: 100 1 1 1 (100)
I0108 11:29:30.284580 1994072832 net.cpp:67] Creating Layer ip1
I0108 11:29:30.284584 1994072832 net.cpp:394] ip1 <- data
I0108 11:29:30.284590 1994072832 net.cpp:356] ip1 -> ip1
I0108 11:29:30.284597 1994072832 net.cpp:96] Setting up ip1
I0108 11:29:30.285141 1994072832 net.cpp:103] Top shape: 100 300 1 1 (30000)
I0108 11:29:30.285167 1994072832 net.cpp:67] Creating Layer relu1
I0108 11:29:30.285171 1994072832 net.cpp:394] relu1 <- ip1
I0108 11:29:30.285176 1994072832 net.cpp:345] relu1 -> ip1 (in-place)
I0108 11:29:30.285192 1994072832 net.cpp:96] Setting up relu1
I0108 11:29:30.285194 1994072832 net.cpp:103] Top shape: 100 300 1 1 (30000)
I0108 11:29:30.285200 1994072832 net.cpp:67] Creating Layer ip2
I0108 11:29:30.285203 1994072832 net.cpp:394] ip2 <- ip1
I0108 11:29:30.285208 1994072832 net.cpp:356] ip2 -> ip2
I0108 11:29:30.285213 1994072832 net.cpp:96] Setting up ip2
I0108 11:29:30.285915 1994072832 net.cpp:103] Top shape: 100 300 1 1 (30000)
I0108 11:29:30.285934 1994072832 net.cpp:67] Creating Layer relu2
I0108 11:29:30.285938 1994072832 net.cpp:394] relu2 <- ip2
I0108 11:29:30.285943 1994072832 net.cpp:345] relu2 -> ip2 (in-place)
I0108 11:29:30.285948 1994072832 net.cpp:96] Setting up relu2
I0108 11:29:30.285961 1994072832 net.cpp:103] Top shape: 100 300 1 1 (30000)
I0108 11:29:30.285966 1994072832 net.cpp:67] Creating Layer ip3
I0108 11:29:30.285969 1994072832 net.cpp:394] ip3 <- ip2
I0108 11:29:30.285974 1994072832 net.cpp:356] ip3 -> ip3
I0108 11:29:30.285979 1994072832 net.cpp:96] Setting up ip3
I0108 11:29:30.286010 1994072832 net.cpp:103] Top shape: 100 10 1 1 (1000)
I0108 11:29:30.286017 1994072832 net.cpp:67] Creating Layer ip3_ip3_0_split
I0108 11:29:30.286031 1994072832 net.cpp:394] ip3_ip3_0_split <- ip3
I0108 11:29:30.286036 1994072832 net.cpp:356] ip3_ip3_0_split -> ip3_ip3_0_split_0
I0108 11:29:30.286041 1994072832 net.cpp:356] ip3_ip3_0_split -> ip3_ip3_0_split_1
I0108 11:29:30.286046 1994072832 net.cpp:96] Setting up ip3_ip3_0_split
I0108 11:29:30.286051 1994072832 net.cpp:103] Top shape: 100 10 1 1 (1000)
I0108 11:29:30.286053 1994072832 net.cpp:103] Top shape: 100 10 1 1 (1000)
I0108 11:29:30.286061 1994072832 net.cpp:67] Creating Layer accuracy
I0108 11:29:30.286064 1994072832 net.cpp:394] accuracy <- ip3_ip3_0_split_0
I0108 11:29:30.286068 1994072832 net.cpp:394] accuracy <- label_mnist_1_split_0
I0108 11:29:30.286072 1994072832 net.cpp:356] accuracy -> accuracy
I0108 11:29:30.286082 1994072832 net.cpp:96] Setting up accuracy
I0108 11:29:30.286085 1994072832 net.cpp:103] Top shape: 1 1 1 1 (1)
I0108 11:29:30.286090 1994072832 net.cpp:67] Creating Layer loss
I0108 11:29:30.286093 1994072832 net.cpp:394] loss <- ip3_ip3_0_split_1
I0108 11:29:30.286097 1994072832 net.cpp:394] loss <- label_mnist_1_split_1
I0108 11:29:30.286100 1994072832 net.cpp:356] loss -> loss
I0108 11:29:30.286105 1994072832 net.cpp:96] Setting up loss
I0108 11:29:30.286111 1994072832 net.cpp:103] Top shape: 1 1 1 1 (1)
I0108 11:29:30.286114 1994072832 net.cpp:109]     with loss weight 1
I0108 11:29:30.286121 1994072832 net.cpp:170] loss needs backward computation.
I0108 11:29:30.286124 1994072832 net.cpp:172] accuracy does not need backward computation.
I0108 11:29:30.286128 1994072832 net.cpp:170] ip3_ip3_0_split needs backward computation.
I0108 11:29:30.286130 1994072832 net.cpp:170] ip3 needs backward computation.
…
