…
solver_mode: GPU
random_seed: 1710
net_param {
  name: "HMC"
  layers {
    top: "data"
    top: "label"
    name: "mnist"
    type: DATA
    data_param {
      source: "49s8ri_tr_ldb"
      batch_size: 480
      backend: LEVELDB
    }
    include {
      phase: TRAIN
    }
    transform_param {
      scale: 0.00390625
    }
  }
  layers {
    top: "data"
    top: "label"
    name: "mnist"
    type: DATA
    data_param {
      source: "49s8ri_te_ldb"
      batch_size: 100
      backend: LEVELDB
    }
    include {
      phase: TEST
    }
    transform_param {
      scale: 0.00390625
    }
  }
  layers {
    bottom: "data"
    top: "ip1"
    name: "ip1"
    type: INNER_PRODUCT
    blobs_lr: 1
    blobs_lr: 2
    inner_product_param {
      num_output: 300
      weight_filler {
        type: "xavier"
      }
      bias_filler {
        type: "constant"
      }
    }
  }
  layers {
    bottom: "ip1"
    top: "ip1"
    name: "relu1"
    type: RELU
  }
  layers {
    bottom: "ip1"
    top: "ip2"
    name: "ip2"
    type: INNER_PRODUCT
    blobs_lr: 1
    blobs_lr: 2
    inner_product_param {
      num_output: 300
      weight_filler {
        type: "xavier"
      }
      bias_filler {
        type: "constant"
      }
    }
  }
  layers {
    bottom: "ip2"
    top: "ip2"
    name: "relu2"
    type: RELU
  }
  layers {
    bottom: "ip2"
    top: "ip3"
    name: "ip3"
    type: INNER_PRODUCT
    blobs_lr: 1
    blobs_lr: 2
    inner_product_param {
      num_output: 10
      weight_filler {
        type: "xavier"
      }
      bias_filler {
        type: "constant"
      }
    }
  }
  layers {
    bottom: "ip3"
    bottom: "label"
    top: "accuracy"
    name: "accuracy"
    type: ACCURACY
  }
  layers {
    bottom: "ip3"
    bottom: "label"
    top: "loss"
    name: "loss"
    type: SOFTMAX_LOSS
  }
}
test_state {
  stage: "test-on-test-set"
}
I0107 21:46:23.022991 1994072832 solver.cpp:63] Creating training net specified in net_param.
I0107 21:46:23.023432 1994072832 net.cpp:275] The NetState phase (0) differed from the phase (1) specified by a rule in layer mnist
I0107 21:46:23.023794 1994072832 net.cpp:39] Initializing net from parameters: 
name: "HMC"
layers {
  top: "data"
  top: "label"
  name: "mnist"
  type: DATA
  data_param {
    source: "49s8ri_tr_ldb"
    batch_size: 480
    backend: LEVELDB
  }
  include {
    phase: TRAIN
  }
  transform_param {
    scale: 0.00390625
  }
}
layers {
  bottom: "data"
  top: "ip1"
  name: "ip1"
  type: INNER_PRODUCT
  blobs_lr: 1
  blobs_lr: 2
  inner_product_param {
    num_output: 300
    weight_filler {
      type: "xavier"
    }
    bias_filler {
      type: "constant"
    }
  }
}
layers {
  bottom: "ip1"
  top: "ip1"
  name: "relu1"
  type: RELU
}
layers {
  bottom: "ip1"
  top: "ip2"
  name: "ip2"
  type: INNER_PRODUCT
  blobs_lr: 1
  blobs_lr: 2
  inner_product_param {
    num_output: 300
    weight_filler {
      type: "xavier"
    }
    bias_filler {
      type: "constant"
    }
  }
}
layers {
  bottom: "ip2"
  top: "ip2"
  name: "relu2"
  type: RELU
}
layers {
  bottom: "ip2"
  top: "ip3"
  name: "ip3"
  type: INNER_PRODUCT
  blobs_lr: 1
  blobs_lr: 2
  inner_product_param {
    num_output: 10
    weight_filler {
      type: "xavier"
    }
    bias_filler {
      type: "constant"
    }
  }
}
layers {
  bottom: "ip3"
  bottom: "label"
  top: "accuracy"
  name: "accuracy"
  type: ACCURACY
}
layers {
  bottom: "ip3"
  bottom: "label"
  top: "loss"
  name: "loss"
  type: SOFTMAX_LOSS
}
state {
  phase: TRAIN
}
I0107 21:46:23.024123 1994072832 net.cpp:67] Creating Layer mnist
I0107 21:46:23.024142 1994072832 net.cpp:356] mnist -> data
I0107 21:46:23.024168 1994072832 net.cpp:356] mnist -> label
I0107 21:46:23.024175 1994072832 net.cpp:96] Setting up mnist
I0107 21:46:23.024253 1994072832 data_layer.cpp:45] Opening leveldb 49s8ri_tr_ldb
I0107 21:46:23.051949 1994072832 data_layer.cpp:128] output data size: 480,1,1,245
I0107 21:46:23.052091 1994072832 net.cpp:103] Top shape: 480 1 1 245 (117600)
I0107 21:46:23.052109 1994072832 net.cpp:103] Top shape: 480 1 1 1 (480)
I0107 21:46:23.052119 1994072832 net.cpp:67] Creating Layer label_mnist_1_split
I0107 21:46:23.052122 1994072832 net.cpp:394] label_mnist_1_split <- label
I0107 21:46:23.052131 1994072832 net.cpp:356] label_mnist_1_split -> label_mnist_1_split_0
I0107 21:46:23.052140 1994072832 net.cpp:356] label_mnist_1_split -> label_mnist_1_split_1
I0107 21:46:23.052145 1994072832 net.cpp:96] Setting up label_mnist_1_split
I0107 21:46:23.052150 1994072832 net.cpp:103] Top shape: 480 1 1 1 (480)
I0107 21:46:23.052153 1994072832 net.cpp:103] Top shape: 480 1 1 1 (480)
I0107 21:46:23.052162 1994072832 net.cpp:67] Creating Layer ip1
I0107 21:46:23.052166 1994072832 net.cpp:394] ip1 <- data
I0107 21:46:23.052171 1994072832 net.cpp:356] ip1 -> ip1
I0107 21:46:23.052177 1994072832 net.cpp:96] Setting up ip1
I0107 21:46:23.053122 1994072832 net.cpp:103] Top shape: 480 300 1 1 (144000)
I0107 21:46:23.053158 1994072832 net.cpp:67] Creating Layer relu1
I0107 21:46:23.053163 1994072832 net.cpp:394] relu1 <- ip1
I0107 21:46:23.053167 1994072832 net.cpp:345] relu1 -> ip1 (in-place)
I0107 21:46:23.053182 1994072832 net.cpp:96] Setting up relu1
I0107 21:46:23.053186 1994072832 net.cpp:103] Top shape: 480 300 1 1 (144000)
I0107 21:46:23.053192 1994072832 net.cpp:67] Creating Layer ip2
I0107 21:46:23.053195 1994072832 net.cpp:394] ip2 <- ip1
I0107 21:46:23.053202 1994072832 net.cpp:356] ip2 -> ip2
I0107 21:46:23.053210 1994072832 net.cpp:96] Setting up ip2
I0107 21:46:23.053951 1994072832 net.cpp:103] Top shape: 480 300 1 1 (144000)
I0107 21:46:23.053959 1994072832 net.cpp:67] Creating Layer relu2
I0107 21:46:23.053962 1994072832 net.cpp:394] relu2 <- ip2
I0107 21:46:23.053966 1994072832 net.cpp:345] relu2 -> ip2 (in-place)
I0107 21:46:23.053971 1994072832 net.cpp:96] Setting up relu2
I0107 21:46:23.053973 1994072832 net.cpp:103] Top shape: 480 300 1 1 (144000)
I0107 21:46:23.053978 1994072832 net.cpp:67] Creating Layer ip3
I0107 21:46:23.053982 1994072832 net.cpp:394] ip3 <- ip2
I0107 21:46:23.053995 1994072832 net.cpp:356] ip3 -> ip3
I0107 21:46:23.054000 1994072832 net.cpp:96] Setting up ip3
I0107 21:46:23.054031 1994072832 net.cpp:103] Top shape: 480 10 1 1 (4800)
I0107 21:46:23.054050 1994072832 net.cpp:67] Creating Layer ip3_ip3_0_split
I0107 21:46:23.054064 1994072832 net.cpp:394] ip3_ip3_0_split <- ip3
I0107 21:46:23.054067 1994072832 net.cpp:356] ip3_ip3_0_split -> ip3_ip3_0_split_0
I0107 21:46:23.054072 1994072832 net.cpp:356] ip3_ip3_0_split -> ip3_ip3_0_split_1
I0107 21:46:23.054087 1994072832 net.cpp:96] Setting up ip3_ip3_0_split
I0107 21:46:23.054091 1994072832 net.cpp:103] Top shape: 480 10 1 1 (4800)
I0107 21:46:23.054095 1994072832 net.cpp:103] Top shape: 480 10 1 1 (4800)
I0107 21:46:23.054110 1994072832 net.cpp:67] Creating Layer accuracy
I0107 21:46:23.054112 1994072832 net.cpp:394] accuracy <- ip3_ip3_0_split_0
I0107 21:46:23.054129 1994072832 net.cpp:394] accuracy <- label_mnist_1_split_0
I0107 21:46:23.054158 1994072832 net.cpp:356] accuracy -> accuracy
I0107 21:46:23.054165 1994072832 net.cpp:96] Setting up accuracy
I0107 21:46:23.054179 1994072832 net.cpp:103] Top shape: 1 1 1 1 (1)
I0107 21:46:23.054190 1994072832 net.cpp:67] Creating Layer loss
I0107 21:46:23.054203 1994072832 net.cpp:394] loss <- ip3_ip3_0_split_1
I0107 21:46:23.054206 1994072832 net.cpp:394] loss <- label_mnist_1_split_1
I0107 21:46:23.054211 1994072832 net.cpp:356] loss -> loss
I0107 21:46:23.054216 1994072832 net.cpp:96] Setting up loss
I0107 21:46:23.054236 1994072832 net.cpp:103] Top shape: 1 1 1 1 (1)
I0107 21:46:23.054240 1994072832 net.cpp:109]     with loss weight 1
I0107 21:46:23.054265 1994072832 net.cpp:170] loss needs backward computation.
I0107 21:46:23.054267 1994072832 net.cpp:172] accuracy does not need backward computation.
I0107 21:46:23.054335 1994072832 net.cpp:170] ip3_ip3_0_split needs backward computation.
I0107 21:46:23.054339 1994072832 net.cpp:170] ip3 needs backward computation.
…
I0107 21:46:23.054409 1994072832 net.cpp:220] Memory required for data: 2837768
I0107 21:46:23.054489 1994072832 solver.cpp:151] Creating test net (#0) specified by net_param
I0107 21:46:23.054529 1994072832 net.cpp:275] The NetState phase (1) differed from the phase (0) specified by a rule in layer mnist
I0107 21:46:23.054550 1994072832 net.cpp:39] Initializing net from parameters: 
name: "HMC"
layers {
  top: "data"
  top: "label"
  name: "mnist"
  type: DATA
  data_param {
    source: "49s8ri_te_ldb"
    batch_size: 100
    backend: LEVELDB
  }
  include {
    phase: TEST
  }
  transform_param {
    scale: 0.00390625
  }
}
layers {
  bottom: "data"
  top: "ip1"
  name: "ip1"
  type: INNER_PRODUCT
  blobs_lr: 1
  blobs_lr: 2
  inner_product_param {
    num_output: 300
    weight_filler {
      type: "xavier"
    }
    bias_filler {
      type: "constant"
    }
  }
}
layers {
  bottom: "ip1"
  top: "ip1"
  name: "relu1"
  type: RELU
}
layers {
  bottom: "ip1"
  top: "ip2"
  name: "ip2"
  type: INNER_PRODUCT
  blobs_lr: 1
  blobs_lr: 2
  inner_product_param {
    num_output: 300
    weight_filler {
      type: "xavier"
    }
    bias_filler {
      type: "constant"
    }
  }
}
layers {
  bottom: "ip2"
  top: "ip2"
  name: "relu2"
  type: RELU
}
layers {
  bottom: "ip2"
  top: "ip3"
  name: "ip3"
  type: INNER_PRODUCT
  blobs_lr: 1
  blobs_lr: 2
  inner_product_param {
    num_output: 10
    weight_filler {
      type: "xavier"
    }
    bias_filler {
      type: "constant"
    }
  }
}
layers {
  bottom: "ip3"
  bottom: "label"
  top: "accuracy"
  name: "accuracy"
  type: ACCURACY
}
layers {
  bottom: "ip3"
  bottom: "label"
  top: "loss"
  name: "loss"
  type: SOFTMAX_LOSS
}
state {
  phase: TEST
  stage: "test-on-test-set"
}
I0107 21:46:23.054857 1994072832 net.cpp:67] Creating Layer mnist
I0107 21:46:23.054872 1994072832 net.cpp:356] mnist -> data
I0107 21:46:23.054889 1994072832 net.cpp:356] mnist -> label
I0107 21:46:23.054895 1994072832 net.cpp:96] Setting up mnist
I0107 21:46:23.054899 1994072832 data_layer.cpp:45] Opening leveldb 49s8ri_te_ldb
I0107 21:46:23.114296 1994072832 data_layer.cpp:128] output data size: 100,1,1,245
I0107 21:46:23.114341 1994072832 net.cpp:103] Top shape: 100 1 1 245 (24500)
I0107 21:46:23.114357 1994072832 net.cpp:103] Top shape: 100 1 1 1 (100)
I0107 21:46:23.114367 1994072832 net.cpp:67] Creating Layer label_mnist_1_split
I0107 21:46:23.114372 1994072832 net.cpp:394] label_mnist_1_split <- label
I0107 21:46:23.114377 1994072832 net.cpp:356] label_mnist_1_split -> label_mnist_1_split_0
I0107 21:46:23.114385 1994072832 net.cpp:356] label_mnist_1_split -> label_mnist_1_split_1
I0107 21:46:23.114392 1994072832 net.cpp:96] Setting up label_mnist_1_split
I0107 21:46:23.114395 1994072832 net.cpp:103] Top shape: 100 1 1 1 (100)
I0107 21:46:23.114398 1994072832 net.cpp:103] Top shape: 100 1 1 1 (100)
I0107 21:46:23.114405 1994072832 net.cpp:67] Creating Layer ip1
I0107 21:46:23.114408 1994072832 net.cpp:394] ip1 <- data
I0107 21:46:23.114413 1994072832 net.cpp:356] ip1 -> ip1
I0107 21:46:23.114420 1994072832 net.cpp:96] Setting up ip1
I0107 21:46:23.114905 1994072832 net.cpp:103] Top shape: 100 300 1 1 (30000)
I0107 21:46:23.114917 1994072832 net.cpp:67] Creating Layer relu1
I0107 21:46:23.114920 1994072832 net.cpp:394] relu1 <- ip1
I0107 21:46:23.114924 1994072832 net.cpp:345] relu1 -> ip1 (in-place)
I0107 21:46:23.114929 1994072832 net.cpp:96] Setting up relu1
I0107 21:46:23.114933 1994072832 net.cpp:103] Top shape: 100 300 1 1 (30000)
I0107 21:46:23.114948 1994072832 net.cpp:67] Creating Layer ip2
I0107 21:46:23.114951 1994072832 net.cpp:394] ip2 <- ip1
I0107 21:46:23.114955 1994072832 net.cpp:356] ip2 -> ip2
I0107 21:46:23.114960 1994072832 net.cpp:96] Setting up ip2
I0107 21:46:23.115656 1994072832 net.cpp:103] Top shape: 100 300 1 1 (30000)
I0107 21:46:23.115665 1994072832 net.cpp:67] Creating Layer relu2
I0107 21:46:23.115669 1994072832 net.cpp:394] relu2 <- ip2
I0107 21:46:23.115671 1994072832 net.cpp:345] relu2 -> ip2 (in-place)
I0107 21:46:23.115676 1994072832 net.cpp:96] Setting up relu2
I0107 21:46:23.115679 1994072832 net.cpp:103] Top shape: 100 300 1 1 (30000)
I0107 21:46:23.115684 1994072832 net.cpp:67] Creating Layer ip3
I0107 21:46:23.115686 1994072832 net.cpp:394] ip3 <- ip2
I0107 21:46:23.115700 1994072832 net.cpp:356] ip3 -> ip3
I0107 21:46:23.115705 1994072832 net.cpp:96] Setting up ip3
I0107 21:46:23.115737 1994072832 net.cpp:103] Top shape: 100 10 1 1 (1000)
I0107 21:46:23.115756 1994072832 net.cpp:67] Creating Layer ip3_ip3_0_split
I0107 21:46:23.115768 1994072832 net.cpp:394] ip3_ip3_0_split <- ip3
I0107 21:46:23.115772 1994072832 net.cpp:356] ip3_ip3_0_split -> ip3_ip3_0_split_0
I0107 21:46:23.115777 1994072832 net.cpp:356] ip3_ip3_0_split -> ip3_ip3_0_split_1
I0107 21:46:23.115792 1994072832 net.cpp:96] Setting up ip3_ip3_0_split
I0107 21:46:23.115797 1994072832 net.cpp:103] Top shape: 100 10 1 1 (1000)
I0107 21:46:23.115799 1994072832 net.cpp:103] Top shape: 100 10 1 1 (1000)
I0107 21:46:23.115813 1994072832 net.cpp:67] Creating Layer accuracy
I0107 21:46:23.115816 1994072832 net.cpp:394] accuracy <- ip3_ip3_0_split_0
I0107 21:46:23.115820 1994072832 net.cpp:394] accuracy <- label_mnist_1_split_0
I0107 21:46:23.115824 1994072832 net.cpp:356] accuracy -> accuracy
I0107 21:46:23.115829 1994072832 net.cpp:96] Setting up accuracy
I0107 21:46:23.115842 1994072832 net.cpp:103] Top shape: 1 1 1 1 (1)
I0107 21:46:23.115849 1994072832 net.cpp:67] Creating Layer loss
I0107 21:46:23.115852 1994072832 net.cpp:394] loss <- ip3_ip3_0_split_1
I0107 21:46:23.115866 1994072832 net.cpp:394] loss <- label_mnist_1_split_1
I0107 21:46:23.115870 1994072832 net.cpp:356] loss -> loss
I0107 21:46:23.115876 1994072832 net.cpp:96] Setting up loss
I0107 21:46:23.115891 1994072832 net.cpp:103] Top shape: 1 1 1 1 (1)
I0107 21:46:23.115895 1994072832 net.cpp:109]     with loss weight 1
I0107 21:46:23.115902 1994072832 net.cpp:170] loss needs backward computation.
I0107 21:46:23.115906 1994072832 net.cpp:172] accuracy does not need backward computation.
I0107 21:46:23.115908 1994072832 net.cpp:170] ip3_ip3_0_split needs backward computation.
I0107 21:46:23.115911 1994072832 net.cpp:170] ip3 needs backward computation.
…
