…
solver_mode: GPU
random_seed: 1710
net_param {
  name: "LeNet"
  layers {
    top: "data"
    top: "label"
    name: "mnist"
    type: DATA
    data_param {
      source: "49s8rz_tr_ldb"
      batch_size: 480
      backend: LEVELDB
    }
    include {
      phase: TRAIN
    }
    transform_param {
      scale: 0.00390625
    }
  }
  layers {
    top: "data"
    top: "label"
    name: "mnist"
    type: DATA
    data_param {
      source: "49s8rz_te_ldb"
      batch_size: 100
      backend: LEVELDB
    }
    include {
      phase: TEST
    }
    transform_param {
      scale: 0.00390625
    }
  }
  layers {
    bottom: "data"
    top: "ip1"
    name: "ip1"
    type: INNER_PRODUCT
    blobs_lr: 1
    blobs_lr: 2
    inner_product_param {
      num_output: 800
      weight_filler {
        type: "xavier"
      }
      bias_filler {
        type: "constant"
      }
    }
  }
  layers {
    bottom: "ip1"
    top: "ip1"
    name: "relu1"
    type: RELU
  }
  layers {
    bottom: "ip1"
    top: "ip2"
    name: "ip2"
    type: INNER_PRODUCT
    blobs_lr: 1
    blobs_lr: 2
    inner_product_param {
      num_output: 500
      weight_filler {
        type: "xavier"
      }
      bias_filler {
        type: "constant"
      }
    }
  }
  layers {
    bottom: "ip2"
    top: "ip2"
    name: "relu2"
    type: RELU
  }
  layers {
    bottom: "ip2"
    top: "ip3"
    name: "ip3"
    type: INNER_PRODUCT
    blobs_lr: 1
    blobs_lr: 2
    inner_product_param {
      num_output: 10
      weight_filler {
        type: "xavier"
      }
      bias_filler {
        type: "constant"
      }
    }
  }
  layers {
    bottom: "ip3"
    bottom: "label"
    top: "accuracy"
    name: "accuracy"
    type: ACCURACY
  }
  layers {
    bottom: "ip3"
    bottom: "label"
    top: "loss"
    name: "loss"
    type: SOFTMAX_LOSS
  }
}
test_state {
  stage: "test-on-test-set"
}
I0109 18:39:07.672852 1994072832 solver.cpp:63] Creating training net specified in net_param.
I0109 18:39:07.673270 1994072832 net.cpp:275] The NetState phase (0) differed from the phase (1) specified by a rule in layer mnist
I0109 18:39:07.673588 1994072832 net.cpp:39] Initializing net from parameters: 
name: "LeNet"
layers {
  top: "data"
  top: "label"
  name: "mnist"
  type: DATA
  data_param {
    source: "49s8rz_tr_ldb"
    batch_size: 480
    backend: LEVELDB
  }
  include {
    phase: TRAIN
  }
  transform_param {
    scale: 0.00390625
  }
}
layers {
  bottom: "data"
  top: "ip1"
  name: "ip1"
  type: INNER_PRODUCT
  blobs_lr: 1
  blobs_lr: 2
  inner_product_param {
    num_output: 800
    weight_filler {
      type: "xavier"
    }
    bias_filler {
      type: "constant"
    }
  }
}
layers {
  bottom: "ip1"
  top: "ip1"
  name: "relu1"
  type: RELU
}
layers {
  bottom: "ip1"
  top: "ip2"
  name: "ip2"
  type: INNER_PRODUCT
  blobs_lr: 1
  blobs_lr: 2
  inner_product_param {
    num_output: 500
    weight_filler {
      type: "xavier"
    }
    bias_filler {
      type: "constant"
    }
  }
}
layers {
  bottom: "ip2"
  top: "ip2"
  name: "relu2"
  type: RELU
}
layers {
  bottom: "ip2"
  top: "ip3"
  name: "ip3"
  type: INNER_PRODUCT
  blobs_lr: 1
  blobs_lr: 2
  inner_product_param {
    num_output: 10
    weight_filler {
      type: "xavier"
    }
    bias_filler {
      type: "constant"
    }
  }
}
layers {
  bottom: "ip3"
  bottom: "label"
  top: "accuracy"
  name: "accuracy"
  type: ACCURACY
}
layers {
  bottom: "ip3"
  bottom: "label"
  top: "loss"
  name: "loss"
  type: SOFTMAX_LOSS
}
state {
  phase: TRAIN
}
I0109 18:39:07.673848 1994072832 net.cpp:67] Creating Layer mnist
I0109 18:39:07.673859 1994072832 net.cpp:356] mnist -> data
I0109 18:39:07.673877 1994072832 net.cpp:356] mnist -> label
I0109 18:39:07.673885 1994072832 net.cpp:96] Setting up mnist
I0109 18:39:07.673939 1994072832 data_layer.cpp:45] Opening leveldb 49s8rz_tr_ldb
I0109 18:39:07.679616 1994072832 data_layer.cpp:128] output data size: 480,1,1,245
I0109 18:39:07.679774 1994072832 net.cpp:103] Top shape: 480 1 1 245 (117600)
I0109 18:39:07.679787 1994072832 net.cpp:103] Top shape: 480 1 1 1 (480)
I0109 18:39:07.679797 1994072832 net.cpp:67] Creating Layer label_mnist_1_split
I0109 18:39:07.679801 1994072832 net.cpp:394] label_mnist_1_split <- label
I0109 18:39:07.679811 1994072832 net.cpp:356] label_mnist_1_split -> label_mnist_1_split_0
I0109 18:39:07.679821 1994072832 net.cpp:356] label_mnist_1_split -> label_mnist_1_split_1
I0109 18:39:07.679826 1994072832 net.cpp:96] Setting up label_mnist_1_split
I0109 18:39:07.679831 1994072832 net.cpp:103] Top shape: 480 1 1 1 (480)
I0109 18:39:07.679834 1994072832 net.cpp:103] Top shape: 480 1 1 1 (480)
I0109 18:39:07.679841 1994072832 net.cpp:67] Creating Layer ip1
I0109 18:39:07.679843 1994072832 net.cpp:394] ip1 <- data
I0109 18:39:07.679848 1994072832 net.cpp:356] ip1 -> ip1
I0109 18:39:07.679855 1994072832 net.cpp:96] Setting up ip1
I0109 18:39:07.681284 1994072832 net.cpp:103] Top shape: 480 800 1 1 (384000)
I0109 18:39:07.681306 1994072832 net.cpp:67] Creating Layer relu1
I0109 18:39:07.681311 1994072832 net.cpp:394] relu1 <- ip1
I0109 18:39:07.681316 1994072832 net.cpp:345] relu1 -> ip1 (in-place)
I0109 18:39:07.681323 1994072832 net.cpp:96] Setting up relu1
I0109 18:39:07.681325 1994072832 net.cpp:103] Top shape: 480 800 1 1 (384000)
I0109 18:39:07.681332 1994072832 net.cpp:67] Creating Layer ip2
I0109 18:39:07.681336 1994072832 net.cpp:394] ip2 <- ip1
I0109 18:39:07.681345 1994072832 net.cpp:356] ip2 -> ip2
I0109 18:39:07.681351 1994072832 net.cpp:96] Setting up ip2
I0109 18:39:07.684316 1994072832 net.cpp:103] Top shape: 480 500 1 1 (240000)
I0109 18:39:07.684334 1994072832 net.cpp:67] Creating Layer relu2
I0109 18:39:07.684337 1994072832 net.cpp:394] relu2 <- ip2
I0109 18:39:07.684342 1994072832 net.cpp:345] relu2 -> ip2 (in-place)
I0109 18:39:07.684347 1994072832 net.cpp:96] Setting up relu2
I0109 18:39:07.684351 1994072832 net.cpp:103] Top shape: 480 500 1 1 (240000)
I0109 18:39:07.684356 1994072832 net.cpp:67] Creating Layer ip3
I0109 18:39:07.684360 1994072832 net.cpp:394] ip3 <- ip2
I0109 18:39:07.684365 1994072832 net.cpp:356] ip3 -> ip3
I0109 18:39:07.684396 1994072832 net.cpp:96] Setting up ip3
I0109 18:39:07.684459 1994072832 net.cpp:103] Top shape: 480 10 1 1 (4800)
I0109 18:39:07.684476 1994072832 net.cpp:67] Creating Layer ip3_ip3_0_split
I0109 18:39:07.684480 1994072832 net.cpp:394] ip3_ip3_0_split <- ip3
I0109 18:39:07.684486 1994072832 net.cpp:356] ip3_ip3_0_split -> ip3_ip3_0_split_0
I0109 18:39:07.684494 1994072832 net.cpp:356] ip3_ip3_0_split -> ip3_ip3_0_split_1
I0109 18:39:07.684499 1994072832 net.cpp:96] Setting up ip3_ip3_0_split
I0109 18:39:07.684504 1994072832 net.cpp:103] Top shape: 480 10 1 1 (4800)
I0109 18:39:07.684507 1994072832 net.cpp:103] Top shape: 480 10 1 1 (4800)
I0109 18:39:07.684512 1994072832 net.cpp:67] Creating Layer accuracy
I0109 18:39:07.684515 1994072832 net.cpp:394] accuracy <- ip3_ip3_0_split_0
I0109 18:39:07.684520 1994072832 net.cpp:394] accuracy <- label_mnist_1_split_0
I0109 18:39:07.684528 1994072832 net.cpp:356] accuracy -> accuracy
I0109 18:39:07.684535 1994072832 net.cpp:96] Setting up accuracy
I0109 18:39:07.684540 1994072832 net.cpp:103] Top shape: 1 1 1 1 (1)
I0109 18:39:07.684581 1994072832 net.cpp:67] Creating Layer loss
I0109 18:39:07.684587 1994072832 net.cpp:394] loss <- ip3_ip3_0_split_1
I0109 18:39:07.684592 1994072832 net.cpp:394] loss <- label_mnist_1_split_1
I0109 18:39:07.684597 1994072832 net.cpp:356] loss -> loss
I0109 18:39:07.684602 1994072832 net.cpp:96] Setting up loss
I0109 18:39:07.684614 1994072832 net.cpp:103] Top shape: 1 1 1 1 (1)
I0109 18:39:07.684618 1994072832 net.cpp:109]     with loss weight 1
I0109 18:39:07.684630 1994072832 net.cpp:170] loss needs backward computation.
I0109 18:39:07.684634 1994072832 net.cpp:172] accuracy does not need backward computation.
I0109 18:39:07.684662 1994072832 net.cpp:170] ip3_ip3_0_split needs backward computation.
I0109 18:39:07.684666 1994072832 net.cpp:170] ip3 needs backward computation.
…
I0109 18:39:07.684710 1994072832 net.cpp:220] Memory required for data: 5525768
I0109 18:39:07.684769 1994072832 solver.cpp:151] Creating test net (#0) specified by net_param
I0109 18:39:07.684784 1994072832 net.cpp:275] The NetState phase (1) differed from the phase (0) specified by a rule in layer mnist
I0109 18:39:07.684794 1994072832 net.cpp:39] Initializing net from parameters: 
name: "LeNet"
layers {
  top: "data"
  top: "label"
  name: "mnist"
  type: DATA
  data_param {
    source: "49s8rz_te_ldb"
    batch_size: 100
    backend: LEVELDB
  }
  include {
    phase: TEST
  }
  transform_param {
    scale: 0.00390625
  }
}
layers {
  bottom: "data"
  top: "ip1"
  name: "ip1"
  type: INNER_PRODUCT
  blobs_lr: 1
  blobs_lr: 2
  inner_product_param {
    num_output: 800
    weight_filler {
      type: "xavier"
    }
    bias_filler {
      type: "constant"
    }
  }
}
layers {
  bottom: "ip1"
  top: "ip1"
  name: "relu1"
  type: RELU
}
layers {
  bottom: "ip1"
  top: "ip2"
  name: "ip2"
  type: INNER_PRODUCT
  blobs_lr: 1
  blobs_lr: 2
  inner_product_param {
    num_output: 500
    weight_filler {
      type: "xavier"
    }
    bias_filler {
      type: "constant"
    }
  }
}
layers {
  bottom: "ip2"
  top: "ip2"
  name: "relu2"
  type: RELU
}
layers {
  bottom: "ip2"
  top: "ip3"
  name: "ip3"
  type: INNER_PRODUCT
  blobs_lr: 1
  blobs_lr: 2
  inner_product_param {
    num_output: 10
    weight_filler {
      type: "xavier"
    }
    bias_filler {
      type: "constant"
    }
  }
}
layers {
  bottom: "ip3"
  bottom: "label"
  top: "accuracy"
  name: "accuracy"
  type: ACCURACY
}
layers {
  bottom: "ip3"
  bottom: "label"
  top: "loss"
  name: "loss"
  type: SOFTMAX_LOSS
}
state {
  phase: TEST
  stage: "test-on-test-set"
}
I0109 18:39:07.685048 1994072832 net.cpp:67] Creating Layer mnist
I0109 18:39:07.685055 1994072832 net.cpp:356] mnist -> data
I0109 18:39:07.685062 1994072832 net.cpp:356] mnist -> label
I0109 18:39:07.685068 1994072832 net.cpp:96] Setting up mnist
I0109 18:39:07.685072 1994072832 data_layer.cpp:45] Opening leveldb 49s8rz_te_ldb
I0109 18:39:07.689720 1994072832 data_layer.cpp:128] output data size: 100,1,1,245
I0109 18:39:07.689844 1994072832 net.cpp:103] Top shape: 100 1 1 245 (24500)
I0109 18:39:07.689858 1994072832 net.cpp:103] Top shape: 100 1 1 1 (100)
I0109 18:39:07.689870 1994072832 net.cpp:67] Creating Layer label_mnist_1_split
I0109 18:39:07.689875 1994072832 net.cpp:394] label_mnist_1_split <- label
I0109 18:39:07.689880 1994072832 net.cpp:356] label_mnist_1_split -> label_mnist_1_split_0
I0109 18:39:07.689889 1994072832 net.cpp:356] label_mnist_1_split -> label_mnist_1_split_1
I0109 18:39:07.689894 1994072832 net.cpp:96] Setting up label_mnist_1_split
I0109 18:39:07.689899 1994072832 net.cpp:103] Top shape: 100 1 1 1 (100)
I0109 18:39:07.689903 1994072832 net.cpp:103] Top shape: 100 1 1 1 (100)
I0109 18:39:07.689909 1994072832 net.cpp:67] Creating Layer ip1
I0109 18:39:07.689913 1994072832 net.cpp:394] ip1 <- data
I0109 18:39:07.689918 1994072832 net.cpp:356] ip1 -> ip1
I0109 18:39:07.689924 1994072832 net.cpp:96] Setting up ip1
I0109 18:39:07.691560 1994072832 net.cpp:103] Top shape: 100 800 1 1 (80000)
I0109 18:39:07.691588 1994072832 net.cpp:67] Creating Layer relu1
I0109 18:39:07.691593 1994072832 net.cpp:394] relu1 <- ip1
I0109 18:39:07.691598 1994072832 net.cpp:345] relu1 -> ip1 (in-place)
I0109 18:39:07.691604 1994072832 net.cpp:96] Setting up relu1
I0109 18:39:07.691608 1994072832 net.cpp:103] Top shape: 100 800 1 1 (80000)
I0109 18:39:07.691618 1994072832 net.cpp:67] Creating Layer ip2
I0109 18:39:07.691622 1994072832 net.cpp:394] ip2 <- ip1
I0109 18:39:07.691627 1994072832 net.cpp:356] ip2 -> ip2
I0109 18:39:07.691635 1994072832 net.cpp:96] Setting up ip2
I0109 18:39:07.694713 1994072832 net.cpp:103] Top shape: 100 500 1 1 (50000)
I0109 18:39:07.694730 1994072832 net.cpp:67] Creating Layer relu2
I0109 18:39:07.694733 1994072832 net.cpp:394] relu2 <- ip2
I0109 18:39:07.694738 1994072832 net.cpp:345] relu2 -> ip2 (in-place)
I0109 18:39:07.694743 1994072832 net.cpp:96] Setting up relu2
I0109 18:39:07.694747 1994072832 net.cpp:103] Top shape: 100 500 1 1 (50000)
I0109 18:39:07.694753 1994072832 net.cpp:67] Creating Layer ip3
I0109 18:39:07.694757 1994072832 net.cpp:394] ip3 <- ip2
I0109 18:39:07.694766 1994072832 net.cpp:356] ip3 -> ip3
I0109 18:39:07.694772 1994072832 net.cpp:96] Setting up ip3
I0109 18:39:07.694809 1994072832 net.cpp:103] Top shape: 100 10 1 1 (1000)
I0109 18:39:07.694818 1994072832 net.cpp:67] Creating Layer ip3_ip3_0_split
I0109 18:39:07.694821 1994072832 net.cpp:394] ip3_ip3_0_split <- ip3
I0109 18:39:07.694825 1994072832 net.cpp:356] ip3_ip3_0_split -> ip3_ip3_0_split_0
I0109 18:39:07.694831 1994072832 net.cpp:356] ip3_ip3_0_split -> ip3_ip3_0_split_1
I0109 18:39:07.694838 1994072832 net.cpp:96] Setting up ip3_ip3_0_split
I0109 18:39:07.694843 1994072832 net.cpp:103] Top shape: 100 10 1 1 (1000)
I0109 18:39:07.694845 1994072832 net.cpp:103] Top shape: 100 10 1 1 (1000)
I0109 18:39:07.694850 1994072832 net.cpp:67] Creating Layer accuracy
I0109 18:39:07.694854 1994072832 net.cpp:394] accuracy <- ip3_ip3_0_split_0
I0109 18:39:07.694857 1994072832 net.cpp:394] accuracy <- label_mnist_1_split_0
I0109 18:39:07.694865 1994072832 net.cpp:356] accuracy -> accuracy
I0109 18:39:07.694869 1994072832 net.cpp:96] Setting up accuracy
I0109 18:39:07.694874 1994072832 net.cpp:103] Top shape: 1 1 1 1 (1)
I0109 18:39:07.694878 1994072832 net.cpp:67] Creating Layer loss
I0109 18:39:07.694881 1994072832 net.cpp:394] loss <- ip3_ip3_0_split_1
I0109 18:39:07.694885 1994072832 net.cpp:394] loss <- label_mnist_1_split_1
I0109 18:39:07.694890 1994072832 net.cpp:356] loss -> loss
I0109 18:39:07.694895 1994072832 net.cpp:96] Setting up loss
I0109 18:39:07.694900 1994072832 net.cpp:103] Top shape: 1 1 1 1 (1)
I0109 18:39:07.694903 1994072832 net.cpp:109]     with loss weight 1
I0109 18:39:07.694911 1994072832 net.cpp:170] loss needs backward computation.
I0109 18:39:07.694914 1994072832 net.cpp:172] accuracy does not need backward computation.
I0109 18:39:07.694918 1994072832 net.cpp:170] ip3_ip3_0_split needs backward computation.
I0109 18:39:07.694921 1994072832 net.cpp:170] ip3 needs backward computation.
…
