…
solver_mode: GPU
random_seed: 1710
net_param {
  name: "LeNet"
  layers {
    top: "data"
    top: "label"
    name: "mnist"
    type: DATA
    data_param {
      source: "49s8rzj_tr_ldb"
      batch_size: 480
      backend: LEVELDB
    }
    include {
      phase: TRAIN
    }
    transform_param {
      scale: 0.00390625
    }
  }
  layers {
    top: "data"
    top: "label"
    name: "mnist"
    type: DATA
    data_param {
      source: "49s8rzj_te_ldb"
      batch_size: 100
      backend: LEVELDB
    }
    include {
      phase: TEST
    }
    transform_param {
      scale: 0.00390625
    }
  }
  layers {
    bottom: "data"
    top: "ip1"
    name: "ip1"
    type: INNER_PRODUCT
    blobs_lr: 1
    blobs_lr: 2
    inner_product_param {
      num_output: 800
      weight_filler {
        type: "xavier"
      }
      bias_filler {
        type: "constant"
      }
    }
  }
  layers {
    bottom: "ip1"
    top: "ip1"
    name: "relu1"
    type: RELU
  }
  layers {
    bottom: "ip1"
    top: "ip2"
    name: "ip2"
    type: INNER_PRODUCT
    blobs_lr: 1
    blobs_lr: 2
    inner_product_param {
      num_output: 500
      weight_filler {
        type: "xavier"
      }
      bias_filler {
        type: "constant"
      }
    }
  }
  layers {
    bottom: "ip2"
    top: "ip2"
    name: "relu2"
    type: RELU
  }
  layers {
    bottom: "ip2"
    top: "ip3"
    name: "ip3"
    type: INNER_PRODUCT
    blobs_lr: 1
    blobs_lr: 2
    inner_product_param {
      num_output: 10
      weight_filler {
        type: "xavier"
      }
      bias_filler {
        type: "constant"
      }
    }
  }
  layers {
    bottom: "ip3"
    bottom: "label"
    top: "accuracy"
    name: "accuracy"
    type: ACCURACY
  }
  layers {
    bottom: "ip3"
    bottom: "label"
    top: "loss"
    name: "loss"
    type: SOFTMAX_LOSS
  }
}
test_state {
  stage: "test-on-test-set"
}
I0110 12:12:44.630735 1994072832 solver.cpp:63] Creating training net specified in net_param.
I0110 12:12:44.630787 1994072832 net.cpp:275] The NetState phase (0) differed from the phase (1) specified by a rule in layer mnist
I0110 12:12:44.630800 1994072832 net.cpp:39] Initializing net from parameters: 
name: "LeNet"
layers {
  top: "data"
  top: "label"
  name: "mnist"
  type: DATA
  data_param {
    source: "49s8rzj_tr_ldb"
    batch_size: 480
    backend: LEVELDB
  }
  include {
    phase: TRAIN
  }
  transform_param {
    scale: 0.00390625
  }
}
layers {
  bottom: "data"
  top: "ip1"
  name: "ip1"
  type: INNER_PRODUCT
  blobs_lr: 1
  blobs_lr: 2
  inner_product_param {
    num_output: 800
    weight_filler {
      type: "xavier"
    }
    bias_filler {
      type: "constant"
    }
  }
}
layers {
  bottom: "ip1"
  top: "ip1"
  name: "relu1"
  type: RELU
}
layers {
  bottom: "ip1"
  top: "ip2"
  name: "ip2"
  type: INNER_PRODUCT
  blobs_lr: 1
  blobs_lr: 2
  inner_product_param {
    num_output: 500
    weight_filler {
      type: "xavier"
    }
    bias_filler {
      type: "constant"
    }
  }
}
layers {
  bottom: "ip2"
  top: "ip2"
  name: "relu2"
  type: RELU
}
layers {
  bottom: "ip2"
  top: "ip3"
  name: "ip3"
  type: INNER_PRODUCT
  blobs_lr: 1
  blobs_lr: 2
  inner_product_param {
    num_output: 10
    weight_filler {
      type: "xavier"
    }
    bias_filler {
      type: "constant"
    }
  }
}
layers {
  bottom: "ip3"
  bottom: "label"
  top: "accuracy"
  name: "accuracy"
  type: ACCURACY
}
layers {
  bottom: "ip3"
  bottom: "label"
  top: "loss"
  name: "loss"
  type: SOFTMAX_LOSS
}
state {
  phase: TRAIN
}
I0110 12:12:44.631084 1994072832 net.cpp:67] Creating Layer mnist
I0110 12:12:44.631098 1994072832 net.cpp:356] mnist -> data
I0110 12:12:44.631117 1994072832 net.cpp:356] mnist -> label
I0110 12:12:44.631125 1994072832 net.cpp:96] Setting up mnist
I0110 12:12:44.631181 1994072832 data_layer.cpp:45] Opening leveldb 49s8rzj_tr_ldb
I0110 12:12:44.667768 1994072832 data_layer.cpp:128] output data size: 480,1,1,245
I0110 12:12:44.667865 1994072832 net.cpp:103] Top shape: 480 1 1 245 (117600)
I0110 12:12:44.667883 1994072832 net.cpp:103] Top shape: 480 1 1 1 (480)
I0110 12:12:44.667896 1994072832 net.cpp:67] Creating Layer label_mnist_1_split
I0110 12:12:44.667899 1994072832 net.cpp:394] label_mnist_1_split <- label
I0110 12:12:44.667907 1994072832 net.cpp:356] label_mnist_1_split -> label_mnist_1_split_0
I0110 12:12:44.667917 1994072832 net.cpp:356] label_mnist_1_split -> label_mnist_1_split_1
I0110 12:12:44.667922 1994072832 net.cpp:96] Setting up label_mnist_1_split
I0110 12:12:44.667927 1994072832 net.cpp:103] Top shape: 480 1 1 1 (480)
I0110 12:12:44.667932 1994072832 net.cpp:103] Top shape: 480 1 1 1 (480)
I0110 12:12:44.667937 1994072832 net.cpp:67] Creating Layer ip1
I0110 12:12:44.667940 1994072832 net.cpp:394] ip1 <- data
I0110 12:12:44.667945 1994072832 net.cpp:356] ip1 -> ip1
I0110 12:12:44.667951 1994072832 net.cpp:96] Setting up ip1
I0110 12:12:44.669082 1994072832 net.cpp:103] Top shape: 480 800 1 1 (384000)
I0110 12:12:44.669100 1994072832 net.cpp:67] Creating Layer relu1
I0110 12:12:44.669103 1994072832 net.cpp:394] relu1 <- ip1
I0110 12:12:44.669108 1994072832 net.cpp:345] relu1 -> ip1 (in-place)
I0110 12:12:44.669112 1994072832 net.cpp:96] Setting up relu1
I0110 12:12:44.669116 1994072832 net.cpp:103] Top shape: 480 800 1 1 (384000)
I0110 12:12:44.669122 1994072832 net.cpp:67] Creating Layer ip2
I0110 12:12:44.669126 1994072832 net.cpp:394] ip2 <- ip1
I0110 12:12:44.669129 1994072832 net.cpp:356] ip2 -> ip2
I0110 12:12:44.669134 1994072832 net.cpp:96] Setting up ip2
I0110 12:12:44.672081 1994072832 net.cpp:103] Top shape: 480 500 1 1 (240000)
I0110 12:12:44.672111 1994072832 net.cpp:67] Creating Layer relu2
I0110 12:12:44.672116 1994072832 net.cpp:394] relu2 <- ip2
I0110 12:12:44.672122 1994072832 net.cpp:345] relu2 -> ip2 (in-place)
I0110 12:12:44.672127 1994072832 net.cpp:96] Setting up relu2
I0110 12:12:44.672130 1994072832 net.cpp:103] Top shape: 480 500 1 1 (240000)
I0110 12:12:44.672137 1994072832 net.cpp:67] Creating Layer ip3
I0110 12:12:44.672139 1994072832 net.cpp:394] ip3 <- ip2
I0110 12:12:44.672143 1994072832 net.cpp:356] ip3 -> ip3
I0110 12:12:44.672149 1994072832 net.cpp:96] Setting up ip3
I0110 12:12:44.672186 1994072832 net.cpp:103] Top shape: 480 10 1 1 (4800)
I0110 12:12:44.672194 1994072832 net.cpp:67] Creating Layer ip3_ip3_0_split
I0110 12:12:44.672196 1994072832 net.cpp:394] ip3_ip3_0_split <- ip3
I0110 12:12:44.672200 1994072832 net.cpp:356] ip3_ip3_0_split -> ip3_ip3_0_split_0
I0110 12:12:44.672205 1994072832 net.cpp:356] ip3_ip3_0_split -> ip3_ip3_0_split_1
I0110 12:12:44.672210 1994072832 net.cpp:96] Setting up ip3_ip3_0_split
I0110 12:12:44.672214 1994072832 net.cpp:103] Top shape: 480 10 1 1 (4800)
I0110 12:12:44.672217 1994072832 net.cpp:103] Top shape: 480 10 1 1 (4800)
I0110 12:12:44.672222 1994072832 net.cpp:67] Creating Layer accuracy
I0110 12:12:44.672225 1994072832 net.cpp:394] accuracy <- ip3_ip3_0_split_0
I0110 12:12:44.672229 1994072832 net.cpp:394] accuracy <- label_mnist_1_split_0
I0110 12:12:44.672233 1994072832 net.cpp:356] accuracy -> accuracy
I0110 12:12:44.672237 1994072832 net.cpp:96] Setting up accuracy
I0110 12:12:44.672240 1994072832 net.cpp:103] Top shape: 1 1 1 1 (1)
I0110 12:12:44.672250 1994072832 net.cpp:67] Creating Layer loss
I0110 12:12:44.672253 1994072832 net.cpp:394] loss <- ip3_ip3_0_split_1
I0110 12:12:44.672257 1994072832 net.cpp:394] loss <- label_mnist_1_split_1
I0110 12:12:44.672261 1994072832 net.cpp:356] loss -> loss
I0110 12:12:44.672266 1994072832 net.cpp:96] Setting up loss
I0110 12:12:44.672277 1994072832 net.cpp:103] Top shape: 1 1 1 1 (1)
I0110 12:12:44.672281 1994072832 net.cpp:109]     with loss weight 1
I0110 12:12:44.672291 1994072832 net.cpp:170] loss needs backward computation.
I0110 12:12:44.672293 1994072832 net.cpp:172] accuracy does not need backward computation.
I0110 12:12:44.672327 1994072832 net.cpp:170] ip3_ip3_0_split needs backward computation.
I0110 12:12:44.672329 1994072832 net.cpp:170] ip3 needs backward computation.
…
I0110 12:12:44.672374 1994072832 net.cpp:220] Memory required for data: 5525768
I0110 12:12:44.672451 1994072832 solver.cpp:151] Creating test net (#0) specified by net_param
I0110 12:12:44.672472 1994072832 net.cpp:275] The NetState phase (1) differed from the phase (0) specified by a rule in layer mnist
I0110 12:12:44.672483 1994072832 net.cpp:39] Initializing net from parameters: 
name: "LeNet"
layers {
  top: "data"
  top: "label"
  name: "mnist"
  type: DATA
  data_param {
    source: "49s8rzj_te_ldb"
    batch_size: 100
    backend: LEVELDB
  }
  include {
    phase: TEST
  }
  transform_param {
    scale: 0.00390625
  }
}
layers {
  bottom: "data"
  top: "ip1"
  name: "ip1"
  type: INNER_PRODUCT
  blobs_lr: 1
  blobs_lr: 2
  inner_product_param {
    num_output: 800
    weight_filler {
      type: "xavier"
    }
    bias_filler {
      type: "constant"
    }
  }
}
layers {
  bottom: "ip1"
  top: "ip1"
  name: "relu1"
  type: RELU
}
layers {
  bottom: "ip1"
  top: "ip2"
  name: "ip2"
  type: INNER_PRODUCT
  blobs_lr: 1
  blobs_lr: 2
  inner_product_param {
    num_output: 500
    weight_filler {
      type: "xavier"
    }
    bias_filler {
      type: "constant"
    }
  }
}
layers {
  bottom: "ip2"
  top: "ip2"
  name: "relu2"
  type: RELU
}
layers {
  bottom: "ip2"
  top: "ip3"
  name: "ip3"
  type: INNER_PRODUCT
  blobs_lr: 1
  blobs_lr: 2
  inner_product_param {
    num_output: 10
    weight_filler {
      type: "xavier"
    }
    bias_filler {
      type: "constant"
    }
  }
}
layers {
  bottom: "ip3"
  bottom: "label"
  top: "accuracy"
  name: "accuracy"
  type: ACCURACY
}
layers {
  bottom: "ip3"
  bottom: "label"
  top: "loss"
  name: "loss"
  type: SOFTMAX_LOSS
}
state {
  phase: TEST
  stage: "test-on-test-set"
}
I0110 12:12:44.672834 1994072832 net.cpp:67] Creating Layer mnist
I0110 12:12:44.672847 1994072832 net.cpp:356] mnist -> data
I0110 12:12:44.672854 1994072832 net.cpp:356] mnist -> label
I0110 12:12:44.672860 1994072832 net.cpp:96] Setting up mnist
I0110 12:12:44.672864 1994072832 data_layer.cpp:45] Opening leveldb 49s8rzj_te_ldb
I0110 12:12:44.738615 1994072832 data_layer.cpp:128] output data size: 100,1,1,245
I0110 12:12:44.738665 1994072832 net.cpp:103] Top shape: 100 1 1 245 (24500)
I0110 12:12:44.738685 1994072832 net.cpp:103] Top shape: 100 1 1 1 (100)
I0110 12:12:44.738705 1994072832 net.cpp:67] Creating Layer label_mnist_1_split
I0110 12:12:44.738715 1994072832 net.cpp:394] label_mnist_1_split <- label
I0110 12:12:44.738744 1994072832 net.cpp:356] label_mnist_1_split -> label_mnist_1_split_0
I0110 12:12:44.738765 1994072832 net.cpp:356] label_mnist_1_split -> label_mnist_1_split_1
I0110 12:12:44.738776 1994072832 net.cpp:96] Setting up label_mnist_1_split
I0110 12:12:44.738786 1994072832 net.cpp:103] Top shape: 100 1 1 1 (100)
I0110 12:12:44.738795 1994072832 net.cpp:103] Top shape: 100 1 1 1 (100)
I0110 12:12:44.738840 1994072832 net.cpp:67] Creating Layer ip1
I0110 12:12:44.738858 1994072832 net.cpp:394] ip1 <- data
I0110 12:12:44.738864 1994072832 net.cpp:356] ip1 -> ip1
I0110 12:12:44.738901 1994072832 net.cpp:96] Setting up ip1
I0110 12:12:44.740417 1994072832 net.cpp:103] Top shape: 100 800 1 1 (80000)
I0110 12:12:44.740450 1994072832 net.cpp:67] Creating Layer relu1
I0110 12:12:44.740454 1994072832 net.cpp:394] relu1 <- ip1
I0110 12:12:44.740463 1994072832 net.cpp:345] relu1 -> ip1 (in-place)
I0110 12:12:44.740469 1994072832 net.cpp:96] Setting up relu1
I0110 12:12:44.740473 1994072832 net.cpp:103] Top shape: 100 800 1 1 (80000)
I0110 12:12:44.740480 1994072832 net.cpp:67] Creating Layer ip2
I0110 12:12:44.740496 1994072832 net.cpp:394] ip2 <- ip1
I0110 12:12:44.740512 1994072832 net.cpp:356] ip2 -> ip2
I0110 12:12:44.740521 1994072832 net.cpp:96] Setting up ip2
I0110 12:12:44.743506 1994072832 net.cpp:103] Top shape: 100 500 1 1 (50000)
I0110 12:12:44.743525 1994072832 net.cpp:67] Creating Layer relu2
I0110 12:12:44.743528 1994072832 net.cpp:394] relu2 <- ip2
I0110 12:12:44.743535 1994072832 net.cpp:345] relu2 -> ip2 (in-place)
I0110 12:12:44.743540 1994072832 net.cpp:96] Setting up relu2
I0110 12:12:44.743556 1994072832 net.cpp:103] Top shape: 100 500 1 1 (50000)
I0110 12:12:44.743571 1994072832 net.cpp:67] Creating Layer ip3
I0110 12:12:44.743574 1994072832 net.cpp:394] ip3 <- ip2
I0110 12:12:44.743593 1994072832 net.cpp:356] ip3 -> ip3
I0110 12:12:44.743602 1994072832 net.cpp:96] Setting up ip3
I0110 12:12:44.743645 1994072832 net.cpp:103] Top shape: 100 10 1 1 (1000)
I0110 12:12:44.743657 1994072832 net.cpp:67] Creating Layer ip3_ip3_0_split
I0110 12:12:44.743660 1994072832 net.cpp:394] ip3_ip3_0_split <- ip3
I0110 12:12:44.743665 1994072832 net.cpp:356] ip3_ip3_0_split -> ip3_ip3_0_split_0
I0110 12:12:44.743671 1994072832 net.cpp:356] ip3_ip3_0_split -> ip3_ip3_0_split_1
I0110 12:12:44.743679 1994072832 net.cpp:96] Setting up ip3_ip3_0_split
I0110 12:12:44.743684 1994072832 net.cpp:103] Top shape: 100 10 1 1 (1000)
I0110 12:12:44.743702 1994072832 net.cpp:103] Top shape: 100 10 1 1 (1000)
I0110 12:12:44.743712 1994072832 net.cpp:67] Creating Layer accuracy
I0110 12:12:44.743716 1994072832 net.cpp:394] accuracy <- ip3_ip3_0_split_0
I0110 12:12:44.743721 1994072832 net.cpp:394] accuracy <- label_mnist_1_split_0
I0110 12:12:44.743727 1994072832 net.cpp:356] accuracy -> accuracy
I0110 12:12:44.743733 1994072832 net.cpp:96] Setting up accuracy
I0110 12:12:44.743737 1994072832 net.cpp:103] Top shape: 1 1 1 1 (1)
I0110 12:12:44.743748 1994072832 net.cpp:67] Creating Layer loss
I0110 12:12:44.743753 1994072832 net.cpp:394] loss <- ip3_ip3_0_split_1
I0110 12:12:44.743757 1994072832 net.cpp:394] loss <- label_mnist_1_split_1
I0110 12:12:44.743762 1994072832 net.cpp:356] loss -> loss
I0110 12:12:44.743768 1994072832 net.cpp:96] Setting up loss
I0110 12:12:44.743774 1994072832 net.cpp:103] Top shape: 1 1 1 1 (1)
I0110 12:12:44.743777 1994072832 net.cpp:109]     with loss weight 1
I0110 12:12:44.743787 1994072832 net.cpp:170] loss needs backward computation.
I0110 12:12:44.743790 1994072832 net.cpp:172] accuracy does not need backward computation.
I0110 12:12:44.743793 1994072832 net.cpp:170] ip3_ip3_0_split needs backward computation.
I0110 12:12:44.743796 1994072832 net.cpp:170] ip3 needs backward computation.
…
