…
solver_mode: GPU
random_seed: 1710
net_param {
  name: "LeNet"
  layers {
    top: "data"
    top: "label"
    name: "mnist"
    type: DATA
    data_param {
      source: "49s8rc_tr_ldb"
      batch_size: 480
      backend: LEVELDB
    }
    include {
      phase: TRAIN
    }
    transform_param {
      scale: 0.00390625
    }
  }
  layers {
    top: "data"
    top: "label"
    name: "mnist"
    type: DATA
    data_param {
      source: "49s8rc_te_ldb"
      batch_size: 100
      backend: LEVELDB
    }
    include {
      phase: TEST
    }
    transform_param {
      scale: 0.00390625
    }
  }
  layers {
    bottom: "data"
    top: "ip1"
    name: "ip1"
    type: INNER_PRODUCT
    blobs_lr: 1
    blobs_lr: 2
    inner_product_param {
      num_output: 300
      weight_filler {
        type: "xavier"
      }
      bias_filler {
        type: "constant"
      }
    }
  }
  layers {
    bottom: "ip1"
    top: "ip1"
    name: "relu1"
    type: RELU
  }
  layers {
    bottom: "ip1"
    top: "ip2"
    name: "ip2"
    type: INNER_PRODUCT
    blobs_lr: 1
    blobs_lr: 2
    inner_product_param {
      num_output: 300
      weight_filler {
        type: "xavier"
      }
      bias_filler {
        type: "constant"
      }
    }
  }
  layers {
    bottom: "ip2"
    top: "ip2"
    name: "relu2"
    type: RELU
  }
  layers {
    bottom: "ip2"
    top: "ip3"
    name: "ip3"
    type: INNER_PRODUCT
    blobs_lr: 1
    blobs_lr: 2
    inner_product_param {
      num_output: 10
      weight_filler {
        type: "xavier"
      }
      bias_filler {
        type: "constant"
      }
    }
  }
  layers {
    bottom: "ip3"
    bottom: "label"
    top: "accuracy"
    name: "accuracy"
    type: ACCURACY
  }
  layers {
    bottom: "ip3"
    bottom: "label"
    top: "loss"
    name: "loss"
    type: SOFTMAX_LOSS
  }
}
test_state {
  stage: "test-on-test-set"
}
I0107 10:40:41.966133 1994072832 solver.cpp:63] Creating training net specified in net_param.
I0107 10:40:41.966598 1994072832 net.cpp:275] The NetState phase (0) differed from the phase (1) specified by a rule in layer mnist
I0107 10:40:41.966930 1994072832 net.cpp:39] Initializing net from parameters: 
name: "LeNet"
layers {
  top: "data"
  top: "label"
  name: "mnist"
  type: DATA
  data_param {
    source: "49s8rc_tr_ldb"
    batch_size: 480
    backend: LEVELDB
  }
  include {
    phase: TRAIN
  }
  transform_param {
    scale: 0.00390625
  }
}
layers {
  bottom: "data"
  top: "ip1"
  name: "ip1"
  type: INNER_PRODUCT
  blobs_lr: 1
  blobs_lr: 2
  inner_product_param {
    num_output: 300
    weight_filler {
      type: "xavier"
    }
    bias_filler {
      type: "constant"
    }
  }
}
layers {
  bottom: "ip1"
  top: "ip1"
  name: "relu1"
  type: RELU
}
layers {
  bottom: "ip1"
  top: "ip2"
  name: "ip2"
  type: INNER_PRODUCT
  blobs_lr: 1
  blobs_lr: 2
  inner_product_param {
    num_output: 300
    weight_filler {
      type: "xavier"
    }
    bias_filler {
      type: "constant"
    }
  }
}
layers {
  bottom: "ip2"
  top: "ip2"
  name: "relu2"
  type: RELU
}
layers {
  bottom: "ip2"
  top: "ip3"
  name: "ip3"
  type: INNER_PRODUCT
  blobs_lr: 1
  blobs_lr: 2
  inner_product_param {
    num_output: 10
    weight_filler {
      type: "xavier"
    }
    bias_filler {
      type: "constant"
    }
  }
}
layers {
  bottom: "ip3"
  bottom: "label"
  top: "accuracy"
  name: "accuracy"
  type: ACCURACY
}
layers {
  bottom: "ip3"
  bottom: "label"
  top: "loss"
  name: "loss"
  type: SOFTMAX_LOSS
}
state {
  phase: TRAIN
}
I0107 10:40:41.967217 1994072832 net.cpp:67] Creating Layer mnist
I0107 10:40:41.967227 1994072832 net.cpp:356] mnist -> data
I0107 10:40:41.967245 1994072832 net.cpp:356] mnist -> label
I0107 10:40:41.967254 1994072832 net.cpp:96] Setting up mnist
I0107 10:40:41.967303 1994072832 data_layer.cpp:45] Opening leveldb 49s8rc_tr_ldb
I0107 10:40:42.026623 1994072832 data_layer.cpp:128] output data size: 480,1,1,98
I0107 10:40:42.026726 1994072832 net.cpp:103] Top shape: 480 1 1 98 (47040)
I0107 10:40:42.026736 1994072832 net.cpp:103] Top shape: 480 1 1 1 (480)
I0107 10:40:42.026746 1994072832 net.cpp:67] Creating Layer label_mnist_1_split
I0107 10:40:42.026751 1994072832 net.cpp:394] label_mnist_1_split <- label
I0107 10:40:42.026760 1994072832 net.cpp:356] label_mnist_1_split -> label_mnist_1_split_0
I0107 10:40:42.026769 1994072832 net.cpp:356] label_mnist_1_split -> label_mnist_1_split_1
I0107 10:40:42.026775 1994072832 net.cpp:96] Setting up label_mnist_1_split
I0107 10:40:42.026780 1994072832 net.cpp:103] Top shape: 480 1 1 1 (480)
I0107 10:40:42.026784 1994072832 net.cpp:103] Top shape: 480 1 1 1 (480)
I0107 10:40:42.026795 1994072832 net.cpp:67] Creating Layer ip1
I0107 10:40:42.026799 1994072832 net.cpp:394] ip1 <- data
I0107 10:40:42.026804 1994072832 net.cpp:356] ip1 -> ip1
I0107 10:40:42.026811 1994072832 net.cpp:96] Setting up ip1
I0107 10:40:42.027279 1994072832 net.cpp:103] Top shape: 480 300 1 1 (144000)
I0107 10:40:42.027298 1994072832 net.cpp:67] Creating Layer relu1
I0107 10:40:42.027303 1994072832 net.cpp:394] relu1 <- ip1
I0107 10:40:42.027308 1994072832 net.cpp:345] relu1 -> ip1 (in-place)
I0107 10:40:42.027313 1994072832 net.cpp:96] Setting up relu1
I0107 10:40:42.027318 1994072832 net.cpp:103] Top shape: 480 300 1 1 (144000)
I0107 10:40:42.027323 1994072832 net.cpp:67] Creating Layer ip2
I0107 10:40:42.027326 1994072832 net.cpp:394] ip2 <- ip1
I0107 10:40:42.027335 1994072832 net.cpp:356] ip2 -> ip2
I0107 10:40:42.027341 1994072832 net.cpp:96] Setting up ip2
I0107 10:40:42.027858 1994072832 net.cpp:103] Top shape: 480 300 1 1 (144000)
I0107 10:40:42.027869 1994072832 net.cpp:67] Creating Layer relu2
I0107 10:40:42.027873 1994072832 net.cpp:394] relu2 <- ip2
I0107 10:40:42.027876 1994072832 net.cpp:345] relu2 -> ip2 (in-place)
I0107 10:40:42.027880 1994072832 net.cpp:96] Setting up relu2
I0107 10:40:42.027884 1994072832 net.cpp:103] Top shape: 480 300 1 1 (144000)
I0107 10:40:42.027887 1994072832 net.cpp:67] Creating Layer ip3
I0107 10:40:42.027890 1994072832 net.cpp:394] ip3 <- ip2
I0107 10:40:42.027895 1994072832 net.cpp:356] ip3 -> ip3
I0107 10:40:42.027899 1994072832 net.cpp:96] Setting up ip3
I0107 10:40:42.027923 1994072832 net.cpp:103] Top shape: 480 10 1 1 (4800)
I0107 10:40:42.027930 1994072832 net.cpp:67] Creating Layer ip3_ip3_0_split
I0107 10:40:42.027932 1994072832 net.cpp:394] ip3_ip3_0_split <- ip3
I0107 10:40:42.027940 1994072832 net.cpp:356] ip3_ip3_0_split -> ip3_ip3_0_split_0
I0107 10:40:42.027945 1994072832 net.cpp:356] ip3_ip3_0_split -> ip3_ip3_0_split_1
I0107 10:40:42.027951 1994072832 net.cpp:96] Setting up ip3_ip3_0_split
I0107 10:40:42.027954 1994072832 net.cpp:103] Top shape: 480 10 1 1 (4800)
I0107 10:40:42.027957 1994072832 net.cpp:103] Top shape: 480 10 1 1 (4800)
I0107 10:40:42.027961 1994072832 net.cpp:67] Creating Layer accuracy
I0107 10:40:42.027964 1994072832 net.cpp:394] accuracy <- ip3_ip3_0_split_0
I0107 10:40:42.027968 1994072832 net.cpp:394] accuracy <- label_mnist_1_split_0
I0107 10:40:42.027972 1994072832 net.cpp:356] accuracy -> accuracy
I0107 10:40:42.027976 1994072832 net.cpp:96] Setting up accuracy
I0107 10:40:42.027979 1994072832 net.cpp:103] Top shape: 1 1 1 1 (1)
I0107 10:40:42.027987 1994072832 net.cpp:67] Creating Layer loss
I0107 10:40:42.027990 1994072832 net.cpp:394] loss <- ip3_ip3_0_split_1
I0107 10:40:42.027995 1994072832 net.cpp:394] loss <- label_mnist_1_split_1
I0107 10:40:42.027999 1994072832 net.cpp:356] loss -> loss
I0107 10:40:42.028004 1994072832 net.cpp:96] Setting up loss
I0107 10:40:42.028014 1994072832 net.cpp:103] Top shape: 1 1 1 1 (1)
I0107 10:40:42.028017 1994072832 net.cpp:109]     with loss weight 1
I0107 10:40:42.028026 1994072832 net.cpp:170] loss needs backward computation.
I0107 10:40:42.028029 1994072832 net.cpp:172] accuracy does not need backward computation.
I0107 10:40:42.028049 1994072832 net.cpp:170] ip3_ip3_0_split needs backward computation.
I0107 10:40:42.028053 1994072832 net.cpp:170] ip3 needs backward computation.
…
I0107 10:40:42.028090 1994072832 net.cpp:220] Memory required for data: 2555528
I0107 10:40:42.028146 1994072832 solver.cpp:151] Creating test net (#0) specified by net_param
I0107 10:40:42.028163 1994072832 net.cpp:275] The NetState phase (1) differed from the phase (0) specified by a rule in layer mnist
I0107 10:40:42.028173 1994072832 net.cpp:39] Initializing net from parameters: 
name: "LeNet"
layers {
  top: "data"
  top: "label"
  name: "mnist"
  type: DATA
  data_param {
    source: "49s8rc_te_ldb"
    batch_size: 100
    backend: LEVELDB
  }
  include {
    phase: TEST
  }
  transform_param {
    scale: 0.00390625
  }
}
layers {
  bottom: "data"
  top: "ip1"
  name: "ip1"
  type: INNER_PRODUCT
  blobs_lr: 1
  blobs_lr: 2
  inner_product_param {
    num_output: 300
    weight_filler {
      type: "xavier"
    }
    bias_filler {
      type: "constant"
    }
  }
}
layers {
  bottom: "ip1"
  top: "ip1"
  name: "relu1"
  type: RELU
}
layers {
  bottom: "ip1"
  top: "ip2"
  name: "ip2"
  type: INNER_PRODUCT
  blobs_lr: 1
  blobs_lr: 2
  inner_product_param {
    num_output: 300
    weight_filler {
      type: "xavier"
    }
    bias_filler {
      type: "constant"
    }
  }
}
layers {
  bottom: "ip2"
  top: "ip2"
  name: "relu2"
  type: RELU
}
layers {
  bottom: "ip2"
  top: "ip3"
  name: "ip3"
  type: INNER_PRODUCT
  blobs_lr: 1
  blobs_lr: 2
  inner_product_param {
    num_output: 10
    weight_filler {
      type: "xavier"
    }
    bias_filler {
      type: "constant"
    }
  }
}
layers {
  bottom: "ip3"
  bottom: "label"
  top: "accuracy"
  name: "accuracy"
  type: ACCURACY
}
layers {
  bottom: "ip3"
  bottom: "label"
  top: "loss"
  name: "loss"
  type: SOFTMAX_LOSS
}
state {
  phase: TEST
  stage: "test-on-test-set"
}
I0107 10:40:42.028398 1994072832 net.cpp:67] Creating Layer mnist
I0107 10:40:42.028403 1994072832 net.cpp:356] mnist -> data
I0107 10:40:42.028410 1994072832 net.cpp:356] mnist -> label
I0107 10:40:42.028416 1994072832 net.cpp:96] Setting up mnist
I0107 10:40:42.028419 1994072832 data_layer.cpp:45] Opening leveldb 49s8rc_te_ldb
I0107 10:40:42.106119 1994072832 data_layer.cpp:128] output data size: 100,1,1,98
I0107 10:40:42.106191 1994072832 net.cpp:103] Top shape: 100 1 1 98 (9800)
I0107 10:40:42.106199 1994072832 net.cpp:103] Top shape: 100 1 1 1 (100)
I0107 10:40:42.106210 1994072832 net.cpp:67] Creating Layer label_mnist_1_split
I0107 10:40:42.106215 1994072832 net.cpp:394] label_mnist_1_split <- label
I0107 10:40:42.106221 1994072832 net.cpp:356] label_mnist_1_split -> label_mnist_1_split_0
I0107 10:40:42.106230 1994072832 net.cpp:356] label_mnist_1_split -> label_mnist_1_split_1
I0107 10:40:42.106235 1994072832 net.cpp:96] Setting up label_mnist_1_split
I0107 10:40:42.106240 1994072832 net.cpp:103] Top shape: 100 1 1 1 (100)
I0107 10:40:42.106242 1994072832 net.cpp:103] Top shape: 100 1 1 1 (100)
I0107 10:40:42.106250 1994072832 net.cpp:67] Creating Layer ip1
I0107 10:40:42.106252 1994072832 net.cpp:394] ip1 <- data
I0107 10:40:42.106258 1994072832 net.cpp:356] ip1 -> ip1
I0107 10:40:42.106264 1994072832 net.cpp:96] Setting up ip1
I0107 10:40:42.106500 1994072832 net.cpp:103] Top shape: 100 300 1 1 (30000)
I0107 10:40:42.106534 1994072832 net.cpp:67] Creating Layer relu1
I0107 10:40:42.106539 1994072832 net.cpp:394] relu1 <- ip1
I0107 10:40:42.106544 1994072832 net.cpp:345] relu1 -> ip1 (in-place)
I0107 10:40:42.106549 1994072832 net.cpp:96] Setting up relu1
I0107 10:40:42.106552 1994072832 net.cpp:103] Top shape: 100 300 1 1 (30000)
I0107 10:40:42.106559 1994072832 net.cpp:67] Creating Layer ip2
I0107 10:40:42.106564 1994072832 net.cpp:394] ip2 <- ip1
I0107 10:40:42.106569 1994072832 net.cpp:356] ip2 -> ip2
I0107 10:40:42.106575 1994072832 net.cpp:96] Setting up ip2
I0107 10:40:42.107205 1994072832 net.cpp:103] Top shape: 100 300 1 1 (30000)
I0107 10:40:42.107225 1994072832 net.cpp:67] Creating Layer relu2
I0107 10:40:42.107228 1994072832 net.cpp:394] relu2 <- ip2
I0107 10:40:42.107235 1994072832 net.cpp:345] relu2 -> ip2 (in-place)
I0107 10:40:42.107240 1994072832 net.cpp:96] Setting up relu2
I0107 10:40:42.107244 1994072832 net.cpp:103] Top shape: 100 300 1 1 (30000)
I0107 10:40:42.107249 1994072832 net.cpp:67] Creating Layer ip3
I0107 10:40:42.107251 1994072832 net.cpp:394] ip3 <- ip2
I0107 10:40:42.107256 1994072832 net.cpp:356] ip3 -> ip3
I0107 10:40:42.107262 1994072832 net.cpp:96] Setting up ip3
I0107 10:40:42.107286 1994072832 net.cpp:103] Top shape: 100 10 1 1 (1000)
I0107 10:40:42.107293 1994072832 net.cpp:67] Creating Layer ip3_ip3_0_split
I0107 10:40:42.107296 1994072832 net.cpp:394] ip3_ip3_0_split <- ip3
I0107 10:40:42.107300 1994072832 net.cpp:356] ip3_ip3_0_split -> ip3_ip3_0_split_0
I0107 10:40:42.107306 1994072832 net.cpp:356] ip3_ip3_0_split -> ip3_ip3_0_split_1
I0107 10:40:42.107313 1994072832 net.cpp:96] Setting up ip3_ip3_0_split
I0107 10:40:42.107317 1994072832 net.cpp:103] Top shape: 100 10 1 1 (1000)
I0107 10:40:42.107321 1994072832 net.cpp:103] Top shape: 100 10 1 1 (1000)
I0107 10:40:42.107326 1994072832 net.cpp:67] Creating Layer accuracy
I0107 10:40:42.107329 1994072832 net.cpp:394] accuracy <- ip3_ip3_0_split_0
I0107 10:40:42.107333 1994072832 net.cpp:394] accuracy <- label_mnist_1_split_0
I0107 10:40:42.107337 1994072832 net.cpp:356] accuracy -> accuracy
I0107 10:40:42.107342 1994072832 net.cpp:96] Setting up accuracy
I0107 10:40:42.107347 1994072832 net.cpp:103] Top shape: 1 1 1 1 (1)
I0107 10:40:42.107352 1994072832 net.cpp:67] Creating Layer loss
I0107 10:40:42.107355 1994072832 net.cpp:394] loss <- ip3_ip3_0_split_1
I0107 10:40:42.107359 1994072832 net.cpp:394] loss <- label_mnist_1_split_1
I0107 10:40:42.107363 1994072832 net.cpp:356] loss -> loss
I0107 10:40:42.107368 1994072832 net.cpp:96] Setting up loss
I0107 10:40:42.107374 1994072832 net.cpp:103] Top shape: 1 1 1 1 (1)
I0107 10:40:42.107378 1994072832 net.cpp:109]     with loss weight 1
I0107 10:40:42.107386 1994072832 net.cpp:170] loss needs backward computation.
I0107 10:40:42.107389 1994072832 net.cpp:172] accuracy does not need backward computation.
I0107 10:40:42.107393 1994072832 net.cpp:170] ip3_ip3_0_split needs backward computation.
I0107 10:40:42.107395 1994072832 net.cpp:170] ip3 needs backward computation.
…
