…
solver_mode: GPU
random_seed: 1710
net_param {
  name: "LeNet"
  layers {
    top: "data"
    top: "label"
    name: "mnist"
    type: DATA
    data_param {
      source: "49s8r_tr_ldb"
      batch_size: 480
      backend: LEVELDB
    }
    include {
      phase: TRAIN
    }
    transform_param {
      scale: 0.00390625
    }
  }
  layers {
    top: "data"
    top: "label"
    name: "mnist"
    type: DATA
    data_param {
      source: "49s8r_te_ldb"
      batch_size: 100
      backend: LEVELDB
    }
    include {
      phase: TEST
    }
    transform_param {
      scale: 0.00390625
    }
  }
  layers {
    bottom: "data"
    top: "ip1"
    name: "ip1"
    type: INNER_PRODUCT
    blobs_lr: 1
    blobs_lr: 2
    inner_product_param {
      num_output: 500
      weight_filler {
        type: "xavier"
      }
      bias_filler {
        type: "constant"
      }
    }
  }
  layers {
    bottom: "ip1"
    top: "ip1"
    name: "relu1"
    type: RELU
  }
  layers {
    bottom: "ip1"
    top: "ip2"
    name: "ip2"
    type: INNER_PRODUCT
    blobs_lr: 1
    blobs_lr: 2
    inner_product_param {
      num_output: 500
      weight_filler {
        type: "xavier"
      }
      bias_filler {
        type: "constant"
      }
    }
  }
  layers {
    bottom: "ip2"
    top: "ip2"
    name: "relu2"
    type: RELU
  }
  layers {
    bottom: "ip2"
    top: "ip3"
    name: "ip3"
    type: INNER_PRODUCT
    blobs_lr: 1
    blobs_lr: 2
    inner_product_param {
      num_output: 10
      weight_filler {
        type: "xavier"
      }
      bias_filler {
        type: "constant"
      }
    }
  }
  layers {
    bottom: "ip3"
    bottom: "label"
    top: "accuracy"
    name: "accuracy"
    type: ACCURACY
  }
  layers {
    bottom: "ip3"
    bottom: "label"
    top: "loss"
    name: "loss"
    type: SOFTMAX_LOSS
  }
}
test_state {
  stage: "test-on-test-set"
}
I0107 00:37:17.020197 1994072832 solver.cpp:63] Creating training net specified in net_param.
I0107 00:37:17.020272 1994072832 net.cpp:275] The NetState phase (0) differed from the phase (1) specified by a rule in layer mnist
I0107 00:37:17.020292 1994072832 net.cpp:39] Initializing net from parameters: 
name: "LeNet"
layers {
  top: "data"
  top: "label"
  name: "mnist"
  type: DATA
  data_param {
    source: "49s8r_tr_ldb"
    batch_size: 480
    backend: LEVELDB
  }
  include {
    phase: TRAIN
  }
  transform_param {
    scale: 0.00390625
  }
}
layers {
  bottom: "data"
  top: "ip1"
  name: "ip1"
  type: INNER_PRODUCT
  blobs_lr: 1
  blobs_lr: 2
  inner_product_param {
    num_output: 500
    weight_filler {
      type: "xavier"
    }
    bias_filler {
      type: "constant"
    }
  }
}
layers {
  bottom: "ip1"
  top: "ip1"
  name: "relu1"
  type: RELU
}
layers {
  bottom: "ip1"
  top: "ip2"
  name: "ip2"
  type: INNER_PRODUCT
  blobs_lr: 1
  blobs_lr: 2
  inner_product_param {
    num_output: 500
    weight_filler {
      type: "xavier"
    }
    bias_filler {
      type: "constant"
    }
  }
}
layers {
  bottom: "ip2"
  top: "ip2"
  name: "relu2"
  type: RELU
}
layers {
  bottom: "ip2"
  top: "ip3"
  name: "ip3"
  type: INNER_PRODUCT
  blobs_lr: 1
  blobs_lr: 2
  inner_product_param {
    num_output: 10
    weight_filler {
      type: "xavier"
    }
    bias_filler {
      type: "constant"
    }
  }
}
layers {
  bottom: "ip3"
  bottom: "label"
  top: "accuracy"
  name: "accuracy"
  type: ACCURACY
}
layers {
  bottom: "ip3"
  bottom: "label"
  top: "loss"
  name: "loss"
  type: SOFTMAX_LOSS
}
state {
  phase: TRAIN
}
I0107 00:37:17.020550 1994072832 net.cpp:67] Creating Layer mnist
I0107 00:37:17.020557 1994072832 net.cpp:356] mnist -> data
I0107 00:37:17.020582 1994072832 net.cpp:356] mnist -> label
I0107 00:37:17.020589 1994072832 net.cpp:96] Setting up mnist
I0107 00:37:17.020680 1994072832 data_layer.cpp:45] Opening leveldb 49s8r_tr_ldb
I0107 00:37:17.023175 1994072832 data_layer.cpp:128] output data size: 480,1,1,196
I0107 00:37:17.023277 1994072832 net.cpp:103] Top shape: 480 1 1 196 (94080)
I0107 00:37:17.023283 1994072832 net.cpp:103] Top shape: 480 1 1 1 (480)
I0107 00:37:17.023305 1994072832 net.cpp:67] Creating Layer label_mnist_1_split
I0107 00:37:17.023309 1994072832 net.cpp:394] label_mnist_1_split <- label
I0107 00:37:17.023319 1994072832 net.cpp:356] label_mnist_1_split -> label_mnist_1_split_0
I0107 00:37:17.023327 1994072832 net.cpp:356] label_mnist_1_split -> label_mnist_1_split_1
I0107 00:37:17.023334 1994072832 net.cpp:96] Setting up label_mnist_1_split
I0107 00:37:17.023339 1994072832 net.cpp:103] Top shape: 480 1 1 1 (480)
I0107 00:37:17.023341 1994072832 net.cpp:103] Top shape: 480 1 1 1 (480)
I0107 00:37:17.023349 1994072832 net.cpp:67] Creating Layer ip1
I0107 00:37:17.023351 1994072832 net.cpp:394] ip1 <- data
I0107 00:37:17.023356 1994072832 net.cpp:356] ip1 -> ip1
I0107 00:37:17.023362 1994072832 net.cpp:96] Setting up ip1
I0107 00:37:17.024155 1994072832 net.cpp:103] Top shape: 480 500 1 1 (240000)
I0107 00:37:17.024169 1994072832 net.cpp:67] Creating Layer relu1
I0107 00:37:17.024173 1994072832 net.cpp:394] relu1 <- ip1
I0107 00:37:17.024183 1994072832 net.cpp:345] relu1 -> ip1 (in-place)
I0107 00:37:17.024197 1994072832 net.cpp:96] Setting up relu1
I0107 00:37:17.024201 1994072832 net.cpp:103] Top shape: 480 500 1 1 (240000)
I0107 00:37:17.024209 1994072832 net.cpp:67] Creating Layer ip2
I0107 00:37:17.024212 1994072832 net.cpp:394] ip2 <- ip1
I0107 00:37:17.024217 1994072832 net.cpp:356] ip2 -> ip2
I0107 00:37:17.024232 1994072832 net.cpp:96] Setting up ip2
I0107 00:37:17.025578 1994072832 net.cpp:103] Top shape: 480 500 1 1 (240000)
I0107 00:37:17.025586 1994072832 net.cpp:67] Creating Layer relu2
I0107 00:37:17.025589 1994072832 net.cpp:394] relu2 <- ip2
I0107 00:37:17.025593 1994072832 net.cpp:345] relu2 -> ip2 (in-place)
I0107 00:37:17.025596 1994072832 net.cpp:96] Setting up relu2
I0107 00:37:17.025599 1994072832 net.cpp:103] Top shape: 480 500 1 1 (240000)
I0107 00:37:17.025606 1994072832 net.cpp:67] Creating Layer ip3
I0107 00:37:17.025619 1994072832 net.cpp:394] ip3 <- ip2
I0107 00:37:17.025622 1994072832 net.cpp:356] ip3 -> ip3
I0107 00:37:17.025637 1994072832 net.cpp:96] Setting up ip3
I0107 00:37:17.025697 1994072832 net.cpp:103] Top shape: 480 10 1 1 (4800)
I0107 00:37:17.025714 1994072832 net.cpp:67] Creating Layer ip3_ip3_0_split
I0107 00:37:17.025717 1994072832 net.cpp:394] ip3_ip3_0_split <- ip3
I0107 00:37:17.025720 1994072832 net.cpp:356] ip3_ip3_0_split -> ip3_ip3_0_split_0
I0107 00:37:17.025737 1994072832 net.cpp:356] ip3_ip3_0_split -> ip3_ip3_0_split_1
I0107 00:37:17.025742 1994072832 net.cpp:96] Setting up ip3_ip3_0_split
I0107 00:37:17.025745 1994072832 net.cpp:103] Top shape: 480 10 1 1 (4800)
I0107 00:37:17.025758 1994072832 net.cpp:103] Top shape: 480 10 1 1 (4800)
I0107 00:37:17.025763 1994072832 net.cpp:67] Creating Layer accuracy
I0107 00:37:17.025765 1994072832 net.cpp:394] accuracy <- ip3_ip3_0_split_0
I0107 00:37:17.025769 1994072832 net.cpp:394] accuracy <- label_mnist_1_split_0
I0107 00:37:17.025784 1994072832 net.cpp:356] accuracy -> accuracy
I0107 00:37:17.025789 1994072832 net.cpp:96] Setting up accuracy
I0107 00:37:17.025794 1994072832 net.cpp:103] Top shape: 1 1 1 1 (1)
I0107 00:37:17.025810 1994072832 net.cpp:67] Creating Layer loss
I0107 00:37:17.025813 1994072832 net.cpp:394] loss <- ip3_ip3_0_split_1
I0107 00:37:17.025817 1994072832 net.cpp:394] loss <- label_mnist_1_split_1
I0107 00:37:17.025821 1994072832 net.cpp:356] loss -> loss
I0107 00:37:17.025826 1994072832 net.cpp:96] Setting up loss
I0107 00:37:17.025845 1994072832 net.cpp:103] Top shape: 1 1 1 1 (1)
I0107 00:37:17.025847 1994072832 net.cpp:109]     with loss weight 1
I0107 00:37:17.025856 1994072832 net.cpp:170] loss needs backward computation.
I0107 00:37:17.025859 1994072832 net.cpp:172] accuracy does not need backward computation.
I0107 00:37:17.025903 1994072832 net.cpp:170] ip3_ip3_0_split needs backward computation.
I0107 00:37:17.025907 1994072832 net.cpp:170] ip3 needs backward computation.
…
I0107 00:37:17.025967 1994072832 net.cpp:220] Memory required for data: 4279688
I0107 00:37:17.026067 1994072832 solver.cpp:151] Creating test net (#0) specified by net_param
I0107 00:37:17.026093 1994072832 net.cpp:275] The NetState phase (1) differed from the phase (0) specified by a rule in layer mnist
I0107 00:37:17.026134 1994072832 net.cpp:39] Initializing net from parameters: 
name: "LeNet"
layers {
  top: "data"
  top: "label"
  name: "mnist"
  type: DATA
  data_param {
    source: "49s8r_te_ldb"
    batch_size: 100
    backend: LEVELDB
  }
  include {
    phase: TEST
  }
  transform_param {
    scale: 0.00390625
  }
}
layers {
  bottom: "data"
  top: "ip1"
  name: "ip1"
  type: INNER_PRODUCT
  blobs_lr: 1
  blobs_lr: 2
  inner_product_param {
    num_output: 500
    weight_filler {
      type: "xavier"
    }
    bias_filler {
      type: "constant"
    }
  }
}
layers {
  bottom: "ip1"
  top: "ip1"
  name: "relu1"
  type: RELU
}
layers {
  bottom: "ip1"
  top: "ip2"
  name: "ip2"
  type: INNER_PRODUCT
  blobs_lr: 1
  blobs_lr: 2
  inner_product_param {
    num_output: 500
    weight_filler {
      type: "xavier"
    }
    bias_filler {
      type: "constant"
    }
  }
}
layers {
  bottom: "ip2"
  top: "ip2"
  name: "relu2"
  type: RELU
}
layers {
  bottom: "ip2"
  top: "ip3"
  name: "ip3"
  type: INNER_PRODUCT
  blobs_lr: 1
  blobs_lr: 2
  inner_product_param {
    num_output: 10
    weight_filler {
      type: "xavier"
    }
    bias_filler {
      type: "constant"
    }
  }
}
layers {
  bottom: "ip3"
  bottom: "label"
  top: "accuracy"
  name: "accuracy"
  type: ACCURACY
}
layers {
  bottom: "ip3"
  bottom: "label"
  top: "loss"
  name: "loss"
  type: SOFTMAX_LOSS
}
state {
  phase: TEST
  stage: "test-on-test-set"
}
I0107 00:37:17.026422 1994072832 net.cpp:67] Creating Layer mnist
I0107 00:37:17.026429 1994072832 net.cpp:356] mnist -> data
I0107 00:37:17.026437 1994072832 net.cpp:356] mnist -> label
I0107 00:37:17.026443 1994072832 net.cpp:96] Setting up mnist
I0107 00:37:17.026448 1994072832 data_layer.cpp:45] Opening leveldb 49s8r_te_ldb
I0107 00:37:17.036113 1994072832 data_layer.cpp:128] output data size: 100,1,1,196
I0107 00:37:17.036209 1994072832 net.cpp:103] Top shape: 100 1 1 196 (19600)
I0107 00:37:17.036226 1994072832 net.cpp:103] Top shape: 100 1 1 1 (100)
I0107 00:37:17.036245 1994072832 net.cpp:67] Creating Layer label_mnist_1_split
I0107 00:37:17.036249 1994072832 net.cpp:394] label_mnist_1_split <- label
I0107 00:37:17.036254 1994072832 net.cpp:356] label_mnist_1_split -> label_mnist_1_split_0
I0107 00:37:17.036264 1994072832 net.cpp:356] label_mnist_1_split -> label_mnist_1_split_1
I0107 00:37:17.036270 1994072832 net.cpp:96] Setting up label_mnist_1_split
I0107 00:37:17.036275 1994072832 net.cpp:103] Top shape: 100 1 1 1 (100)
I0107 00:37:17.036278 1994072832 net.cpp:103] Top shape: 100 1 1 1 (100)
I0107 00:37:17.036285 1994072832 net.cpp:67] Creating Layer ip1
I0107 00:37:17.036288 1994072832 net.cpp:394] ip1 <- data
I0107 00:37:17.036293 1994072832 net.cpp:356] ip1 -> ip1
I0107 00:37:17.036299 1994072832 net.cpp:96] Setting up ip1
I0107 00:37:17.037052 1994072832 net.cpp:103] Top shape: 100 500 1 1 (50000)
I0107 00:37:17.037072 1994072832 net.cpp:67] Creating Layer relu1
I0107 00:37:17.037076 1994072832 net.cpp:394] relu1 <- ip1
I0107 00:37:17.037081 1994072832 net.cpp:345] relu1 -> ip1 (in-place)
I0107 00:37:17.037086 1994072832 net.cpp:96] Setting up relu1
I0107 00:37:17.037099 1994072832 net.cpp:103] Top shape: 100 500 1 1 (50000)
I0107 00:37:17.037119 1994072832 net.cpp:67] Creating Layer ip2
I0107 00:37:17.037123 1994072832 net.cpp:394] ip2 <- ip1
I0107 00:37:17.037127 1994072832 net.cpp:356] ip2 -> ip2
I0107 00:37:17.037142 1994072832 net.cpp:96] Setting up ip2
I0107 00:37:17.038882 1994072832 net.cpp:103] Top shape: 100 500 1 1 (50000)
I0107 00:37:17.038890 1994072832 net.cpp:67] Creating Layer relu2
I0107 00:37:17.038893 1994072832 net.cpp:394] relu2 <- ip2
I0107 00:37:17.038899 1994072832 net.cpp:345] relu2 -> ip2 (in-place)
I0107 00:37:17.038903 1994072832 net.cpp:96] Setting up relu2
I0107 00:37:17.038907 1994072832 net.cpp:103] Top shape: 100 500 1 1 (50000)
I0107 00:37:17.038911 1994072832 net.cpp:67] Creating Layer ip3
I0107 00:37:17.038924 1994072832 net.cpp:394] ip3 <- ip2
I0107 00:37:17.038928 1994072832 net.cpp:356] ip3 -> ip3
I0107 00:37:17.038944 1994072832 net.cpp:96] Setting up ip3
I0107 00:37:17.039021 1994072832 net.cpp:103] Top shape: 100 10 1 1 (1000)
I0107 00:37:17.039027 1994072832 net.cpp:67] Creating Layer ip3_ip3_0_split
I0107 00:37:17.039041 1994072832 net.cpp:394] ip3_ip3_0_split <- ip3
I0107 00:37:17.039043 1994072832 net.cpp:356] ip3_ip3_0_split -> ip3_ip3_0_split_0
I0107 00:37:17.039059 1994072832 net.cpp:356] ip3_ip3_0_split -> ip3_ip3_0_split_1
I0107 00:37:17.039067 1994072832 net.cpp:96] Setting up ip3_ip3_0_split
I0107 00:37:17.039070 1994072832 net.cpp:103] Top shape: 100 10 1 1 (1000)
I0107 00:37:17.039085 1994072832 net.cpp:103] Top shape: 100 10 1 1 (1000)
I0107 00:37:17.039090 1994072832 net.cpp:67] Creating Layer accuracy
I0107 00:37:17.039093 1994072832 net.cpp:394] accuracy <- ip3_ip3_0_split_0
I0107 00:37:17.039098 1994072832 net.cpp:394] accuracy <- label_mnist_1_split_0
I0107 00:37:17.039111 1994072832 net.cpp:356] accuracy -> accuracy
I0107 00:37:17.039115 1994072832 net.cpp:96] Setting up accuracy
I0107 00:37:17.039119 1994072832 net.cpp:103] Top shape: 1 1 1 1 (1)
I0107 00:37:17.039124 1994072832 net.cpp:67] Creating Layer loss
I0107 00:37:17.039136 1994072832 net.cpp:394] loss <- ip3_ip3_0_split_1
I0107 00:37:17.039140 1994072832 net.cpp:394] loss <- label_mnist_1_split_1
I0107 00:37:17.039155 1994072832 net.cpp:356] loss -> loss
I0107 00:37:17.039160 1994072832 net.cpp:96] Setting up loss
I0107 00:37:17.039165 1994072832 net.cpp:103] Top shape: 1 1 1 1 (1)
I0107 00:37:17.039167 1994072832 net.cpp:109]     with loss weight 1
I0107 00:37:17.039185 1994072832 net.cpp:170] loss needs backward computation.
I0107 00:37:17.039187 1994072832 net.cpp:172] accuracy does not need backward computation.
I0107 00:37:17.039201 1994072832 net.cpp:170] ip3_ip3_0_split needs backward computation.
I0107 00:37:17.039203 1994072832 net.cpp:170] ip3 needs backward computation.
…
