…
solver_mode: GPU
random_seed: 1710
net_param {
  name: "LeNet"
  layers {
    top: "data"
    top: "label"
    name: "mnist"
    type: DATA
    data_param {
      source: "49s8rzjm_tr_ldb"
      batch_size: 480
      backend: LEVELDB
    }
    include {
      phase: TRAIN
    }
    transform_param {
      scale: 0.00390625
    }
  }
  layers {
    top: "data"
    top: "label"
    name: "mnist"
    type: DATA
    data_param {
      source: "49s8rzjm_te_ldb"
      batch_size: 100
      backend: LEVELDB
    }
    include {
      phase: TEST
    }
    transform_param {
      scale: 0.00390625
    }
  }
  layers {
    bottom: "data"
    top: "ip1"
    name: "ip1"
    type: INNER_PRODUCT
    blobs_lr: 1
    blobs_lr: 2
    inner_product_param {
      num_output: 800
      weight_filler {
        type: "xavier"
      }
      bias_filler {
        type: "constant"
      }
    }
  }
  layers {
    bottom: "ip1"
    top: "ip1"
    name: "relu1"
    type: RELU
  }
  layers {
    bottom: "ip1"
    top: "ip2"
    name: "ip2"
    type: INNER_PRODUCT
    blobs_lr: 1
    blobs_lr: 2
    inner_product_param {
      num_output: 500
      weight_filler {
        type: "xavier"
      }
      bias_filler {
        type: "constant"
      }
    }
  }
  layers {
    bottom: "ip2"
    top: "ip2"
    name: "relu2"
    type: RELU
  }
  layers {
    bottom: "ip2"
    top: "ip3"
    name: "ip3"
    type: INNER_PRODUCT
    blobs_lr: 1
    blobs_lr: 2
    inner_product_param {
      num_output: 10
      weight_filler {
        type: "xavier"
      }
      bias_filler {
        type: "constant"
      }
    }
  }
  layers {
    bottom: "ip3"
    bottom: "label"
    top: "accuracy"
    name: "accuracy"
    type: ACCURACY
  }
  layers {
    bottom: "ip3"
    bottom: "label"
    top: "loss"
    name: "loss"
    type: SOFTMAX_LOSS
  }
}
test_state {
  stage: "test-on-test-set"
}
I0112 11:14:24.793550 1994072832 solver.cpp:63] Creating training net specified in net_param.
I0112 11:14:24.794056 1994072832 net.cpp:275] The NetState phase (0) differed from the phase (1) specified by a rule in layer mnist
I0112 11:14:24.794077 1994072832 net.cpp:39] Initializing net from parameters: 
name: "LeNet"
layers {
  top: "data"
  top: "label"
  name: "mnist"
  type: DATA
  data_param {
    source: "49s8rzjm_tr_ldb"
    batch_size: 480
    backend: LEVELDB
  }
  include {
    phase: TRAIN
  }
  transform_param {
    scale: 0.00390625
  }
}
layers {
  bottom: "data"
  top: "ip1"
  name: "ip1"
  type: INNER_PRODUCT
  blobs_lr: 1
  blobs_lr: 2
  inner_product_param {
    num_output: 800
    weight_filler {
      type: "xavier"
    }
    bias_filler {
      type: "constant"
    }
  }
}
layers {
  bottom: "ip1"
  top: "ip1"
  name: "relu1"
  type: RELU
}
layers {
  bottom: "ip1"
  top: "ip2"
  name: "ip2"
  type: INNER_PRODUCT
  blobs_lr: 1
  blobs_lr: 2
  inner_product_param {
    num_output: 500
    weight_filler {
      type: "xavier"
    }
    bias_filler {
      type: "constant"
    }
  }
}
layers {
  bottom: "ip2"
  top: "ip2"
  name: "relu2"
  type: RELU
}
layers {
  bottom: "ip2"
  top: "ip3"
  name: "ip3"
  type: INNER_PRODUCT
  blobs_lr: 1
  blobs_lr: 2
  inner_product_param {
    num_output: 10
    weight_filler {
      type: "xavier"
    }
    bias_filler {
      type: "constant"
    }
  }
}
layers {
  bottom: "ip3"
  bottom: "label"
  top: "accuracy"
  name: "accuracy"
  type: ACCURACY
}
layers {
  bottom: "ip3"
  bottom: "label"
  top: "loss"
  name: "loss"
  type: SOFTMAX_LOSS
}
state {
  phase: TRAIN
}
I0112 11:14:24.794404 1994072832 net.cpp:67] Creating Layer mnist
I0112 11:14:24.794425 1994072832 net.cpp:356] mnist -> data
I0112 11:14:24.794440 1994072832 net.cpp:356] mnist -> label
I0112 11:14:24.794448 1994072832 net.cpp:96] Setting up mnist
I0112 11:14:24.795038 1994072832 data_layer.cpp:45] Opening leveldb 49s8rzjm_tr_ldb
I0112 11:14:24.823289 1994072832 data_layer.cpp:128] output data size: 480,1,1,245
I0112 11:14:24.823396 1994072832 net.cpp:103] Top shape: 480 1 1 245 (117600)
I0112 11:14:24.823402 1994072832 net.cpp:103] Top shape: 480 1 1 1 (480)
I0112 11:14:24.823421 1994072832 net.cpp:67] Creating Layer label_mnist_1_split
I0112 11:14:24.823426 1994072832 net.cpp:394] label_mnist_1_split <- label
I0112 11:14:24.823470 1994072832 net.cpp:356] label_mnist_1_split -> label_mnist_1_split_0
I0112 11:14:24.823495 1994072832 net.cpp:356] label_mnist_1_split -> label_mnist_1_split_1
I0112 11:14:24.823525 1994072832 net.cpp:96] Setting up label_mnist_1_split
I0112 11:14:24.823532 1994072832 net.cpp:103] Top shape: 480 1 1 1 (480)
I0112 11:14:24.823535 1994072832 net.cpp:103] Top shape: 480 1 1 1 (480)
I0112 11:14:24.823541 1994072832 net.cpp:67] Creating Layer ip1
I0112 11:14:24.823556 1994072832 net.cpp:394] ip1 <- data
I0112 11:14:24.823564 1994072832 net.cpp:356] ip1 -> ip1
I0112 11:14:24.823572 1994072832 net.cpp:96] Setting up ip1
I0112 11:14:24.824667 1994072832 net.cpp:103] Top shape: 480 800 1 1 (384000)
I0112 11:14:24.824683 1994072832 net.cpp:67] Creating Layer relu1
I0112 11:14:24.824687 1994072832 net.cpp:394] relu1 <- ip1
I0112 11:14:24.824753 1994072832 net.cpp:345] relu1 -> ip1 (in-place)
I0112 11:14:24.824774 1994072832 net.cpp:96] Setting up relu1
I0112 11:14:24.824779 1994072832 net.cpp:103] Top shape: 480 800 1 1 (384000)
I0112 11:14:24.824797 1994072832 net.cpp:67] Creating Layer ip2
I0112 11:14:24.824800 1994072832 net.cpp:394] ip2 <- ip1
I0112 11:14:24.824805 1994072832 net.cpp:356] ip2 -> ip2
I0112 11:14:24.824811 1994072832 net.cpp:96] Setting up ip2
I0112 11:14:24.827882 1994072832 net.cpp:103] Top shape: 480 500 1 1 (240000)
I0112 11:14:24.827913 1994072832 net.cpp:67] Creating Layer relu2
I0112 11:14:24.827918 1994072832 net.cpp:394] relu2 <- ip2
I0112 11:14:24.827922 1994072832 net.cpp:345] relu2 -> ip2 (in-place)
I0112 11:14:24.827927 1994072832 net.cpp:96] Setting up relu2
I0112 11:14:24.827954 1994072832 net.cpp:103] Top shape: 480 500 1 1 (240000)
I0112 11:14:24.827966 1994072832 net.cpp:67] Creating Layer ip3
I0112 11:14:24.827971 1994072832 net.cpp:394] ip3 <- ip2
I0112 11:14:24.827976 1994072832 net.cpp:356] ip3 -> ip3
I0112 11:14:24.827992 1994072832 net.cpp:96] Setting up ip3
I0112 11:14:24.828037 1994072832 net.cpp:103] Top shape: 480 10 1 1 (4800)
I0112 11:14:24.828055 1994072832 net.cpp:67] Creating Layer ip3_ip3_0_split
I0112 11:14:24.828058 1994072832 net.cpp:394] ip3_ip3_0_split <- ip3
I0112 11:14:24.828068 1994072832 net.cpp:356] ip3_ip3_0_split -> ip3_ip3_0_split_0
I0112 11:14:24.828074 1994072832 net.cpp:356] ip3_ip3_0_split -> ip3_ip3_0_split_1
I0112 11:14:24.828080 1994072832 net.cpp:96] Setting up ip3_ip3_0_split
I0112 11:14:24.828084 1994072832 net.cpp:103] Top shape: 480 10 1 1 (4800)
I0112 11:14:24.828088 1994072832 net.cpp:103] Top shape: 480 10 1 1 (4800)
I0112 11:14:24.828093 1994072832 net.cpp:67] Creating Layer accuracy
I0112 11:14:24.828096 1994072832 net.cpp:394] accuracy <- ip3_ip3_0_split_0
I0112 11:14:24.828099 1994072832 net.cpp:394] accuracy <- label_mnist_1_split_0
I0112 11:14:24.828104 1994072832 net.cpp:356] accuracy -> accuracy
I0112 11:14:24.828109 1994072832 net.cpp:96] Setting up accuracy
I0112 11:14:24.828120 1994072832 net.cpp:103] Top shape: 1 1 1 1 (1)
I0112 11:14:24.828129 1994072832 net.cpp:67] Creating Layer loss
I0112 11:14:24.828131 1994072832 net.cpp:394] loss <- ip3_ip3_0_split_1
I0112 11:14:24.828135 1994072832 net.cpp:394] loss <- label_mnist_1_split_1
I0112 11:14:24.828138 1994072832 net.cpp:356] loss -> loss
I0112 11:14:24.828143 1994072832 net.cpp:96] Setting up loss
I0112 11:14:24.828155 1994072832 net.cpp:103] Top shape: 1 1 1 1 (1)
I0112 11:14:24.828157 1994072832 net.cpp:109]     with loss weight 1
I0112 11:14:24.828167 1994072832 net.cpp:170] loss needs backward computation.
I0112 11:14:24.828171 1994072832 net.cpp:172] accuracy does not need backward computation.
I0112 11:14:24.828205 1994072832 net.cpp:170] ip3_ip3_0_split needs backward computation.
I0112 11:14:24.828208 1994072832 net.cpp:170] ip3 needs backward computation.
…
I0112 11:14:24.828254 1994072832 net.cpp:220] Memory required for data: 5525768
I0112 11:14:24.828306 1994072832 solver.cpp:151] Creating test net (#0) specified by net_param
I0112 11:14:24.828322 1994072832 net.cpp:275] The NetState phase (1) differed from the phase (0) specified by a rule in layer mnist
I0112 11:14:24.828332 1994072832 net.cpp:39] Initializing net from parameters: 
name: "LeNet"
layers {
  top: "data"
  top: "label"
  name: "mnist"
  type: DATA
  data_param {
    source: "49s8rzjm_te_ldb"
    batch_size: 100
    backend: LEVELDB
  }
  include {
    phase: TEST
  }
  transform_param {
    scale: 0.00390625
  }
}
layers {
  bottom: "data"
  top: "ip1"
  name: "ip1"
  type: INNER_PRODUCT
  blobs_lr: 1
  blobs_lr: 2
  inner_product_param {
    num_output: 800
    weight_filler {
      type: "xavier"
    }
    bias_filler {
      type: "constant"
    }
  }
}
layers {
  bottom: "ip1"
  top: "ip1"
  name: "relu1"
  type: RELU
}
layers {
  bottom: "ip1"
  top: "ip2"
  name: "ip2"
  type: INNER_PRODUCT
  blobs_lr: 1
  blobs_lr: 2
  inner_product_param {
    num_output: 500
    weight_filler {
      type: "xavier"
    }
    bias_filler {
      type: "constant"
    }
  }
}
layers {
  bottom: "ip2"
  top: "ip2"
  name: "relu2"
  type: RELU
}
layers {
  bottom: "ip2"
  top: "ip3"
  name: "ip3"
  type: INNER_PRODUCT
  blobs_lr: 1
  blobs_lr: 2
  inner_product_param {
    num_output: 10
    weight_filler {
      type: "xavier"
    }
    bias_filler {
      type: "constant"
    }
  }
}
layers {
  bottom: "ip3"
  bottom: "label"
  top: "accuracy"
  name: "accuracy"
  type: ACCURACY
}
layers {
  bottom: "ip3"
  bottom: "label"
  top: "loss"
  name: "loss"
  type: SOFTMAX_LOSS
}
state {
  phase: TEST
  stage: "test-on-test-set"
}
I0112 11:14:24.828690 1994072832 net.cpp:67] Creating Layer mnist
I0112 11:14:24.828696 1994072832 net.cpp:356] mnist -> data
I0112 11:14:24.828703 1994072832 net.cpp:356] mnist -> label
I0112 11:14:24.828708 1994072832 net.cpp:96] Setting up mnist
I0112 11:14:24.828713 1994072832 data_layer.cpp:45] Opening leveldb 49s8rzjm_te_ldb
I0112 11:14:24.888469 1994072832 data_layer.cpp:128] output data size: 100,1,1,245
I0112 11:14:24.888535 1994072832 net.cpp:103] Top shape: 100 1 1 245 (24500)
I0112 11:14:24.888571 1994072832 net.cpp:103] Top shape: 100 1 1 1 (100)
I0112 11:14:24.888586 1994072832 net.cpp:67] Creating Layer label_mnist_1_split
I0112 11:14:24.888591 1994072832 net.cpp:394] label_mnist_1_split <- label
I0112 11:14:24.888597 1994072832 net.cpp:356] label_mnist_1_split -> label_mnist_1_split_0
I0112 11:14:24.888605 1994072832 net.cpp:356] label_mnist_1_split -> label_mnist_1_split_1
I0112 11:14:24.888612 1994072832 net.cpp:96] Setting up label_mnist_1_split
I0112 11:14:24.888617 1994072832 net.cpp:103] Top shape: 100 1 1 1 (100)
I0112 11:14:24.888622 1994072832 net.cpp:103] Top shape: 100 1 1 1 (100)
I0112 11:14:24.888629 1994072832 net.cpp:67] Creating Layer ip1
I0112 11:14:24.888633 1994072832 net.cpp:394] ip1 <- data
I0112 11:14:24.888638 1994072832 net.cpp:356] ip1 -> ip1
I0112 11:14:24.888665 1994072832 net.cpp:96] Setting up ip1
I0112 11:14:24.889906 1994072832 net.cpp:103] Top shape: 100 800 1 1 (80000)
I0112 11:14:24.889936 1994072832 net.cpp:67] Creating Layer relu1
I0112 11:14:24.889940 1994072832 net.cpp:394] relu1 <- ip1
I0112 11:14:24.889945 1994072832 net.cpp:345] relu1 -> ip1 (in-place)
I0112 11:14:24.889950 1994072832 net.cpp:96] Setting up relu1
I0112 11:14:24.889953 1994072832 net.cpp:103] Top shape: 100 800 1 1 (80000)
I0112 11:14:24.889960 1994072832 net.cpp:67] Creating Layer ip2
I0112 11:14:24.889963 1994072832 net.cpp:394] ip2 <- ip1
I0112 11:14:24.889967 1994072832 net.cpp:356] ip2 -> ip2
I0112 11:14:24.889973 1994072832 net.cpp:96] Setting up ip2
I0112 11:14:24.892839 1994072832 net.cpp:103] Top shape: 100 500 1 1 (50000)
I0112 11:14:24.892858 1994072832 net.cpp:67] Creating Layer relu2
I0112 11:14:24.892860 1994072832 net.cpp:394] relu2 <- ip2
I0112 11:14:24.892866 1994072832 net.cpp:345] relu2 -> ip2 (in-place)
I0112 11:14:24.892870 1994072832 net.cpp:96] Setting up relu2
I0112 11:14:24.892874 1994072832 net.cpp:103] Top shape: 100 500 1 1 (50000)
I0112 11:14:24.892879 1994072832 net.cpp:67] Creating Layer ip3
I0112 11:14:24.892891 1994072832 net.cpp:394] ip3 <- ip2
I0112 11:14:24.892896 1994072832 net.cpp:356] ip3 -> ip3
I0112 11:14:24.892901 1994072832 net.cpp:96] Setting up ip3
I0112 11:14:24.892956 1994072832 net.cpp:103] Top shape: 100 10 1 1 (1000)
I0112 11:14:24.892972 1994072832 net.cpp:67] Creating Layer ip3_ip3_0_split
I0112 11:14:24.892974 1994072832 net.cpp:394] ip3_ip3_0_split <- ip3
I0112 11:14:24.892988 1994072832 net.cpp:356] ip3_ip3_0_split -> ip3_ip3_0_split_0
I0112 11:14:24.892993 1994072832 net.cpp:356] ip3_ip3_0_split -> ip3_ip3_0_split_1
I0112 11:14:24.892998 1994072832 net.cpp:96] Setting up ip3_ip3_0_split
I0112 11:14:24.893002 1994072832 net.cpp:103] Top shape: 100 10 1 1 (1000)
I0112 11:14:24.893028 1994072832 net.cpp:103] Top shape: 100 10 1 1 (1000)
I0112 11:14:24.893056 1994072832 net.cpp:67] Creating Layer accuracy
I0112 11:14:24.893100 1994072832 net.cpp:394] accuracy <- ip3_ip3_0_split_0
I0112 11:14:24.893120 1994072832 net.cpp:394] accuracy <- label_mnist_1_split_0
I0112 11:14:24.893154 1994072832 net.cpp:356] accuracy -> accuracy
I0112 11:14:24.893162 1994072832 net.cpp:96] Setting up accuracy
I0112 11:14:24.893177 1994072832 net.cpp:103] Top shape: 1 1 1 1 (1)
I0112 11:14:24.893187 1994072832 net.cpp:67] Creating Layer loss
I0112 11:14:24.893200 1994072832 net.cpp:394] loss <- ip3_ip3_0_split_1
I0112 11:14:24.893204 1994072832 net.cpp:394] loss <- label_mnist_1_split_1
I0112 11:14:24.893218 1994072832 net.cpp:356] loss -> loss
I0112 11:14:24.893221 1994072832 net.cpp:96] Setting up loss
I0112 11:14:24.893237 1994072832 net.cpp:103] Top shape: 1 1 1 1 (1)
I0112 11:14:24.893240 1994072832 net.cpp:109]     with loss weight 1
I0112 11:14:24.893249 1994072832 net.cpp:170] loss needs backward computation.
I0112 11:14:24.893261 1994072832 net.cpp:172] accuracy does not need backward computation.
I0112 11:14:24.893265 1994072832 net.cpp:170] ip3_ip3_0_split needs backward computation.
I0112 11:14:24.893267 1994072832 net.cpp:170] ip3 needs backward computation.
…
