…
solver_mode: GPU
random_seed: 1710
net_param {
  name: "HMC"
  layers {
    top: "data"
    top: "label"
    name: "mnist"
    type: DATA
    data_param {
      source: "49s8rzmj_tr_ldb"
      batch_size: 480
      backend: LEVELDB
    }
    include {
      phase: TRAIN
    }
    transform_param {
      scale: 0.00390625
    }
  }
  layers {
    top: "data"
    top: "label"
    name: "mnist"
    type: DATA
    data_param {
      source: "49s8rzmj_te_ldb"
      batch_size: 100
      backend: LEVELDB
    }
    include {
      phase: TEST
    }
    transform_param {
      scale: 0.00390625
    }
  }
  layers {
    bottom: "data"
    top: "ip1"
    name: "ip1"
    type: INNER_PRODUCT
    blobs_lr: 1
    blobs_lr: 2
    inner_product_param {
      num_output: 800
      weight_filler {
        type: "xavier"
      }
      bias_filler {
        type: "constant"
      }
    }
  }
  layers {
    bottom: "ip1"
    top: "ip1"
    name: "relu1"
    type: RELU
  }
  layers {
    bottom: "ip1"
    top: "ip2"
    name: "ip2"
    type: INNER_PRODUCT
    blobs_lr: 1
    blobs_lr: 2
    inner_product_param {
      num_output: 500
      weight_filler {
        type: "xavier"
      }
      bias_filler {
        type: "constant"
      }
    }
  }
  layers {
    bottom: "ip2"
    top: "ip2"
    name: "relu2"
    type: RELU
  }
  layers {
    bottom: "ip2"
    top: "ip3"
    name: "ip3"
    type: INNER_PRODUCT
    blobs_lr: 1
    blobs_lr: 2
    inner_product_param {
      num_output: 10
      weight_filler {
        type: "xavier"
      }
      bias_filler {
        type: "constant"
      }
    }
  }
  layers {
    bottom: "ip3"
    bottom: "label"
    top: "accuracy"
    name: "accuracy"
    type: ACCURACY
  }
  layers {
    bottom: "ip3"
    bottom: "label"
    top: "loss"
    name: "loss"
    type: SOFTMAX_LOSS
  }
}
test_state {
  stage: "test-on-test-set"
}
I0112 22:21:59.889591 1994072832 solver.cpp:63] Creating training net specified in net_param.
I0112 22:21:59.890027 1994072832 net.cpp:275] The NetState phase (0) differed from the phase (1) specified by a rule in layer mnist
I0112 22:21:59.890370 1994072832 net.cpp:39] Initializing net from parameters: 
name: "HMC"
layers {
  top: "data"
  top: "label"
  name: "mnist"
  type: DATA
  data_param {
    source: "49s8rzmj_tr_ldb"
    batch_size: 480
    backend: LEVELDB
  }
  include {
    phase: TRAIN
  }
  transform_param {
    scale: 0.00390625
  }
}
layers {
  bottom: "data"
  top: "ip1"
  name: "ip1"
  type: INNER_PRODUCT
  blobs_lr: 1
  blobs_lr: 2
  inner_product_param {
    num_output: 800
    weight_filler {
      type: "xavier"
    }
    bias_filler {
      type: "constant"
    }
  }
}
layers {
  bottom: "ip1"
  top: "ip1"
  name: "relu1"
  type: RELU
}
layers {
  bottom: "ip1"
  top: "ip2"
  name: "ip2"
  type: INNER_PRODUCT
  blobs_lr: 1
  blobs_lr: 2
  inner_product_param {
    num_output: 500
    weight_filler {
      type: "xavier"
    }
    bias_filler {
      type: "constant"
    }
  }
}
layers {
  bottom: "ip2"
  top: "ip2"
  name: "relu2"
  type: RELU
}
layers {
  bottom: "ip2"
  top: "ip3"
  name: "ip3"
  type: INNER_PRODUCT
  blobs_lr: 1
  blobs_lr: 2
  inner_product_param {
    num_output: 10
    weight_filler {
      type: "xavier"
    }
    bias_filler {
      type: "constant"
    }
  }
}
layers {
  bottom: "ip3"
  bottom: "label"
  top: "accuracy"
  name: "accuracy"
  type: ACCURACY
}
layers {
  bottom: "ip3"
  bottom: "label"
  top: "loss"
  name: "loss"
  type: SOFTMAX_LOSS
}
state {
  phase: TRAIN
}
I0112 22:21:59.890646 1994072832 net.cpp:67] Creating Layer mnist
I0112 22:21:59.890655 1994072832 net.cpp:356] mnist -> data
I0112 22:21:59.890671 1994072832 net.cpp:356] mnist -> label
I0112 22:21:59.890679 1994072832 net.cpp:96] Setting up mnist
I0112 22:21:59.890729 1994072832 data_layer.cpp:45] Opening leveldb 49s8rzmj_tr_ldb
I0112 22:21:59.922106 1994072832 data_layer.cpp:128] output data size: 480,1,1,245
I0112 22:21:59.922232 1994072832 net.cpp:103] Top shape: 480 1 1 245 (117600)
I0112 22:21:59.922250 1994072832 net.cpp:103] Top shape: 480 1 1 1 (480)
I0112 22:21:59.922261 1994072832 net.cpp:67] Creating Layer label_mnist_1_split
I0112 22:21:59.922266 1994072832 net.cpp:394] label_mnist_1_split <- label
I0112 22:21:59.922278 1994072832 net.cpp:356] label_mnist_1_split -> label_mnist_1_split_0
I0112 22:21:59.922286 1994072832 net.cpp:356] label_mnist_1_split -> label_mnist_1_split_1
I0112 22:21:59.922291 1994072832 net.cpp:96] Setting up label_mnist_1_split
I0112 22:21:59.922296 1994072832 net.cpp:103] Top shape: 480 1 1 1 (480)
I0112 22:21:59.922298 1994072832 net.cpp:103] Top shape: 480 1 1 1 (480)
I0112 22:21:59.922304 1994072832 net.cpp:67] Creating Layer ip1
I0112 22:21:59.922307 1994072832 net.cpp:394] ip1 <- data
I0112 22:21:59.922312 1994072832 net.cpp:356] ip1 -> ip1
I0112 22:21:59.922317 1994072832 net.cpp:96] Setting up ip1
I0112 22:21:59.924088 1994072832 net.cpp:103] Top shape: 480 800 1 1 (384000)
I0112 22:21:59.924115 1994072832 net.cpp:67] Creating Layer relu1
I0112 22:21:59.924120 1994072832 net.cpp:394] relu1 <- ip1
I0112 22:21:59.924126 1994072832 net.cpp:345] relu1 -> ip1 (in-place)
I0112 22:21:59.924132 1994072832 net.cpp:96] Setting up relu1
I0112 22:21:59.924136 1994072832 net.cpp:103] Top shape: 480 800 1 1 (384000)
I0112 22:21:59.924147 1994072832 net.cpp:67] Creating Layer ip2
I0112 22:21:59.924150 1994072832 net.cpp:394] ip2 <- ip1
I0112 22:21:59.924154 1994072832 net.cpp:356] ip2 -> ip2
I0112 22:21:59.924160 1994072832 net.cpp:96] Setting up ip2
I0112 22:21:59.927112 1994072832 net.cpp:103] Top shape: 480 500 1 1 (240000)
I0112 22:21:59.927157 1994072832 net.cpp:67] Creating Layer relu2
I0112 22:21:59.927161 1994072832 net.cpp:394] relu2 <- ip2
I0112 22:21:59.927167 1994072832 net.cpp:345] relu2 -> ip2 (in-place)
I0112 22:21:59.927173 1994072832 net.cpp:96] Setting up relu2
I0112 22:21:59.927176 1994072832 net.cpp:103] Top shape: 480 500 1 1 (240000)
I0112 22:21:59.927182 1994072832 net.cpp:67] Creating Layer ip3
I0112 22:21:59.927187 1994072832 net.cpp:394] ip3 <- ip2
I0112 22:21:59.927191 1994072832 net.cpp:356] ip3 -> ip3
I0112 22:21:59.927197 1994072832 net.cpp:96] Setting up ip3
I0112 22:21:59.927253 1994072832 net.cpp:103] Top shape: 480 10 1 1 (4800)
I0112 22:21:59.927274 1994072832 net.cpp:67] Creating Layer ip3_ip3_0_split
I0112 22:21:59.927287 1994072832 net.cpp:394] ip3_ip3_0_split <- ip3
I0112 22:21:59.927304 1994072832 net.cpp:356] ip3_ip3_0_split -> ip3_ip3_0_split_0
I0112 22:21:59.927345 1994072832 net.cpp:356] ip3_ip3_0_split -> ip3_ip3_0_split_1
I0112 22:21:59.927353 1994072832 net.cpp:96] Setting up ip3_ip3_0_split
I0112 22:21:59.927358 1994072832 net.cpp:103] Top shape: 480 10 1 1 (4800)
I0112 22:21:59.927362 1994072832 net.cpp:103] Top shape: 480 10 1 1 (4800)
I0112 22:21:59.927376 1994072832 net.cpp:67] Creating Layer accuracy
I0112 22:21:59.927379 1994072832 net.cpp:394] accuracy <- ip3_ip3_0_split_0
I0112 22:21:59.927383 1994072832 net.cpp:394] accuracy <- label_mnist_1_split_0
I0112 22:21:59.927387 1994072832 net.cpp:356] accuracy -> accuracy
I0112 22:21:59.927392 1994072832 net.cpp:96] Setting up accuracy
I0112 22:21:59.927405 1994072832 net.cpp:103] Top shape: 1 1 1 1 (1)
I0112 22:21:59.927463 1994072832 net.cpp:67] Creating Layer loss
I0112 22:21:59.927469 1994072832 net.cpp:394] loss <- ip3_ip3_0_split_1
I0112 22:21:59.927475 1994072832 net.cpp:394] loss <- label_mnist_1_split_1
I0112 22:21:59.927479 1994072832 net.cpp:356] loss -> loss
I0112 22:21:59.927485 1994072832 net.cpp:96] Setting up loss
I0112 22:21:59.927500 1994072832 net.cpp:103] Top shape: 1 1 1 1 (1)
I0112 22:21:59.927502 1994072832 net.cpp:109]     with loss weight 1
I0112 22:21:59.927516 1994072832 net.cpp:170] loss needs backward computation.
I0112 22:21:59.927520 1994072832 net.cpp:172] accuracy does not need backward computation.
I0112 22:21:59.927551 1994072832 net.cpp:170] ip3_ip3_0_split needs backward computation.
I0112 22:21:59.927553 1994072832 net.cpp:170] ip3 needs backward computation.
…
I0112 22:21:59.927595 1994072832 net.cpp:220] Memory required for data: 5525768
I0112 22:21:59.927660 1994072832 solver.cpp:151] Creating test net (#0) specified by net_param
I0112 22:21:59.927678 1994072832 net.cpp:275] The NetState phase (1) differed from the phase (0) specified by a rule in layer mnist
I0112 22:21:59.927687 1994072832 net.cpp:39] Initializing net from parameters: 
name: "HMC"
layers {
  top: "data"
  top: "label"
  name: "mnist"
  type: DATA
  data_param {
    source: "49s8rzmj_te_ldb"
    batch_size: 100
    backend: LEVELDB
  }
  include {
    phase: TEST
  }
  transform_param {
    scale: 0.00390625
  }
}
layers {
  bottom: "data"
  top: "ip1"
  name: "ip1"
  type: INNER_PRODUCT
  blobs_lr: 1
  blobs_lr: 2
  inner_product_param {
    num_output: 800
    weight_filler {
      type: "xavier"
    }
    bias_filler {
      type: "constant"
    }
  }
}
layers {
  bottom: "ip1"
  top: "ip1"
  name: "relu1"
  type: RELU
}
layers {
  bottom: "ip1"
  top: "ip2"
  name: "ip2"
  type: INNER_PRODUCT
  blobs_lr: 1
  blobs_lr: 2
  inner_product_param {
    num_output: 500
    weight_filler {
      type: "xavier"
    }
    bias_filler {
      type: "constant"
    }
  }
}
layers {
  bottom: "ip2"
  top: "ip2"
  name: "relu2"
  type: RELU
}
layers {
  bottom: "ip2"
  top: "ip3"
  name: "ip3"
  type: INNER_PRODUCT
  blobs_lr: 1
  blobs_lr: 2
  inner_product_param {
    num_output: 10
    weight_filler {
      type: "xavier"
    }
    bias_filler {
      type: "constant"
    }
  }
}
layers {
  bottom: "ip3"
  bottom: "label"
  top: "accuracy"
  name: "accuracy"
  type: ACCURACY
}
layers {
  bottom: "ip3"
  bottom: "label"
  top: "loss"
  name: "loss"
  type: SOFTMAX_LOSS
}
state {
  phase: TEST
  stage: "test-on-test-set"
}
I0112 22:21:59.927927 1994072832 net.cpp:67] Creating Layer mnist
I0112 22:21:59.927935 1994072832 net.cpp:356] mnist -> data
I0112 22:21:59.927943 1994072832 net.cpp:356] mnist -> label
I0112 22:21:59.927948 1994072832 net.cpp:96] Setting up mnist
I0112 22:21:59.927953 1994072832 data_layer.cpp:45] Opening leveldb 49s8rzmj_te_ldb
I0112 22:21:59.989835 1994072832 data_layer.cpp:128] output data size: 100,1,1,245
I0112 22:21:59.989881 1994072832 net.cpp:103] Top shape: 100 1 1 245 (24500)
I0112 22:21:59.989888 1994072832 net.cpp:103] Top shape: 100 1 1 1 (100)
I0112 22:21:59.989898 1994072832 net.cpp:67] Creating Layer label_mnist_1_split
I0112 22:21:59.989902 1994072832 net.cpp:394] label_mnist_1_split <- label
I0112 22:21:59.989908 1994072832 net.cpp:356] label_mnist_1_split -> label_mnist_1_split_0
I0112 22:21:59.989917 1994072832 net.cpp:356] label_mnist_1_split -> label_mnist_1_split_1
I0112 22:21:59.989923 1994072832 net.cpp:96] Setting up label_mnist_1_split
I0112 22:21:59.989927 1994072832 net.cpp:103] Top shape: 100 1 1 1 (100)
I0112 22:21:59.989930 1994072832 net.cpp:103] Top shape: 100 1 1 1 (100)
I0112 22:21:59.989936 1994072832 net.cpp:67] Creating Layer ip1
I0112 22:21:59.989939 1994072832 net.cpp:394] ip1 <- data
I0112 22:21:59.989944 1994072832 net.cpp:356] ip1 -> ip1
I0112 22:21:59.989970 1994072832 net.cpp:96] Setting up ip1
I0112 22:21:59.991536 1994072832 net.cpp:103] Top shape: 100 800 1 1 (80000)
I0112 22:21:59.991561 1994072832 net.cpp:67] Creating Layer relu1
I0112 22:21:59.991564 1994072832 net.cpp:394] relu1 <- ip1
I0112 22:21:59.991569 1994072832 net.cpp:345] relu1 -> ip1 (in-place)
I0112 22:21:59.991574 1994072832 net.cpp:96] Setting up relu1
I0112 22:21:59.991576 1994072832 net.cpp:103] Top shape: 100 800 1 1 (80000)
I0112 22:21:59.991581 1994072832 net.cpp:67] Creating Layer ip2
I0112 22:21:59.991585 1994072832 net.cpp:394] ip2 <- ip1
I0112 22:21:59.991597 1994072832 net.cpp:356] ip2 -> ip2
I0112 22:21:59.991602 1994072832 net.cpp:96] Setting up ip2
I0112 22:21:59.994586 1994072832 net.cpp:103] Top shape: 100 500 1 1 (50000)
I0112 22:21:59.994616 1994072832 net.cpp:67] Creating Layer relu2
I0112 22:21:59.994621 1994072832 net.cpp:394] relu2 <- ip2
I0112 22:21:59.994626 1994072832 net.cpp:345] relu2 -> ip2 (in-place)
I0112 22:21:59.994632 1994072832 net.cpp:96] Setting up relu2
I0112 22:21:59.994634 1994072832 net.cpp:103] Top shape: 100 500 1 1 (50000)
I0112 22:21:59.994649 1994072832 net.cpp:67] Creating Layer ip3
I0112 22:21:59.994653 1994072832 net.cpp:394] ip3 <- ip2
I0112 22:21:59.994663 1994072832 net.cpp:356] ip3 -> ip3
I0112 22:21:59.994669 1994072832 net.cpp:96] Setting up ip3
I0112 22:21:59.994743 1994072832 net.cpp:103] Top shape: 100 10 1 1 (1000)
I0112 22:21:59.994760 1994072832 net.cpp:67] Creating Layer ip3_ip3_0_split
I0112 22:21:59.994762 1994072832 net.cpp:394] ip3_ip3_0_split <- ip3
I0112 22:21:59.994766 1994072832 net.cpp:356] ip3_ip3_0_split -> ip3_ip3_0_split_0
I0112 22:21:59.994781 1994072832 net.cpp:356] ip3_ip3_0_split -> ip3_ip3_0_split_1
I0112 22:21:59.994788 1994072832 net.cpp:96] Setting up ip3_ip3_0_split
I0112 22:21:59.994791 1994072832 net.cpp:103] Top shape: 100 10 1 1 (1000)
I0112 22:21:59.994804 1994072832 net.cpp:103] Top shape: 100 10 1 1 (1000)
I0112 22:21:59.994809 1994072832 net.cpp:67] Creating Layer accuracy
I0112 22:21:59.994822 1994072832 net.cpp:394] accuracy <- ip3_ip3_0_split_0
I0112 22:21:59.994827 1994072832 net.cpp:394] accuracy <- label_mnist_1_split_0
I0112 22:21:59.994832 1994072832 net.cpp:356] accuracy -> accuracy
I0112 22:21:59.994837 1994072832 net.cpp:96] Setting up accuracy
I0112 22:21:59.994842 1994072832 net.cpp:103] Top shape: 1 1 1 1 (1)
I0112 22:21:59.994846 1994072832 net.cpp:67] Creating Layer loss
I0112 22:21:59.994849 1994072832 net.cpp:394] loss <- ip3_ip3_0_split_1
I0112 22:21:59.994853 1994072832 net.cpp:394] loss <- label_mnist_1_split_1
I0112 22:21:59.994858 1994072832 net.cpp:356] loss -> loss
I0112 22:21:59.994863 1994072832 net.cpp:96] Setting up loss
I0112 22:21:59.994876 1994072832 net.cpp:103] Top shape: 1 1 1 1 (1)
I0112 22:21:59.994879 1994072832 net.cpp:109]     with loss weight 1
I0112 22:21:59.994921 1994072832 net.cpp:170] loss needs backward computation.
I0112 22:21:59.994928 1994072832 net.cpp:172] accuracy does not need backward computation.
I0112 22:21:59.994932 1994072832 net.cpp:170] ip3_ip3_0_split needs backward computation.
I0112 22:21:59.994935 1994072832 net.cpp:170] ip3 needs backward computation.
…
