…
solver_mode: GPU
random_seed: 1710
net_param {
  name: "LeNet"
  layers {
    top: "data"
    top: "label"
    name: "mnist"
    type: DATA
    data_param {
      source: "4S_tr_ldb"
      batch_size: 240
      backend: LEVELDB
    }
    include {
      phase: TRAIN
    }
    transform_param {
      scale: 0.00390625
    }
  }
  layers {
    top: "data"
    top: "label"
    name: "mnist"
    type: DATA
    data_param {
      source: "4S_te_ldb"
      batch_size: 100
      backend: LEVELDB
    }
    include {
      phase: TEST
    }
    transform_param {
      scale: 0.00390625
    }
  }
  layers {
    bottom: "data"
    top: "ip1"
    name: "ip1"
    type: INNER_PRODUCT
    blobs_lr: 1
    blobs_lr: 2
    inner_product_param {
      num_output: 300
      weight_filler {
        type: "xavier"
      }
      bias_filler {
        type: "constant"
      }
    }
  }
  layers {
    bottom: "ip1"
    top: "ip1"
    name: "relu1"
    type: RELU
  }
  layers {
    bottom: "ip1"
    top: "ip2"
    name: "ip2"
    type: INNER_PRODUCT
    blobs_lr: 1
    blobs_lr: 2
    inner_product_param {
      num_output: 300
      weight_filler {
        type: "xavier"
      }
      bias_filler {
        type: "constant"
      }
    }
  }
  layers {
    bottom: "ip2"
    top: "ip2"
    name: "relu2"
    type: RELU
  }
  layers {
    bottom: "ip2"
    top: "ip3"
    name: "ip3"
    type: INNER_PRODUCT
    blobs_lr: 1
    blobs_lr: 2
    inner_product_param {
      num_output: 10
      weight_filler {
        type: "xavier"
      }
      bias_filler {
        type: "constant"
      }
    }
  }
  layers {
    bottom: "ip3"
    bottom: "label"
    top: "accuracy"
    name: "accuracy"
    type: ACCURACY
  }
  layers {
    bottom: "ip3"
    bottom: "label"
    top: "loss"
    name: "loss"
    type: SOFTMAX_LOSS
  }
}
test_state {
  stage: "test-on-test-set"
}
I1230 23:03:15.474962 1994072832 solver.cpp:63] Creating training net specified in net_param.
I1230 23:03:15.475004 1994072832 net.cpp:275] The NetState phase (0) differed from the phase (1) specified by a rule in layer mnist
I1230 23:03:15.475028 1994072832 net.cpp:39] Initializing net from parameters:
name: "LeNet"
layers {
  top: "data"
  top: "label"
  name: "mnist"
  type: DATA
  data_param {
    source: "4S_tr_ldb"
    batch_size: 240
    backend: LEVELDB
  }
  include {
    phase: TRAIN
  }
  transform_param {
    scale: 0.00390625
  }
}
layers {
  bottom: "data"
  top: "ip1"
  name: "ip1"
  type: INNER_PRODUCT
  blobs_lr: 1
  blobs_lr: 2
  inner_product_param {
    num_output: 300
    weight_filler {
      type: "xavier"
    }
    bias_filler {
      type: "constant"
    }
  }
}
layers {
  bottom: "ip1"
  top: "ip1"
  name: "relu1"
  type: RELU
}
layers {
  bottom: "ip1"
  top: "ip2"
  name: "ip2"
  type: INNER_PRODUCT
  blobs_lr: 1
  blobs_lr: 2
  inner_product_param {
    num_output: 300
    weight_filler {
      type: "xavier"
    }
    bias_filler {
      type: "constant"
    }
  }
}
layers {
  bottom: "ip2"
  top: "ip2"
  name: "relu2"
  type: RELU
}
layers {
  bottom: "ip2"
  top: "ip3"
  name: "ip3"
  type: INNER_PRODUCT
  blobs_lr: 1
  blobs_lr: 2
  inner_product_param {
    num_output: 10
    weight_filler {
      type: "xavier"
    }
    bias_filler {
      type: "constant"
    }
  }
}
layers {
  bottom: "ip3"
  bottom: "label"
  top: "accuracy"
  name: "accuracy"
  type: ACCURACY
}
layers {
  bottom: "ip3"
  bottom: "label"
  top: "loss"
  name: "loss"
  type: SOFTMAX_LOSS
}
state {
  phase: TRAIN
}
I1230 23:03:15.475345 1994072832 net.cpp:67] Creating Layer mnist
I1230 23:03:15.475356 1994072832 net.cpp:356] mnist -> data
I1230 23:03:15.475384 1994072832 net.cpp:356] mnist -> label
I1230 23:03:15.475392 1994072832 net.cpp:96] Setting up mnist
I1230 23:03:15.475474 1994072832 data_layer.cpp:45] Opening leveldb 4S_tr_ldb
I1230 23:03:15.484755 1994072832 data_layer.cpp:128] output data size: 240,1,1,196
I1230 23:03:15.484922 1994072832 net.cpp:103] Top shape: 240 1 1 196 (47040)
I1230 23:03:15.484940 1994072832 net.cpp:103] Top shape: 240 1 1 1 (240)
I1230 23:03:15.484948 1994072832 net.cpp:67] Creating Layer label_mnist_1_split
I1230 23:03:15.484952 1994072832 net.cpp:394] label_mnist_1_split <- label
I1230 23:03:15.484971 1994072832 net.cpp:356] label_mnist_1_split -> label_mnist_1_split_0
I1230 23:03:15.484978 1994072832 net.cpp:356] label_mnist_1_split -> label_mnist_1_split_1
I1230 23:03:15.484983 1994072832 net.cpp:96] Setting up label_mnist_1_split
I1230 23:03:15.484987 1994072832 net.cpp:103] Top shape: 240 1 1 1 (240)
I1230 23:03:15.484992 1994072832 net.cpp:103] Top shape: 240 1 1 1 (240)
I1230 23:03:15.484999 1994072832 net.cpp:67] Creating Layer ip1
I1230 23:03:15.485013 1994072832 net.cpp:394] ip1 <- data
I1230 23:03:15.485018 1994072832 net.cpp:356] ip1 -> ip1
I1230 23:03:15.485023 1994072832 net.cpp:96] Setting up ip1
I1230 23:03:15.485538 1994072832 net.cpp:103] Top shape: 240 300 1 1 (72000)
I1230 23:03:15.485549 1994072832 net.cpp:67] Creating Layer relu1
I1230 23:03:15.485553 1994072832 net.cpp:394] relu1 <- ip1
I1230 23:03:15.485558 1994072832 net.cpp:345] relu1 -> ip1 (in-place)
I1230 23:03:15.485561 1994072832 net.cpp:96] Setting up relu1
I1230 23:03:15.485564 1994072832 net.cpp:103] Top shape: 240 300 1 1 (72000)
I1230 23:03:15.485573 1994072832 net.cpp:67] Creating Layer ip2
I1230 23:03:15.485575 1994072832 net.cpp:394] ip2 <- ip1
I1230 23:03:15.485590 1994072832 net.cpp:356] ip2 -> ip2
I1230 23:03:15.485595 1994072832 net.cpp:96] Setting up ip2
I1230 23:03:15.486121 1994072832 net.cpp:103] Top shape: 240 300 1 1 (72000)
I1230 23:03:15.486129 1994072832 net.cpp:67] Creating Layer relu2
I1230 23:03:15.486132 1994072832 net.cpp:394] relu2 <- ip2
I1230 23:03:15.486136 1994072832 net.cpp:345] relu2 -> ip2 (in-place)
I1230 23:03:15.486140 1994072832 net.cpp:96] Setting up relu2
I1230 23:03:15.486143 1994072832 net.cpp:103] Top shape: 240 300 1 1 (72000)
I1230 23:03:15.486150 1994072832 net.cpp:67] Creating Layer ip3
I1230 23:03:15.486153 1994072832 net.cpp:394] ip3 <- ip2
I1230 23:03:15.486157 1994072832 net.cpp:356] ip3 -> ip3
I1230 23:03:15.486171 1994072832 net.cpp:96] Setting up ip3
I1230 23:03:15.486202 1994072832 net.cpp:103] Top shape: 240 10 1 1 (2400)
I1230 23:03:15.486208 1994072832 net.cpp:67] Creating Layer ip3_ip3_0_split
I1230 23:03:15.486222 1994072832 net.cpp:394] ip3_ip3_0_split <- ip3
I1230 23:03:15.486225 1994072832 net.cpp:356] ip3_ip3_0_split -> ip3_ip3_0_split_0
I1230 23:03:15.486230 1994072832 net.cpp:356] ip3_ip3_0_split -> ip3_ip3_0_split_1
I1230 23:03:15.486235 1994072832 net.cpp:96] Setting up ip3_ip3_0_split
I1230 23:03:15.486248 1994072832 net.cpp:103] Top shape: 240 10 1 1 (2400)
I1230 23:03:15.486251 1994072832 net.cpp:103] Top shape: 240 10 1 1 (2400)
I1230 23:03:15.486258 1994072832 net.cpp:67] Creating Layer accuracy
I1230 23:03:15.486260 1994072832 net.cpp:394] accuracy <- ip3_ip3_0_split_0
I1230 23:03:15.486264 1994072832 net.cpp:394] accuracy <- label_mnist_1_split_0
I1230 23:03:15.486279 1994072832 net.cpp:356] accuracy -> accuracy
I1230 23:03:15.486282 1994072832 net.cpp:96] Setting up accuracy
I1230 23:03:15.486286 1994072832 net.cpp:103] Top shape: 1 1 1 1 (1)
I1230 23:03:15.486301 1994072832 net.cpp:67] Creating Layer loss
I1230 23:03:15.486304 1994072832 net.cpp:394] loss <- ip3_ip3_0_split_1
I1230 23:03:15.486309 1994072832 net.cpp:394] loss <- label_mnist_1_split_1
I1230 23:03:15.486312 1994072832 net.cpp:356] loss -> loss
I1230 23:03:15.486317 1994072832 net.cpp:96] Setting up loss
I1230 23:03:15.486325 1994072832 net.cpp:103] Top shape: 1 1 1 1 (1)
I1230 23:03:15.486336 1994072832 net.cpp:109]     with loss weight 1
I1230 23:03:15.486346 1994072832 net.cpp:170] loss needs backward computation.
I1230 23:03:15.486348 1994072832 net.cpp:172] accuracy does not need backward computation.
I1230 23:03:15.486374 1994072832 net.cpp:170] ip3_ip3_0_split needs backward computation.
I1230 23:03:15.486378 1994072832 net.cpp:170] ip3 needs backward computation.
…
I1230 23:03:15.486565 1994072832 net.cpp:220] Memory required for data: 1371848
I1230 23:03:15.486625 1994072832 solver.cpp:151] Creating test net (#0) specified by net_param
I1230 23:03:15.486644 1994072832 net.cpp:275] The NetState phase (1) differed from the phase (0) specified by a rule in layer mnist
I1230 23:03:15.486654 1994072832 net.cpp:39] Initializing net from parameters:
name: "LeNet"
layers {
  top: "data"
  top: "label"
  name: "mnist"
  type: DATA
  data_param {
    source: "4S_te_ldb"
    batch_size: 100
    backend: LEVELDB
  }
  include {
    phase: TEST
  }
  transform_param {
    scale: 0.00390625
  }
}
layers {
  bottom: "data"
  top: "ip1"
  name: "ip1"
  type: INNER_PRODUCT
  blobs_lr: 1
  blobs_lr: 2
  inner_product_param {
    num_output: 300
    weight_filler {
      type: "xavier"
    }
    bias_filler {
      type: "constant"
    }
  }
}
layers {
  bottom: "ip1"
  top: "ip1"
  name: "relu1"
  type: RELU
}
layers {
  bottom: "ip1"
  top: "ip2"
  name: "ip2"
  type: INNER_PRODUCT
  blobs_lr: 1
  blobs_lr: 2
  inner_product_param {
    num_output: 300
    weight_filler {
      type: "xavier"
    }
    bias_filler {
      type: "constant"
    }
  }
}
layers {
  bottom: "ip2"
  top: "ip2"
  name: "relu2"
  type: RELU
}
layers {
  bottom: "ip2"
  top: "ip3"
  name: "ip3"
  type: INNER_PRODUCT
  blobs_lr: 1
  blobs_lr: 2
  inner_product_param {
    num_output: 10
    weight_filler {
      type: "xavier"
    }
    bias_filler {
      type: "constant"
    }
  }
}
layers {
  bottom: "ip3"
  bottom: "label"
  top: "accuracy"
  name: "accuracy"
  type: ACCURACY
}
layers {
  bottom: "ip3"
  bottom: "label"
  top: "loss"
  name: "loss"
  type: SOFTMAX_LOSS
}
state {
  phase: TEST
  stage: "test-on-test-set"
}
I1230 23:03:15.486985 1994072832 net.cpp:67] Creating Layer mnist
I1230 23:03:15.487033 1994072832 net.cpp:356] mnist -> data
I1230 23:03:15.487042 1994072832 net.cpp:356] mnist -> label
I1230 23:03:15.487048 1994072832 net.cpp:96] Setting up mnist
I1230 23:03:15.487053 1994072832 data_layer.cpp:45] Opening leveldb 4S_te_ldb
I1230 23:03:15.488180 1994072832 data_layer.cpp:128] output data size: 100,1,1,196
I1230 23:03:15.488260 1994072832 net.cpp:103] Top shape: 100 1 1 196 (19600)
I1230 23:03:15.488265 1994072832 net.cpp:103] Top shape: 100 1 1 1 (100)
I1230 23:03:15.488281 1994072832 net.cpp:67] Creating Layer label_mnist_1_split
I1230 23:03:15.488284 1994072832 net.cpp:394] label_mnist_1_split <- label
I1230 23:03:15.488299 1994072832 net.cpp:356] label_mnist_1_split -> label_mnist_1_split_0
I1230 23:03:15.488306 1994072832 net.cpp:356] label_mnist_1_split -> label_mnist_1_split_1
I1230 23:03:15.488320 1994072832 net.cpp:96] Setting up label_mnist_1_split
I1230 23:03:15.488324 1994072832 net.cpp:103] Top shape: 100 1 1 1 (100)
I1230 23:03:15.488327 1994072832 net.cpp:103] Top shape: 100 1 1 1 (100)
I1230 23:03:15.488343 1994072832 net.cpp:67] Creating Layer ip1
I1230 23:03:15.488347 1994072832 net.cpp:394] ip1 <- data
I1230 23:03:15.488353 1994072832 net.cpp:356] ip1 -> ip1
I1230 23:03:15.488368 1994072832 net.cpp:96] Setting up ip1
I1230 23:03:15.488845 1994072832 net.cpp:103] Top shape: 100 300 1 1 (30000)
I1230 23:03:15.488857 1994072832 net.cpp:67] Creating Layer relu1
I1230 23:03:15.488860 1994072832 net.cpp:394] relu1 <- ip1
I1230 23:03:15.488864 1994072832 net.cpp:345] relu1 -> ip1 (in-place)
I1230 23:03:15.488868 1994072832 net.cpp:96] Setting up relu1
I1230 23:03:15.488873 1994072832 net.cpp:103] Top shape: 100 300 1 1 (30000)
I1230 23:03:15.488876 1994072832 net.cpp:67] Creating Layer ip2
I1230 23:03:15.488879 1994072832 net.cpp:394] ip2 <- ip1
I1230 23:03:15.488883 1994072832 net.cpp:356] ip2 -> ip2
I1230 23:03:15.488898 1994072832 net.cpp:96] Setting up ip2
I1230 23:03:15.489426 1994072832 net.cpp:103] Top shape: 100 300 1 1 (30000)
I1230 23:03:15.489434 1994072832 net.cpp:67] Creating Layer relu2
I1230 23:03:15.489437 1994072832 net.cpp:394] relu2 <- ip2
I1230 23:03:15.489441 1994072832 net.cpp:345] relu2 -> ip2 (in-place)
I1230 23:03:15.489445 1994072832 net.cpp:96] Setting up relu2
I1230 23:03:15.489449 1994072832 net.cpp:103] Top shape: 100 300 1 1 (30000)
I1230 23:03:15.489454 1994072832 net.cpp:67] Creating Layer ip3
I1230 23:03:15.489455 1994072832 net.cpp:394] ip3 <- ip2
I1230 23:03:15.489460 1994072832 net.cpp:356] ip3 -> ip3
I1230 23:03:15.489464 1994072832 net.cpp:96] Setting up ip3
I1230 23:03:15.489507 1994072832 net.cpp:103] Top shape: 100 10 1 1 (1000)
I1230 23:03:15.489514 1994072832 net.cpp:67] Creating Layer ip3_ip3_0_split
I1230 23:03:15.489527 1994072832 net.cpp:394] ip3_ip3_0_split <- ip3
I1230 23:03:15.489531 1994072832 net.cpp:356] ip3_ip3_0_split -> ip3_ip3_0_split_0
I1230 23:03:15.489537 1994072832 net.cpp:356] ip3_ip3_0_split -> ip3_ip3_0_split_1
I1230 23:03:15.489542 1994072832 net.cpp:96] Setting up ip3_ip3_0_split
I1230 23:03:15.489554 1994072832 net.cpp:103] Top shape: 100 10 1 1 (1000)
I1230 23:03:15.489557 1994072832 net.cpp:103] Top shape: 100 10 1 1 (1000)
I1230 23:03:15.489562 1994072832 net.cpp:67] Creating Layer accuracy
I1230 23:03:15.489564 1994072832 net.cpp:394] accuracy <- ip3_ip3_0_split_0
I1230 23:03:15.489568 1994072832 net.cpp:394] accuracy <- label_mnist_1_split_0
I1230 23:03:15.489573 1994072832 net.cpp:356] accuracy -> accuracy
I1230 23:03:15.489586 1994072832 net.cpp:96] Setting up accuracy
I1230 23:03:15.489589 1994072832 net.cpp:103] Top shape: 1 1 1 1 (1)
I1230 23:03:15.489595 1994072832 net.cpp:67] Creating Layer loss
I1230 23:03:15.489608 1994072832 net.cpp:394] loss <- ip3_ip3_0_split_1
I1230 23:03:15.489611 1994072832 net.cpp:394] loss <- label_mnist_1_split_1
I1230 23:03:15.489615 1994072832 net.cpp:356] loss -> loss
I1230 23:03:15.489619 1994072832 net.cpp:96] Setting up loss
I1230 23:03:15.489625 1994072832 net.cpp:103] Top shape: 1 1 1 1 (1)
I1230 23:03:15.489627 1994072832 net.cpp:109]     with loss weight 1
I1230 23:03:15.489644 1994072832 net.cpp:170] loss needs backward computation.
I1230 23:03:15.489646 1994072832 net.cpp:172] accuracy does not need backward computation.
I1230 23:03:15.489707 1994072832 net.cpp:170] ip3_ip3_0_split needs backward computation.
I1230 23:03:15.489717 1994072832 net.cpp:170] ip3 needs backward computation.
…
