…
solver_mode: GPU
random_seed: 1710
net_param {
  name: "LeNet"
  layers {
    top: "data"
    top: "label"
    name: "mnist"
    type: DATA
    data_param {
      source: "7s84r_tr_ldb"
      batch_size: 5040
      backend: LEVELDB
    }
    include {
      phase: TRAIN
    }
    transform_param {
      scale: 0.00390625
    }
  }
  layers {
    top: "data"
    top: "label"
    name: "mnist"
    type: DATA
    data_param {
      source: "7s84r_te_ldb"
      batch_size: 100
      backend: LEVELDB
    }
    include {
      phase: TEST
    }
    transform_param {
      scale: 0.00390625
    }
  }
  layers {
    bottom: "data"
    top: "ip1"
    name: "ip1"
    type: INNER_PRODUCT
    blobs_lr: 1
    blobs_lr: 2
    inner_product_param {
      num_output: 300
      weight_filler {
        type: "xavier"
      }
      bias_filler {
        type: "constant"
      }
    }
  }
  layers {
    bottom: "ip1"
    top: "ip1"
    name: "relu1"
    type: RELU
  }
  layers {
    bottom: "ip1"
    top: "ip2"
    name: "ip2"
    type: INNER_PRODUCT
    blobs_lr: 1
    blobs_lr: 2
    inner_product_param {
      num_output: 300
      weight_filler {
        type: "xavier"
      }
      bias_filler {
        type: "constant"
      }
    }
  }
  layers {
    bottom: "ip2"
    top: "ip2"
    name: "relu2"
    type: RELU
  }
  layers {
    bottom: "ip2"
    top: "ip3"
    name: "ip3"
    type: INNER_PRODUCT
    blobs_lr: 1
    blobs_lr: 2
    inner_product_param {
      num_output: 10
      weight_filler {
        type: "xavier"
      }
      bias_filler {
        type: "constant"
      }
    }
  }
  layers {
    bottom: "ip3"
    bottom: "label"
    top: "accuracy"
    name: "accuracy"
    type: ACCURACY
  }
  layers {
    bottom: "ip3"
    bottom: "label"
    top: "loss"
    name: "loss"
    type: SOFTMAX_LOSS
  }
}
test_state {
  stage: "test-on-test-set"
}
I0103 10:52:07.626556 1994072832 solver.cpp:63] Creating training net specified in net_param.
I0103 10:52:07.626967 1994072832 net.cpp:275] The NetState phase (0) differed from the phase (1) specified by a rule in layer mnist
I0103 10:52:07.627208 1994072832 net.cpp:39] Initializing net from parameters: 
name: "LeNet"
layers {
  top: "data"
  top: "label"
  name: "mnist"
  type: DATA
  data_param {
    source: "7s84r_tr_ldb"
    batch_size: 5040
    backend: LEVELDB
  }
  include {
    phase: TRAIN
  }
  transform_param {
    scale: 0.00390625
  }
}
layers {
  bottom: "data"
  top: "ip1"
  name: "ip1"
  type: INNER_PRODUCT
  blobs_lr: 1
  blobs_lr: 2
  inner_product_param {
    num_output: 300
    weight_filler {
      type: "xavier"
    }
    bias_filler {
      type: "constant"
    }
  }
}
layers {
  bottom: "ip1"
  top: "ip1"
  name: "relu1"
  type: RELU
}
layers {
  bottom: "ip1"
  top: "ip2"
  name: "ip2"
  type: INNER_PRODUCT
  blobs_lr: 1
  blobs_lr: 2
  inner_product_param {
    num_output: 300
    weight_filler {
      type: "xavier"
    }
    bias_filler {
      type: "constant"
    }
  }
}
layers {
  bottom: "ip2"
  top: "ip2"
  name: "relu2"
  type: RELU
}
layers {
  bottom: "ip2"
  top: "ip3"
  name: "ip3"
  type: INNER_PRODUCT
  blobs_lr: 1
  blobs_lr: 2
  inner_product_param {
    num_output: 10
    weight_filler {
      type: "xavier"
    }
    bias_filler {
      type: "constant"
    }
  }
}
layers {
  bottom: "ip3"
  bottom: "label"
  top: "accuracy"
  name: "accuracy"
  type: ACCURACY
}
layers {
  bottom: "ip3"
  bottom: "label"
  top: "loss"
  name: "loss"
  type: SOFTMAX_LOSS
}
state {
  phase: TRAIN
}
I0103 10:52:07.627437 1994072832 net.cpp:67] Creating Layer mnist
I0103 10:52:07.627447 1994072832 net.cpp:356] mnist -> data
I0103 10:52:07.627465 1994072832 net.cpp:356] mnist -> label
I0103 10:52:07.627473 1994072832 net.cpp:96] Setting up mnist
I0103 10:52:07.628082 1994072832 data_layer.cpp:45] Opening leveldb 7s84r_tr_ldb
I0103 10:52:07.736351 1994072832 data_layer.cpp:128] output data size: 5040,1,1,28
I0103 10:52:07.736448 1994072832 net.cpp:103] Top shape: 5040 1 1 28 (141120)
I0103 10:52:07.736454 1994072832 net.cpp:103] Top shape: 5040 1 1 1 (5040)
I0103 10:52:07.736464 1994072832 net.cpp:67] Creating Layer label_mnist_1_split
I0103 10:52:07.736469 1994072832 net.cpp:394] label_mnist_1_split <- label
I0103 10:52:07.736477 1994072832 net.cpp:356] label_mnist_1_split -> label_mnist_1_split_0
I0103 10:52:07.736485 1994072832 net.cpp:356] label_mnist_1_split -> label_mnist_1_split_1
I0103 10:52:07.736490 1994072832 net.cpp:96] Setting up label_mnist_1_split
I0103 10:52:07.736495 1994072832 net.cpp:103] Top shape: 5040 1 1 1 (5040)
I0103 10:52:07.736497 1994072832 net.cpp:103] Top shape: 5040 1 1 1 (5040)
I0103 10:52:07.736503 1994072832 net.cpp:67] Creating Layer ip1
I0103 10:52:07.736506 1994072832 net.cpp:394] ip1 <- data
I0103 10:52:07.736510 1994072832 net.cpp:356] ip1 -> ip1
I0103 10:52:07.736516 1994072832 net.cpp:96] Setting up ip1
I0103 10:52:07.736933 1994072832 net.cpp:103] Top shape: 5040 300 1 1 (1512000)
I0103 10:52:07.736969 1994072832 net.cpp:67] Creating Layer relu1
I0103 10:52:07.736974 1994072832 net.cpp:394] relu1 <- ip1
I0103 10:52:07.736999 1994072832 net.cpp:345] relu1 -> ip1 (in-place)
I0103 10:52:07.737004 1994072832 net.cpp:96] Setting up relu1
I0103 10:52:07.737007 1994072832 net.cpp:103] Top shape: 5040 300 1 1 (1512000)
I0103 10:52:07.737017 1994072832 net.cpp:67] Creating Layer ip2
I0103 10:52:07.737020 1994072832 net.cpp:394] ip2 <- ip1
I0103 10:52:07.737025 1994072832 net.cpp:356] ip2 -> ip2
I0103 10:52:07.737032 1994072832 net.cpp:96] Setting up ip2
I0103 10:52:07.737529 1994072832 net.cpp:103] Top shape: 5040 300 1 1 (1512000)
I0103 10:52:07.737551 1994072832 net.cpp:67] Creating Layer relu2
I0103 10:52:07.737555 1994072832 net.cpp:394] relu2 <- ip2
I0103 10:52:07.737558 1994072832 net.cpp:345] relu2 -> ip2 (in-place)
I0103 10:52:07.737562 1994072832 net.cpp:96] Setting up relu2
I0103 10:52:07.737576 1994072832 net.cpp:103] Top shape: 5040 300 1 1 (1512000)
I0103 10:52:07.737581 1994072832 net.cpp:67] Creating Layer ip3
I0103 10:52:07.737583 1994072832 net.cpp:394] ip3 <- ip2
I0103 10:52:07.737591 1994072832 net.cpp:356] ip3 -> ip3
I0103 10:52:07.737596 1994072832 net.cpp:96] Setting up ip3
I0103 10:52:07.737632 1994072832 net.cpp:103] Top shape: 5040 10 1 1 (50400)
I0103 10:52:07.737648 1994072832 net.cpp:67] Creating Layer ip3_ip3_0_split
I0103 10:52:07.737650 1994072832 net.cpp:394] ip3_ip3_0_split <- ip3
I0103 10:52:07.737654 1994072832 net.cpp:356] ip3_ip3_0_split -> ip3_ip3_0_split_0
I0103 10:52:07.737660 1994072832 net.cpp:356] ip3_ip3_0_split -> ip3_ip3_0_split_1
I0103 10:52:07.737665 1994072832 net.cpp:96] Setting up ip3_ip3_0_split
I0103 10:52:07.737669 1994072832 net.cpp:103] Top shape: 5040 10 1 1 (50400)
I0103 10:52:07.737673 1994072832 net.cpp:103] Top shape: 5040 10 1 1 (50400)
I0103 10:52:07.737679 1994072832 net.cpp:67] Creating Layer accuracy
I0103 10:52:07.737681 1994072832 net.cpp:394] accuracy <- ip3_ip3_0_split_0
I0103 10:52:07.737685 1994072832 net.cpp:394] accuracy <- label_mnist_1_split_0
I0103 10:52:07.737691 1994072832 net.cpp:356] accuracy -> accuracy
I0103 10:52:07.737696 1994072832 net.cpp:96] Setting up accuracy
I0103 10:52:07.737700 1994072832 net.cpp:103] Top shape: 1 1 1 1 (1)
I0103 10:52:07.737709 1994072832 net.cpp:67] Creating Layer loss
I0103 10:52:07.737711 1994072832 net.cpp:394] loss <- ip3_ip3_0_split_1
I0103 10:52:07.737715 1994072832 net.cpp:394] loss <- label_mnist_1_split_1
I0103 10:52:07.737720 1994072832 net.cpp:356] loss -> loss
I0103 10:52:07.737725 1994072832 net.cpp:96] Setting up loss
I0103 10:52:07.737735 1994072832 net.cpp:103] Top shape: 1 1 1 1 (1)
I0103 10:52:07.737738 1994072832 net.cpp:109]     with loss weight 1
I0103 10:52:07.738049 1994072832 net.cpp:170] loss needs backward computation.
I0103 10:52:07.738065 1994072832 net.cpp:172] accuracy does not need backward computation.
I0103 10:52:07.738087 1994072832 net.cpp:170] ip3_ip3_0_split needs backward computation.
I0103 10:52:07.738090 1994072832 net.cpp:170] ip3 needs backward computation.
…
I0103 10:52:07.738144 1994072832 net.cpp:220] Memory required for data: 25421768
I0103 10:52:07.738270 1994072832 solver.cpp:151] Creating test net (#0) specified by net_param
I0103 10:52:07.738287 1994072832 net.cpp:275] The NetState phase (1) differed from the phase (0) specified by a rule in layer mnist
I0103 10:52:07.738296 1994072832 net.cpp:39] Initializing net from parameters: 
name: "LeNet"
layers {
  top: "data"
  top: "label"
  name: "mnist"
  type: DATA
  data_param {
    source: "7s84r_te_ldb"
    batch_size: 100
    backend: LEVELDB
  }
  include {
    phase: TEST
  }
  transform_param {
    scale: 0.00390625
  }
}
layers {
  bottom: "data"
  top: "ip1"
  name: "ip1"
  type: INNER_PRODUCT
  blobs_lr: 1
  blobs_lr: 2
  inner_product_param {
    num_output: 300
    weight_filler {
      type: "xavier"
    }
    bias_filler {
      type: "constant"
    }
  }
}
layers {
  bottom: "ip1"
  top: "ip1"
  name: "relu1"
  type: RELU
}
layers {
  bottom: "ip1"
  top: "ip2"
  name: "ip2"
  type: INNER_PRODUCT
  blobs_lr: 1
  blobs_lr: 2
  inner_product_param {
    num_output: 300
    weight_filler {
      type: "xavier"
    }
    bias_filler {
      type: "constant"
    }
  }
}
layers {
  bottom: "ip2"
  top: "ip2"
  name: "relu2"
  type: RELU
}
layers {
  bottom: "ip2"
  top: "ip3"
  name: "ip3"
  type: INNER_PRODUCT
  blobs_lr: 1
  blobs_lr: 2
  inner_product_param {
    num_output: 10
    weight_filler {
      type: "xavier"
    }
    bias_filler {
      type: "constant"
    }
  }
}
layers {
  bottom: "ip3"
  bottom: "label"
  top: "accuracy"
  name: "accuracy"
  type: ACCURACY
}
layers {
  bottom: "ip3"
  bottom: "label"
  top: "loss"
  name: "loss"
  type: SOFTMAX_LOSS
}
state {
  phase: TEST
  stage: "test-on-test-set"
}
I0103 10:52:07.738589 1994072832 net.cpp:67] Creating Layer mnist
I0103 10:52:07.738596 1994072832 net.cpp:356] mnist -> data
I0103 10:52:07.738613 1994072832 net.cpp:356] mnist -> label
I0103 10:52:07.738628 1994072832 net.cpp:96] Setting up mnist
I0103 10:52:07.738632 1994072832 data_layer.cpp:45] Opening leveldb 7s84r_te_ldb
I0103 10:52:07.840800 1994072832 data_layer.cpp:128] output data size: 100,1,1,28
I0103 10:52:07.840841 1994072832 net.cpp:103] Top shape: 100 1 1 28 (2800)
I0103 10:52:07.840857 1994072832 net.cpp:103] Top shape: 100 1 1 1 (100)
I0103 10:52:07.840875 1994072832 net.cpp:67] Creating Layer label_mnist_1_split
I0103 10:52:07.840880 1994072832 net.cpp:394] label_mnist_1_split <- label
I0103 10:52:07.840886 1994072832 net.cpp:356] label_mnist_1_split -> label_mnist_1_split_0
I0103 10:52:07.840894 1994072832 net.cpp:356] label_mnist_1_split -> label_mnist_1_split_1
I0103 10:52:07.840900 1994072832 net.cpp:96] Setting up label_mnist_1_split
I0103 10:52:07.840904 1994072832 net.cpp:103] Top shape: 100 1 1 1 (100)
I0103 10:52:07.840908 1994072832 net.cpp:103] Top shape: 100 1 1 1 (100)
I0103 10:52:07.840916 1994072832 net.cpp:67] Creating Layer ip1
I0103 10:52:07.840920 1994072832 net.cpp:394] ip1 <- data
I0103 10:52:07.840925 1994072832 net.cpp:356] ip1 -> ip1
I0103 10:52:07.840950 1994072832 net.cpp:96] Setting up ip1
I0103 10:52:07.841035 1994072832 net.cpp:103] Top shape: 100 300 1 1 (30000)
I0103 10:52:07.841055 1994072832 net.cpp:67] Creating Layer relu1
I0103 10:52:07.841059 1994072832 net.cpp:394] relu1 <- ip1
I0103 10:52:07.841063 1994072832 net.cpp:345] relu1 -> ip1 (in-place)
I0103 10:52:07.841078 1994072832 net.cpp:96] Setting up relu1
I0103 10:52:07.841080 1994072832 net.cpp:103] Top shape: 100 300 1 1 (30000)
I0103 10:52:07.841086 1994072832 net.cpp:67] Creating Layer ip2
I0103 10:52:07.841089 1994072832 net.cpp:394] ip2 <- ip1
I0103 10:52:07.841106 1994072832 net.cpp:356] ip2 -> ip2
I0103 10:52:07.841112 1994072832 net.cpp:96] Setting up ip2
I0103 10:52:07.841814 1994072832 net.cpp:103] Top shape: 100 300 1 1 (30000)
I0103 10:52:07.841824 1994072832 net.cpp:67] Creating Layer relu2
I0103 10:52:07.841826 1994072832 net.cpp:394] relu2 <- ip2
I0103 10:52:07.841830 1994072832 net.cpp:345] relu2 -> ip2 (in-place)
I0103 10:52:07.841835 1994072832 net.cpp:96] Setting up relu2
I0103 10:52:07.841837 1994072832 net.cpp:103] Top shape: 100 300 1 1 (30000)
I0103 10:52:07.841841 1994072832 net.cpp:67] Creating Layer ip3
I0103 10:52:07.841845 1994072832 net.cpp:394] ip3 <- ip2
I0103 10:52:07.841858 1994072832 net.cpp:356] ip3 -> ip3
I0103 10:52:07.841863 1994072832 net.cpp:96] Setting up ip3
I0103 10:52:07.841907 1994072832 net.cpp:103] Top shape: 100 10 1 1 (1000)
I0103 10:52:07.841913 1994072832 net.cpp:67] Creating Layer ip3_ip3_0_split
I0103 10:52:07.841930 1994072832 net.cpp:394] ip3_ip3_0_split <- ip3
I0103 10:52:07.841934 1994072832 net.cpp:356] ip3_ip3_0_split -> ip3_ip3_0_split_0
I0103 10:52:07.841940 1994072832 net.cpp:356] ip3_ip3_0_split -> ip3_ip3_0_split_1
I0103 10:52:07.841955 1994072832 net.cpp:96] Setting up ip3_ip3_0_split
I0103 10:52:07.841959 1994072832 net.cpp:103] Top shape: 100 10 1 1 (1000)
I0103 10:52:07.841963 1994072832 net.cpp:103] Top shape: 100 10 1 1 (1000)
I0103 10:52:07.841976 1994072832 net.cpp:67] Creating Layer accuracy
I0103 10:52:07.841979 1994072832 net.cpp:394] accuracy <- ip3_ip3_0_split_0
I0103 10:52:07.841984 1994072832 net.cpp:394] accuracy <- label_mnist_1_split_0
I0103 10:52:07.841989 1994072832 net.cpp:356] accuracy -> accuracy
I0103 10:52:07.841994 1994072832 net.cpp:96] Setting up accuracy
I0103 10:52:07.842012 1994072832 net.cpp:103] Top shape: 1 1 1 1 (1)
I0103 10:52:07.842020 1994072832 net.cpp:67] Creating Layer loss
I0103 10:52:07.842022 1994072832 net.cpp:394] loss <- ip3_ip3_0_split_1
I0103 10:52:07.842026 1994072832 net.cpp:394] loss <- label_mnist_1_split_1
I0103 10:52:07.842031 1994072832 net.cpp:356] loss -> loss
I0103 10:52:07.842046 1994072832 net.cpp:96] Setting up loss
I0103 10:52:07.842051 1994072832 net.cpp:103] Top shape: 1 1 1 1 (1)
I0103 10:52:07.842054 1994072832 net.cpp:109]     with loss weight 1
I0103 10:52:07.842072 1994072832 net.cpp:170] loss needs backward computation.
I0103 10:52:07.842074 1994072832 net.cpp:172] accuracy does not need backward computation.
I0103 10:52:07.842077 1994072832 net.cpp:170] ip3_ip3_0_split needs backward computation.
I0103 10:52:07.842080 1994072832 net.cpp:170] ip3 needs backward computation.
…
