…
solver_mode: GPU
random_seed: 1710
net_param {
  name: "LeNet"
  layers {
    top: "data"
    top: "label"
    name: "mnist"
    type: DATA
    data_param {
      source: "8S_tr_ldb"
      batch_size: 480
      backend: LEVELDB
    }
    include {
      phase: TRAIN
    }
    transform_param {
      scale: 0.00390625
    }
  }
  layers {
    top: "data"
    top: "label"
    name: "mnist"
    type: DATA
    data_param {
      source: "8S_te_ldb"
      batch_size: 100
      backend: LEVELDB
    }
    include {
      phase: TEST
    }
    transform_param {
      scale: 0.00390625
    }
  }
  layers {
    bottom: "data"
    top: "ip1"
    name: "ip1"
    type: INNER_PRODUCT
    blobs_lr: 1
    blobs_lr: 2
    inner_product_param {
      num_output: 300
      weight_filler {
        type: "xavier"
      }
      bias_filler {
        type: "constant"
      }
    }
  }
  layers {
    bottom: "ip1"
    top: "ip1"
    name: "relu1"
    type: RELU
  }
  layers {
    bottom: "ip1"
    top: "ip2"
    name: "ip2"
    type: INNER_PRODUCT
    blobs_lr: 1
    blobs_lr: 2
    inner_product_param {
      num_output: 300
      weight_filler {
        type: "xavier"
      }
      bias_filler {
        type: "constant"
      }
    }
  }
  layers {
    bottom: "ip2"
    top: "ip2"
    name: "relu2"
    type: RELU
  }
  layers {
    bottom: "ip2"
    top: "ip3"
    name: "ip3"
    type: INNER_PRODUCT
    blobs_lr: 1
    blobs_lr: 2
    inner_product_param {
      num_output: 10
      weight_filler {
        type: "xavier"
      }
      bias_filler {
        type: "constant"
      }
    }
  }
  layers {
    bottom: "ip3"
    bottom: "label"
    top: "accuracy"
    name: "accuracy"
    type: ACCURACY
  }
  layers {
    bottom: "ip3"
    bottom: "label"
    top: "loss"
    name: "loss"
    type: SOFTMAX_LOSS
  }
}
test_state {
  stage: "test-on-test-set"
}
I0101 01:59:35.048413 1994072832 solver.cpp:63] Creating training net specified in net_param.
I0101 01:59:35.048451 1994072832 net.cpp:275] The NetState phase (0) differed from the phase (1) specified by a rule in layer mnist
I0101 01:59:35.048465 1994072832 net.cpp:39] Initializing net from parameters:
name: "LeNet"
layers {
  top: "data"
  top: "label"
  name: "mnist"
  type: DATA
  data_param {
    source: "8S_tr_ldb"
    batch_size: 480
    backend: LEVELDB
  }
  include {
    phase: TRAIN
  }
  transform_param {
    scale: 0.00390625
  }
}
layers {
  bottom: "data"
  top: "ip1"
  name: "ip1"
  type: INNER_PRODUCT
  blobs_lr: 1
  blobs_lr: 2
  inner_product_param {
    num_output: 300
    weight_filler {
      type: "xavier"
    }
    bias_filler {
      type: "constant"
    }
  }
}
layers {
  bottom: "ip1"
  top: "ip1"
  name: "relu1"
  type: RELU
}
layers {
  bottom: "ip1"
  top: "ip2"
  name: "ip2"
  type: INNER_PRODUCT
  blobs_lr: 1
  blobs_lr: 2
  inner_product_param {
    num_output: 300
    weight_filler {
      type: "xavier"
    }
    bias_filler {
      type: "constant"
    }
  }
}
layers {
  bottom: "ip2"
  top: "ip2"
  name: "relu2"
  type: RELU
}
layers {
  bottom: "ip2"
  top: "ip3"
  name: "ip3"
  type: INNER_PRODUCT
  blobs_lr: 1
  blobs_lr: 2
  inner_product_param {
    num_output: 10
    weight_filler {
      type: "xavier"
    }
    bias_filler {
      type: "constant"
    }
  }
}
layers {
  bottom: "ip3"
  bottom: "label"
  top: "accuracy"
  name: "accuracy"
  type: ACCURACY
}
layers {
  bottom: "ip3"
  bottom: "label"
  top: "loss"
  name: "loss"
  type: SOFTMAX_LOSS
}
state {
  phase: TRAIN
}
I0101 01:59:35.048805 1994072832 net.cpp:67] Creating Layer mnist
I0101 01:59:35.048816 1994072832 net.cpp:356] mnist -> data
I0101 01:59:35.048841 1994072832 net.cpp:356] mnist -> label
I0101 01:59:35.048848 1994072832 net.cpp:96] Setting up mnist
I0101 01:59:35.048931 1994072832 data_layer.cpp:45] Opening leveldb 8S_tr_ldb
I0101 01:59:35.058040 1994072832 data_layer.cpp:128] output data size: 480,1,1,196
I0101 01:59:35.058118 1994072832 net.cpp:103] Top shape: 480 1 1 196 (94080)
I0101 01:59:35.058135 1994072832 net.cpp:103] Top shape: 480 1 1 1 (480)
I0101 01:59:35.058154 1994072832 net.cpp:67] Creating Layer label_mnist_1_split
I0101 01:59:35.058158 1994072832 net.cpp:394] label_mnist_1_split <- label
I0101 01:59:35.058176 1994072832 net.cpp:356] label_mnist_1_split -> label_mnist_1_split_0
I0101 01:59:35.058184 1994072832 net.cpp:356] label_mnist_1_split -> label_mnist_1_split_1
I0101 01:59:35.058189 1994072832 net.cpp:96] Setting up label_mnist_1_split
I0101 01:59:35.058194 1994072832 net.cpp:103] Top shape: 480 1 1 1 (480)
I0101 01:59:35.058197 1994072832 net.cpp:103] Top shape: 480 1 1 1 (480)
I0101 01:59:35.058205 1994072832 net.cpp:67] Creating Layer ip1
I0101 01:59:35.058209 1994072832 net.cpp:394] ip1 <- data
I0101 01:59:35.058224 1994072832 net.cpp:356] ip1 -> ip1
I0101 01:59:35.058230 1994072832 net.cpp:96] Setting up ip1
I0101 01:59:35.058727 1994072832 net.cpp:103] Top shape: 480 300 1 1 (144000)
I0101 01:59:35.058748 1994072832 net.cpp:67] Creating Layer relu1
I0101 01:59:35.058751 1994072832 net.cpp:394] relu1 <- ip1
I0101 01:59:35.058755 1994072832 net.cpp:345] relu1 -> ip1 (in-place)
I0101 01:59:35.058760 1994072832 net.cpp:96] Setting up relu1
I0101 01:59:35.058763 1994072832 net.cpp:103] Top shape: 480 300 1 1 (144000)
I0101 01:59:35.058769 1994072832 net.cpp:67] Creating Layer ip2
I0101 01:59:35.058781 1994072832 net.cpp:394] ip2 <- ip1
I0101 01:59:35.058789 1994072832 net.cpp:356] ip2 -> ip2
I0101 01:59:35.058794 1994072832 net.cpp:96] Setting up ip2
I0101 01:59:35.059553 1994072832 net.cpp:103] Top shape: 480 300 1 1 (144000)
I0101 01:59:35.059569 1994072832 net.cpp:67] Creating Layer relu2
I0101 01:59:35.059574 1994072832 net.cpp:394] relu2 <- ip2
I0101 01:59:35.059581 1994072832 net.cpp:345] relu2 -> ip2 (in-place)
I0101 01:59:35.059587 1994072832 net.cpp:96] Setting up relu2
I0101 01:59:35.059589 1994072832 net.cpp:103] Top shape: 480 300 1 1 (144000)
I0101 01:59:35.059594 1994072832 net.cpp:67] Creating Layer ip3
I0101 01:59:35.059597 1994072832 net.cpp:394] ip3 <- ip2
I0101 01:59:35.059612 1994072832 net.cpp:356] ip3 -> ip3
I0101 01:59:35.059617 1994072832 net.cpp:96] Setting up ip3
I0101 01:59:35.059700 1994072832 net.cpp:103] Top shape: 480 10 1 1 (4800)
I0101 01:59:35.059716 1994072832 net.cpp:67] Creating Layer ip3_ip3_0_split
I0101 01:59:35.059720 1994072832 net.cpp:394] ip3_ip3_0_split <- ip3
I0101 01:59:35.059725 1994072832 net.cpp:356] ip3_ip3_0_split -> ip3_ip3_0_split_0
I0101 01:59:35.059732 1994072832 net.cpp:356] ip3_ip3_0_split -> ip3_ip3_0_split_1
I0101 01:59:35.059738 1994072832 net.cpp:96] Setting up ip3_ip3_0_split
I0101 01:59:35.059742 1994072832 net.cpp:103] Top shape: 480 10 1 1 (4800)
I0101 01:59:35.059746 1994072832 net.cpp:103] Top shape: 480 10 1 1 (4800)
I0101 01:59:35.059751 1994072832 net.cpp:67] Creating Layer accuracy
I0101 01:59:35.059754 1994072832 net.cpp:394] accuracy <- ip3_ip3_0_split_0
I0101 01:59:35.059757 1994072832 net.cpp:394] accuracy <- label_mnist_1_split_0
I0101 01:59:35.059767 1994072832 net.cpp:356] accuracy -> accuracy
I0101 01:59:35.059772 1994072832 net.cpp:96] Setting up accuracy
I0101 01:59:35.059775 1994072832 net.cpp:103] Top shape: 1 1 1 1 (1)
I0101 01:59:35.059783 1994072832 net.cpp:67] Creating Layer loss
I0101 01:59:35.059787 1994072832 net.cpp:394] loss <- ip3_ip3_0_split_1
I0101 01:59:35.059790 1994072832 net.cpp:394] loss <- label_mnist_1_split_1
I0101 01:59:35.059823 1994072832 net.cpp:356] loss -> loss
I0101 01:59:35.059831 1994072832 net.cpp:96] Setting up loss
I0101 01:59:35.059842 1994072832 net.cpp:103] Top shape: 1 1 1 1 (1)
I0101 01:59:35.059846 1994072832 net.cpp:109]     with loss weight 1
I0101 01:59:35.059855 1994072832 net.cpp:170] loss needs backward computation.
I0101 01:59:35.059859 1994072832 net.cpp:172] accuracy does not need backward computation.
I0101 01:59:35.059880 1994072832 net.cpp:170] ip3_ip3_0_split needs backward computation.
I0101 01:59:35.059885 1994072832 net.cpp:170] ip3 needs backward computation.
…
I0101 01:59:35.059927 1994072832 net.cpp:220] Memory required for data: 2743688
I0101 01:59:35.059981 1994072832 solver.cpp:151] Creating test net (#0) specified by net_param
I0101 01:59:35.060000 1994072832 net.cpp:275] The NetState phase (1) differed from the phase (0) specified by a rule in layer mnist
I0101 01:59:35.060010 1994072832 net.cpp:39] Initializing net from parameters:
name: "LeNet"
layers {
  top: "data"
  top: "label"
  name: "mnist"
  type: DATA
  data_param {
    source: "8S_te_ldb"
    batch_size: 100
    backend: LEVELDB
  }
  include {
    phase: TEST
  }
  transform_param {
    scale: 0.00390625
  }
}
layers {
  bottom: "data"
  top: "ip1"
  name: "ip1"
  type: INNER_PRODUCT
  blobs_lr: 1
  blobs_lr: 2
  inner_product_param {
    num_output: 300
    weight_filler {
      type: "xavier"
    }
    bias_filler {
      type: "constant"
    }
  }
}
layers {
  bottom: "ip1"
  top: "ip1"
  name: "relu1"
  type: RELU
}
layers {
  bottom: "ip1"
  top: "ip2"
  name: "ip2"
  type: INNER_PRODUCT
  blobs_lr: 1
  blobs_lr: 2
  inner_product_param {
    num_output: 300
    weight_filler {
      type: "xavier"
    }
    bias_filler {
      type: "constant"
    }
  }
}
layers {
  bottom: "ip2"
  top: "ip2"
  name: "relu2"
  type: RELU
}
layers {
  bottom: "ip2"
  top: "ip3"
  name: "ip3"
  type: INNER_PRODUCT
  blobs_lr: 1
  blobs_lr: 2
  inner_product_param {
    num_output: 10
    weight_filler {
      type: "xavier"
    }
    bias_filler {
      type: "constant"
    }
  }
}
layers {
  bottom: "ip3"
  bottom: "label"
  top: "accuracy"
  name: "accuracy"
  type: ACCURACY
}
layers {
  bottom: "ip3"
  bottom: "label"
  top: "loss"
  name: "loss"
  type: SOFTMAX_LOSS
}
state {
  phase: TEST
  stage: "test-on-test-set"
}
I0101 01:59:35.060356 1994072832 net.cpp:67] Creating Layer mnist
I0101 01:59:35.060374 1994072832 net.cpp:356] mnist -> data
I0101 01:59:35.060382 1994072832 net.cpp:356] mnist -> label
I0101 01:59:35.060389 1994072832 net.cpp:96] Setting up mnist
I0101 01:59:35.060392 1994072832 data_layer.cpp:45] Opening leveldb 8S_te_ldb
I0101 01:59:35.061663 1994072832 data_layer.cpp:128] output data size: 100,1,1,196
I0101 01:59:35.061732 1994072832 net.cpp:103] Top shape: 100 1 1 196 (19600)
I0101 01:59:35.061738 1994072832 net.cpp:103] Top shape: 100 1 1 1 (100)
I0101 01:59:35.061743 1994072832 net.cpp:67] Creating Layer label_mnist_1_split
I0101 01:59:35.061756 1994072832 net.cpp:394] label_mnist_1_split <- label
I0101 01:59:35.061764 1994072832 net.cpp:356] label_mnist_1_split -> label_mnist_1_split_0
I0101 01:59:35.061770 1994072832 net.cpp:356] label_mnist_1_split -> label_mnist_1_split_1
I0101 01:59:35.061784 1994072832 net.cpp:96] Setting up label_mnist_1_split
I0101 01:59:35.061789 1994072832 net.cpp:103] Top shape: 100 1 1 1 (100)
I0101 01:59:35.061792 1994072832 net.cpp:103] Top shape: 100 1 1 1 (100)
I0101 01:59:35.061797 1994072832 net.cpp:67] Creating Layer ip1
I0101 01:59:35.061800 1994072832 net.cpp:394] ip1 <- data
I0101 01:59:35.061815 1994072832 net.cpp:356] ip1 -> ip1
I0101 01:59:35.061823 1994072832 net.cpp:96] Setting up ip1
I0101 01:59:35.062310 1994072832 net.cpp:103] Top shape: 100 300 1 1 (30000)
I0101 01:59:35.062322 1994072832 net.cpp:67] Creating Layer relu1
I0101 01:59:35.062325 1994072832 net.cpp:394] relu1 <- ip1
I0101 01:59:35.062330 1994072832 net.cpp:345] relu1 -> ip1 (in-place)
I0101 01:59:35.062335 1994072832 net.cpp:96] Setting up relu1
I0101 01:59:35.062338 1994072832 net.cpp:103] Top shape: 100 300 1 1 (30000)
I0101 01:59:35.062345 1994072832 net.cpp:67] Creating Layer ip2
I0101 01:59:35.062350 1994072832 net.cpp:394] ip2 <- ip1
I0101 01:59:35.062363 1994072832 net.cpp:356] ip2 -> ip2
I0101 01:59:35.062368 1994072832 net.cpp:96] Setting up ip2
I0101 01:59:35.063060 1994072832 net.cpp:103] Top shape: 100 300 1 1 (30000)
I0101 01:59:35.063069 1994072832 net.cpp:67] Creating Layer relu2
I0101 01:59:35.063072 1994072832 net.cpp:394] relu2 <- ip2
I0101 01:59:35.063076 1994072832 net.cpp:345] relu2 -> ip2 (in-place)
I0101 01:59:35.063081 1994072832 net.cpp:96] Setting up relu2
I0101 01:59:35.063083 1994072832 net.cpp:103] Top shape: 100 300 1 1 (30000)
I0101 01:59:35.063088 1994072832 net.cpp:67] Creating Layer ip3
I0101 01:59:35.063091 1994072832 net.cpp:394] ip3 <- ip2
I0101 01:59:35.063097 1994072832 net.cpp:356] ip3 -> ip3
I0101 01:59:35.063102 1994072832 net.cpp:96] Setting up ip3
I0101 01:59:35.063145 1994072832 net.cpp:103] Top shape: 100 10 1 1 (1000)
I0101 01:59:35.063161 1994072832 net.cpp:67] Creating Layer ip3_ip3_0_split
I0101 01:59:35.063164 1994072832 net.cpp:394] ip3_ip3_0_split <- ip3
I0101 01:59:35.063169 1994072832 net.cpp:356] ip3_ip3_0_split -> ip3_ip3_0_split_0
I0101 01:59:35.063174 1994072832 net.cpp:356] ip3_ip3_0_split -> ip3_ip3_0_split_1
I0101 01:59:35.063179 1994072832 net.cpp:96] Setting up ip3_ip3_0_split
I0101 01:59:35.063192 1994072832 net.cpp:103] Top shape: 100 10 1 1 (1000)
I0101 01:59:35.063195 1994072832 net.cpp:103] Top shape: 100 10 1 1 (1000)
I0101 01:59:35.063199 1994072832 net.cpp:67] Creating Layer accuracy
I0101 01:59:35.063202 1994072832 net.cpp:394] accuracy <- ip3_ip3_0_split_0
I0101 01:59:35.063205 1994072832 net.cpp:394] accuracy <- label_mnist_1_split_0
I0101 01:59:35.063222 1994072832 net.cpp:356] accuracy -> accuracy
I0101 01:59:35.063226 1994072832 net.cpp:96] Setting up accuracy
I0101 01:59:35.063230 1994072832 net.cpp:103] Top shape: 1 1 1 1 (1)
I0101 01:59:35.063243 1994072832 net.cpp:67] Creating Layer loss
I0101 01:59:35.063246 1994072832 net.cpp:394] loss <- ip3_ip3_0_split_1
I0101 01:59:35.063251 1994072832 net.cpp:394] loss <- label_mnist_1_split_1
I0101 01:59:35.063254 1994072832 net.cpp:356] loss -> loss
I0101 01:59:35.063258 1994072832 net.cpp:96] Setting up loss
I0101 01:59:35.063263 1994072832 net.cpp:103] Top shape: 1 1 1 1 (1)
I0101 01:59:35.063277 1994072832 net.cpp:109]     with loss weight 1
I0101 01:59:35.063282 1994072832 net.cpp:170] loss needs backward computation.
I0101 01:59:35.063344 1994072832 net.cpp:172] accuracy does not need backward computation.
I0101 01:59:35.063351 1994072832 net.cpp:170] ip3_ip3_0_split needs backward computation.
I0101 01:59:35.063364 1994072832 net.cpp:170] ip3 needs backward computation.
…
