…
snapshot_prefix: ".lenet"
solver_mode: GPU
net_param {
  name: "LeNet"
  layers {
    top: "data"
    top: "label"
    name: "mnist"
    type: DATA
    data_param {
      source: "mnist_tr_ldb"
      batch_size: 60
      backend: LEVELDB
    }
    include {
      phase: TRAIN
    }
    transform_param {
      scale: 0.00390625
    }
  }
  layers {
    top: "data"
    top: "label"
    name: "mnist"
    type: DATA
    data_param {
      source: "mnist_te_ldb"
      batch_size: 100
      backend: LEVELDB
    }
    include {
      phase: TEST
    }
    transform_param {
      scale: 0.00390625
    }
  }
  layers {
    bottom: "data"
    top: "conv1"
    name: "conv1"
    type: CONVOLUTION
    blobs_lr: 1
    blobs_lr: 2
    convolution_param {
      num_output: 20
      kernel_size: 5
      stride: 1
      weight_filler {
        type: "xavier"
      }
      bias_filler {
        type: "constant"
      }
    }
  }
  layers {
    bottom: "conv1"
    top: "pool1"
    name: "pool1"
    type: POOLING
    pooling_param {
      pool: MAX
      kernel_size: 2
      stride: 2
    }
  }
  layers {
    bottom: "pool1"
    top: "conv2"
    name: "conv2"
    type: CONVOLUTION
    blobs_lr: 1
    blobs_lr: 2
    convolution_param {
      num_output: 50
      kernel_size: 5
      stride: 1
      weight_filler {
        type: "xavier"
      }
      bias_filler {
        type: "constant"
      }
    }
  }
  layers {
    bottom: "conv2"
    top: "pool2"
    name: "pool2"
    type: POOLING
    pooling_param {
      pool: MAX
      kernel_size: 2
      stride: 2
    }
  }
  layers {
    bottom: "pool2"
    top: "ip1"
    name: "ip1"
    type: INNER_PRODUCT
    blobs_lr: 1
    blobs_lr: 2
    inner_product_param {
      num_output: 500
      weight_filler {
        type: "xavier"
      }
      bias_filler {
        type: "constant"
      }
    }
  }
  layers {
    bottom: "ip1"
    top: "ip1"
    name: "relu1"
    type: RELU
  }
  layers {
    bottom: "ip1"
    top: "ip2"
    name: "ip2"
    type: INNER_PRODUCT
    blobs_lr: 1
    blobs_lr: 2
    inner_product_param {
      num_output: 10
      weight_filler {
        type: "xavier"
      }
      bias_filler {
        type: "constant"
      }
    }
  }
  layers {
    bottom: "ip2"
    bottom: "label"
    top: "accuracy"
    name: "accuracy"
    type: ACCURACY
    include {
      phase: TEST
    }
  }
  layers {
    bottom: "ip2"
    bottom: "label"
    top: "loss"
    name: "loss"
    type: SOFTMAX_LOSS
  }
}
I0109 10:48:59.175674 1994072832 solver.cpp:63] Creating training net specified in net_param.
I0109 10:48:59.175729 1994072832 net.cpp:275] The NetState phase (0) differed from the phase (1) specified by a rule in layer mnist
I0109 10:48:59.175740 1994072832 net.cpp:275] The NetState phase (0) differed from the phase (1) specified by a rule in layer accuracy
I0109 10:48:59.175755 1994072832 net.cpp:39] Initializing net from parameters: 
name: "LeNet"
layers {
  top: "data"
  top: "label"
  name: "mnist"
  type: DATA
  data_param {
    source: "mnist_tr_ldb"
    batch_size: 60
    backend: LEVELDB
  }
  include {
    phase: TRAIN
  }
  transform_param {
    scale: 0.00390625
  }
}
layers {
  bottom: "data"
  top: "conv1"
  name: "conv1"
  type: CONVOLUTION
  blobs_lr: 1
  blobs_lr: 2
  convolution_param {
    num_output: 20
    kernel_size: 5
    stride: 1
    weight_filler {
      type: "xavier"
    }
    bias_filler {
      type: "constant"
    }
  }
}
layers {
  bottom: "conv1"
  top: "pool1"
  name: "pool1"
  type: POOLING
  pooling_param {
    pool: MAX
    kernel_size: 2
    stride: 2
  }
}
layers {
  bottom: "pool1"
  top: "conv2"
  name: "conv2"
  type: CONVOLUTION
  blobs_lr: 1
  blobs_lr: 2
  convolution_param {
    num_output: 50
    kernel_size: 5
    stride: 1
    weight_filler {
      type: "xavier"
    }
    bias_filler {
      type: "constant"
    }
  }
}
layers {
  bottom: "conv2"
  top: "pool2"
  name: "pool2"
  type: POOLING
  pooling_param {
    pool: MAX
    kernel_size: 2
    stride: 2
  }
}
layers {
  bottom: "pool2"
  top: "ip1"
  name: "ip1"
  type: INNER_PRODUCT
  blobs_lr: 1
  blobs_lr: 2
  inner_product_param {
    num_output: 500
    weight_filler {
      type: "xavier"
    }
    bias_filler {
      type: "constant"
    }
  }
}
layers {
  bottom: "ip1"
  top: "ip1"
  name: "relu1"
  type: RELU
}
layers {
  bottom: "ip1"
  top: "ip2"
  name: "ip2"
  type: INNER_PRODUCT
  blobs_lr: 1
  blobs_lr: 2
  inner_product_param {
    num_output: 10
    weight_filler {
      type: "xavier"
    }
    bias_filler {
      type: "constant"
    }
  }
}
layers {
  bottom: "ip2"
  bottom: "label"
  top: "loss"
  name: "loss"
  type: SOFTMAX_LOSS
}
state {
  phase: TRAIN
}
I0109 10:48:59.176054 1994072832 net.cpp:67] Creating Layer mnist
I0109 10:48:59.176062 1994072832 net.cpp:356] mnist -> data
I0109 10:48:59.176096 1994072832 net.cpp:356] mnist -> label
I0109 10:48:59.176103 1994072832 net.cpp:96] Setting up mnist
I0109 10:48:59.176132 1994072832 data_layer.cpp:45] Opening leveldb mnist_tr_ldb
I0109 10:48:59.241505 1994072832 data_layer.cpp:128] output data size: 60,1,28,28
I0109 10:48:59.243109 1994072832 net.cpp:103] Top shape: 60 1 28 28 (47040)
I0109 10:48:59.243123 1994072832 net.cpp:103] Top shape: 60 1 1 1 (60)
I0109 10:48:59.243144 1994072832 net.cpp:67] Creating Layer conv1
I0109 10:48:59.243147 1994072832 net.cpp:394] conv1 <- data
I0109 10:48:59.243156 1994072832 net.cpp:356] conv1 -> conv1
I0109 10:48:59.243166 1994072832 net.cpp:96] Setting up conv1
I0109 10:48:59.248839 1994072832 net.cpp:103] Top shape: 60 20 24 24 (691200)
I0109 10:48:59.248868 1994072832 net.cpp:67] Creating Layer pool1
I0109 10:48:59.248873 1994072832 net.cpp:394] pool1 <- conv1
I0109 10:48:59.248879 1994072832 net.cpp:356] pool1 -> pool1
I0109 10:48:59.248888 1994072832 net.cpp:96] Setting up pool1
I0109 10:48:59.249142 1994072832 net.cpp:103] Top shape: 60 20 12 12 (172800)
I0109 10:48:59.249161 1994072832 net.cpp:67] Creating Layer conv2
I0109 10:48:59.249166 1994072832 net.cpp:394] conv2 <- pool1
I0109 10:48:59.249198 1994072832 net.cpp:356] conv2 -> conv2
I0109 10:48:59.249219 1994072832 net.cpp:96] Setting up conv2
I0109 10:48:59.249387 1994072832 net.cpp:103] Top shape: 60 50 8 8 (192000)
I0109 10:48:59.249397 1994072832 net.cpp:67] Creating Layer pool2
I0109 10:48:59.249400 1994072832 net.cpp:394] pool2 <- conv2
I0109 10:48:59.249423 1994072832 net.cpp:356] pool2 -> pool2
I0109 10:48:59.249429 1994072832 net.cpp:96] Setting up pool2
I0109 10:48:59.249439 1994072832 net.cpp:103] Top shape: 60 50 4 4 (48000)
I0109 10:48:59.249455 1994072832 net.cpp:67] Creating Layer ip1
I0109 10:48:59.249459 1994072832 net.cpp:394] ip1 <- pool2
I0109 10:48:59.249476 1994072832 net.cpp:356] ip1 -> ip1
I0109 10:48:59.249490 1994072832 net.cpp:96] Setting up ip1
I0109 10:48:59.252424 1994072832 net.cpp:103] Top shape: 60 500 1 1 (30000)
I0109 10:48:59.252441 1994072832 net.cpp:67] Creating Layer relu1
I0109 10:48:59.252445 1994072832 net.cpp:394] relu1 <- ip1
I0109 10:48:59.252459 1994072832 net.cpp:345] relu1 -> ip1 (in-place)
I0109 10:48:59.252463 1994072832 net.cpp:96] Setting up relu1
I0109 10:48:59.252467 1994072832 net.cpp:103] Top shape: 60 500 1 1 (30000)
I0109 10:48:59.252473 1994072832 net.cpp:67] Creating Layer ip2
I0109 10:48:59.252476 1994072832 net.cpp:394] ip2 <- ip1
I0109 10:48:59.252491 1994072832 net.cpp:356] ip2 -> ip2
I0109 10:48:59.252497 1994072832 net.cpp:96] Setting up ip2
I0109 10:48:59.252542 1994072832 net.cpp:103] Top shape: 60 10 1 1 (600)
I0109 10:48:59.252889 1994072832 net.cpp:67] Creating Layer loss
I0109 10:48:59.252908 1994072832 net.cpp:394] loss <- ip2
I0109 10:48:59.252923 1994072832 net.cpp:394] loss <- label
I0109 10:48:59.252931 1994072832 net.cpp:356] loss -> loss
I0109 10:48:59.252938 1994072832 net.cpp:96] Setting up loss
I0109 10:48:59.252949 1994072832 net.cpp:103] Top shape: 1 1 1 1 (1)
I0109 10:48:59.252993 1994072832 net.cpp:109]     with loss weight 1
I0109 10:48:59.253250 1994072832 net.cpp:170] loss needs backward computation.
I0109 10:48:59.253257 1994072832 net.cpp:170] ip2 needs backward computation.
I0109 10:48:59.253260 1994072832 net.cpp:170] relu1 needs backward computation.
I0109 10:48:59.253263 1994072832 net.cpp:170] ip1 needs backward computation.
I0109 10:48:59.253267 1994072832 net.cpp:170] pool2 needs backward computation.
…
I0109 10:48:59.253311 1994072832 net.cpp:220] Memory required for data: 4846804
I0109 10:48:59.253382 1994072832 solver.cpp:151] Creating test net (#0) specified by net_param
I0109 10:48:59.253413 1994072832 net.cpp:275] The NetState phase (1) differed from the phase (0) specified by a rule in layer mnist
I0109 10:48:59.253423 1994072832 net.cpp:39] Initializing net from parameters: 
name: "LeNet"
layers {
  top: "data"
  top: "label"
  name: "mnist"
  type: DATA
  data_param {
    source: "mnist_te_ldb"
    batch_size: 100
    backend: LEVELDB
  }
  include {
    phase: TEST
  }
  transform_param {
    scale: 0.00390625
  }
}
layers {
  bottom: "data"
  top: "conv1"
  name: "conv1"
  type: CONVOLUTION
  blobs_lr: 1
  blobs_lr: 2
  convolution_param {
    num_output: 20
    kernel_size: 5
    stride: 1
    weight_filler {
      type: "xavier"
    }
    bias_filler {
      type: "constant"
    }
  }
}
layers {
  bottom: "conv1"
  top: "pool1"
  name: "pool1"
  type: POOLING
  pooling_param {
    pool: MAX
    kernel_size: 2
    stride: 2
  }
}
layers {
  bottom: "pool1"
  top: "conv2"
  name: "conv2"
  type: CONVOLUTION
  blobs_lr: 1
  blobs_lr: 2
  convolution_param {
    num_output: 50
    kernel_size: 5
    stride: 1
    weight_filler {
      type: "xavier"
    }
    bias_filler {
      type: "constant"
    }
  }
}
layers {
  bottom: "conv2"
  top: "pool2"
  name: "pool2"
  type: POOLING
  pooling_param {
    pool: MAX
    kernel_size: 2
    stride: 2
  }
}
layers {
  bottom: "pool2"
  top: "ip1"
  name: "ip1"
  type: INNER_PRODUCT
  blobs_lr: 1
  blobs_lr: 2
  inner_product_param {
    num_output: 500
    weight_filler {
      type: "xavier"
    }
    bias_filler {
      type: "constant"
    }
  }
}
layers {
  bottom: "ip1"
  top: "ip1"
  name: "relu1"
  type: RELU
}
layers {
  bottom: "ip1"
  top: "ip2"
  name: "ip2"
  type: INNER_PRODUCT
  blobs_lr: 1
  blobs_lr: 2
  inner_product_param {
    num_output: 10
    weight_filler {
      type: "xavier"
    }
    bias_filler {
      type: "constant"
    }
  }
}
layers {
  bottom: "ip2"
  bottom: "label"
  top: "accuracy"
  name: "accuracy"
  type: ACCURACY
  include {
    phase: TEST
  }
}
layers {
  bottom: "ip2"
  bottom: "label"
  top: "loss"
  name: "loss"
  type: SOFTMAX_LOSS
}
state {
  phase: TEST
}
I0109 10:48:59.253769 1994072832 net.cpp:67] Creating Layer mnist
I0109 10:48:59.253775 1994072832 net.cpp:356] mnist -> data
I0109 10:48:59.253782 1994072832 net.cpp:356] mnist -> label
I0109 10:48:59.253787 1994072832 net.cpp:96] Setting up mnist
I0109 10:48:59.253792 1994072832 data_layer.cpp:45] Opening leveldb mnist_te_ldb
I0109 10:48:59.319061 1994072832 data_layer.cpp:128] output data size: 100,1,28,28
I0109 10:48:59.319141 1994072832 net.cpp:103] Top shape: 100 1 28 28 (78400)
I0109 10:48:59.319157 1994072832 net.cpp:103] Top shape: 100 1 1 1 (100)
I0109 10:48:59.319167 1994072832 net.cpp:67] Creating Layer label_mnist_1_split
I0109 10:48:59.319171 1994072832 net.cpp:394] label_mnist_1_split <- label
I0109 10:48:59.319180 1994072832 net.cpp:356] label_mnist_1_split -> label_mnist_1_split_0
I0109 10:48:59.319205 1994072832 net.cpp:356] label_mnist_1_split -> label_mnist_1_split_1
I0109 10:48:59.319211 1994072832 net.cpp:96] Setting up label_mnist_1_split
I0109 10:48:59.319216 1994072832 net.cpp:103] Top shape: 100 1 1 1 (100)
I0109 10:48:59.319218 1994072832 net.cpp:103] Top shape: 100 1 1 1 (100)
I0109 10:48:59.319224 1994072832 net.cpp:67] Creating Layer conv1
I0109 10:48:59.319227 1994072832 net.cpp:394] conv1 <- data
I0109 10:48:59.319232 1994072832 net.cpp:356] conv1 -> conv1
I0109 10:48:59.319238 1994072832 net.cpp:96] Setting up conv1
I0109 10:48:59.319253 1994072832 net.cpp:103] Top shape: 100 20 24 24 (1152000)
I0109 10:48:59.319262 1994072832 net.cpp:67] Creating Layer pool1
I0109 10:48:59.319265 1994072832 net.cpp:394] pool1 <- conv1
I0109 10:48:59.319272 1994072832 net.cpp:356] pool1 -> pool1
I0109 10:48:59.319278 1994072832 net.cpp:96] Setting up pool1
I0109 10:48:59.319283 1994072832 net.cpp:103] Top shape: 100 20 12 12 (288000)
I0109 10:48:59.319288 1994072832 net.cpp:67] Creating Layer conv2
I0109 10:48:59.319290 1994072832 net.cpp:394] conv2 <- pool1
I0109 10:48:59.319294 1994072832 net.cpp:356] conv2 -> conv2
I0109 10:48:59.319299 1994072832 net.cpp:96] Setting up conv2
I0109 10:48:59.319442 1994072832 net.cpp:103] Top shape: 100 50 8 8 (320000)
I0109 10:48:59.319453 1994072832 net.cpp:67] Creating Layer pool2
I0109 10:48:59.319455 1994072832 net.cpp:394] pool2 <- conv2
I0109 10:48:59.319460 1994072832 net.cpp:356] pool2 -> pool2
I0109 10:48:59.319464 1994072832 net.cpp:96] Setting up pool2
I0109 10:48:59.319468 1994072832 net.cpp:103] Top shape: 100 50 4 4 (80000)
I0109 10:48:59.319473 1994072832 net.cpp:67] Creating Layer ip1
I0109 10:48:59.319476 1994072832 net.cpp:394] ip1 <- pool2
I0109 10:48:59.319480 1994072832 net.cpp:356] ip1 -> ip1
I0109 10:48:59.319486 1994072832 net.cpp:96] Setting up ip1
I0109 10:48:59.322618 1994072832 net.cpp:103] Top shape: 100 500 1 1 (50000)
I0109 10:48:59.322640 1994072832 net.cpp:67] Creating Layer relu1
I0109 10:48:59.322645 1994072832 net.cpp:394] relu1 <- ip1
I0109 10:48:59.322650 1994072832 net.cpp:345] relu1 -> ip1 (in-place)
I0109 10:48:59.322655 1994072832 net.cpp:96] Setting up relu1
I0109 10:48:59.322659 1994072832 net.cpp:103] Top shape: 100 500 1 1 (50000)
I0109 10:48:59.322665 1994072832 net.cpp:67] Creating Layer ip2
I0109 10:48:59.322669 1994072832 net.cpp:394] ip2 <- ip1
I0109 10:48:59.322674 1994072832 net.cpp:356] ip2 -> ip2
I0109 10:48:59.322679 1994072832 net.cpp:96] Setting up ip2
I0109 10:48:59.322760 1994072832 net.cpp:103] Top shape: 100 10 1 1 (1000)
I0109 10:48:59.322774 1994072832 net.cpp:67] Creating Layer ip2_ip2_0_split
I0109 10:48:59.322777 1994072832 net.cpp:394] ip2_ip2_0_split <- ip2
I0109 10:48:59.322782 1994072832 net.cpp:356] ip2_ip2_0_split -> ip2_ip2_0_split_0
I0109 10:48:59.322788 1994072832 net.cpp:356] ip2_ip2_0_split -> ip2_ip2_0_split_1
I0109 10:48:59.322793 1994072832 net.cpp:96] Setting up ip2_ip2_0_split
I0109 10:48:59.322798 1994072832 net.cpp:103] Top shape: 100 10 1 1 (1000)
I0109 10:48:59.322800 1994072832 net.cpp:103] Top shape: 100 10 1 1 (1000)
I0109 10:48:59.322805 1994072832 net.cpp:67] Creating Layer accuracy
I0109 10:48:59.322809 1994072832 net.cpp:394] accuracy <- ip2_ip2_0_split_0
I0109 10:48:59.322813 1994072832 net.cpp:394] accuracy <- label_mnist_1_split_0
I0109 10:48:59.322818 1994072832 net.cpp:356] accuracy -> accuracy
I0109 10:48:59.322823 1994072832 net.cpp:96] Setting up accuracy
I0109 10:48:59.322826 1994072832 net.cpp:103] Top shape: 1 1 1 1 (1)
I0109 10:48:59.322831 1994072832 net.cpp:67] Creating Layer loss
I0109 10:48:59.322835 1994072832 net.cpp:394] loss <- ip2_ip2_0_split_1
I0109 10:48:59.322840 1994072832 net.cpp:394] loss <- label_mnist_1_split_1
I0109 10:48:59.322844 1994072832 net.cpp:356] loss -> loss
I0109 10:48:59.322849 1994072832 net.cpp:96] Setting up loss
I0109 10:48:59.322854 1994072832 net.cpp:103] Top shape: 1 1 1 1 (1)
I0109 10:48:59.322857 1994072832 net.cpp:109]     with loss weight 1
I0109 10:48:59.322867 1994072832 net.cpp:170] loss needs backward computation.
I0109 10:48:59.322890 1994072832 net.cpp:172] accuracy does not need backward computation.
I0109 10:48:59.322893 1994072832 net.cpp:170] ip2_ip2_0_split needs backward computation.
I0109 10:48:59.322896 1994072832 net.cpp:170] ip2 needs backward computation.
…
